embedding_autoencoder_transformer/best_autoencoder_transformer.pth (torch, 186986 bytes, 96 tensors)

encoder.embedding.weight f4 [16, 40]
000000 c8 e1 2e 3d 19 d9 8f 3c 40 5a 7c bc ec b6 9a bd
       0.04269579 0.017559575 -0.015402377 -0.07554421
000010 70 59 89 bd f7 95 87 bc 32 87 71 bc 96 cf 0c 3d
       -0.06706512 -0.016551001 -0.014741706 0.034377657
000020 de 26 d0 3c 67 53 f8 3d 4c 35 46 be 65 c2 c7 bc
       0.025409158 0.12125283 -0.19356269 -0.024384687
000030 c7 b5 08 3c 03 26 b9 bd 6f 44 8a bd 76 23 28 bd
       0.00834412 -0.09040453 -0.06751334 -0.041049443
000040 88 81 ad 3d 32 f7 81 be d3 2d 60 bd 84 4c 8d bc
       0.08471972 -0.25383908 -0.0547312 -0.0172484
000050 23 1d 32 3d 5e 6b 31 be 57 de 47 bd 9e eb 82 bc
       0.04348482 -0.17326114 -0.048796024 -0.015981492
000060 f4 8e 11 3d 48 ff 43 bd c6 e1 c0 bd ba 87 14 be
       0.03553672 -0.047850877 -0.09418063 -0.145049
000070 70 cb 5b 3d 72 20 d4 3b 67 05 d9 bc 32 f2 03 3e
       0.05366081 0.0064735943 -0.026491834 0.12885359
000080 0e 8f e8 3d 5f 71 a0 bd 4e 24 82 bb b6 9d f0 bc
       0.113554105 -0.07834124 -0.003971613 -0.029372077
000090 40 15 d5 bd 8f 0e c1 3c 89 ff 8e bd b6 16 d7 3c
       -0.10404444 0.023566512 -0.06982333 0.026255947
0000a0 5e 0b 0f 3d 18 fd 55 bd f5 31 3f bd 6f d1 c5 3d
       0.03492295 -0.052243322 -0.046678502 0.09659087
0000b0 7d 35 6c bd 3b eb 51 3e 92 6d 98 3b 63 9a b0 3c
       -0.057668198 0.2049989 0.0046517337 0.021557992
0000c0 9c 4d 0d 3e ff f6 08 be b8 cd 80 bd 8a 5c 45 bc
       0.13799137 -0.13375472 -0.06289238 -0.012045989
0000d0 bd 2f 13 3d 61 32 d8 bc 8e f2 2b bd 04 88 8a bd
       0.0359342 -0.02639121 -0.041979365 -0.06764224
0000e0 87 97 13 3e 29 b6 41 3d 8e 1f 0e 3e d2 42 19 3c
       0.14413272 0.047292862 0.13879225 0.00935431
0000f0 bf c3 2e be 0a db b2 3d bd 91 5a bd d3 af 3f bd
       -0.17066859 0.08733185 -0.053361643 -0.04679854
000100 5e de 96 bb 54 dd 0c 3c e8 aa d2 3b 15 fb b0 bd
       -0.004604145 0.008597691 0.006429065 -0.0864164
000110 60 fe f8 3c ac ce a0 3c 30 81 ba bc c2 b4 0a be
       0.030394733 0.019629799 -0.02276668 -0.13545516
000120 d7 0c 7d 3d 72 d7 63 bd 4f 44 ca bb b2 88 96 bc
       0.061779823 -0.055625387 -0.006172694 -0.018375728
000130 f3 19 e6 bd 69 5e 11 3d 49 c0 10 3d 9f e3 51 3d
       -0.11235418 0.035490427 0.035339627 0.051242467
000140 02 cd cc bb e4 7d 7a bb a4 bb b9 3c 38 e3 97 3b
       -0.006250025 -0.003822201 0.022672482 0.004635241
000150 34 17 dd bc b9 ce bf bd e5 36 85 3c 72 45 b6 3c
       -0.026988603 -0.09365601 0.016261527 0.022249911
000160 27 04 d6 bd 74 6d dd 3b bd 34 c8 bd 78 22 85 bc
       -0.10450011 0.0067574326 -0.09775684 -0.016251788
000170 1a b1 87 bb d6 bb 2d be 0c f0 04 3c f5 b2 43 bd
       -0.004140985 -0.16966185 0.008113872 -0.04777809
000180 44 15 a6 bd 35 5b 05 3e 4e f0 16 bd ab d8 b4 3c
       -0.08109525 0.13023074 -0.036850266 0.022075972
000190 8f 07 e3 bc 6d 96 4d 3d 4c 6d 0c be 1d e6 00 be
       -0.027713565 0.050192285 -0.13713568 -0.12587781
0001a0 92 07 c1 bd 99 9e 29 3c 32 61 80 bd e9 39 9d 3d
       -0.09425272 0.010352754 -0.062685385 0.07677061
0001b0 a4 43 10 be aa c4 3b bc a7 65 59 3c cd cf 4f 3c
       -0.14088303 -0.011460463 0.013268865 0.012683821
0001c0 51 1b 6b bd de 3c 0e 3d 29 38 03 bb 5a f2 96 bb
       -0.057399098 0.034726016 -0.0020022488 -0.0046065273
0001d0 06 56 7e 3d 93 9b 08 be a4 7b 2e be 72 35 ed bc
       0.062093757 -0.13340597 -0.17039353 -0.028956149
0001e0 9b 50 b0 3a 1a 59 91 bd 5c 51 30 bd a5 75 06 3c
       0.0013451757 -0.07097073 -0.04304634 0.00820676
0001f0 0e a4 20 bd 73 a5 bd bc ce 71 8f ba d5 b1 a8 3c
       -0.039218955 -0.023150181 -0.0010943951 0.02059261
000200 19 72 ea bd 56 99 fe 3c 29 3a b3 3c 9b 6e 8d 3c
       -0.11447544 0.031078976 0.021878319 0.017264655
000210 5a d9 14 bc 9e 77 c2 3d cd 03 f3 3c ad 14 81 be
       -0.009085024 0.094954714 0.029664898 -0.25211087
000220 86 4b 43 3e e4 a8 9a bc 73 0a 12 bd 5e 92 5e 3a
       0.19071779 -0.018879361 -0.035654496 0.00084904383
000230 d4 71 89 3b 22 fb b4 3d ed 2f 83 3d e1 ea 91 3d
       0.0041944776 0.08836962 0.064056255 0.07124878
000240 2e 55 a1 3d dd ee b0 bd f6 ff 59 3c da 36 fd 3d
       0.07877575 -0.086393096 0.013305655 0.12363978
000250 f0 21 ce 3c e2 e1 b1 3c a0 58 c2 3a 4c 0f be 3c
       0.025162667 0.021714155 0.0014827438 0.023200653
000260 ac 02 bb bd e6 12 3e be b9 4c 35 bb d4 5d da bc
       -0.09131369 -0.18561897 -0.0027664138 -0.026656069
000270 5a 65 25 3e 01 bd b9 bd 80 24 f0 bd ea 7a 00 bd
       0.16151944 -0.09069253 -0.11725712 -0.03136722
000280 94 da d4 bb c5 a4 6c 3d 28 7a be 3d e4 65 d7 3d
       -0.006495783 0.057774324 0.09300643 0.10517481
000290 6f ee dd bc 95 d7 63 bd 92 e8 22 3c b0 95 03 3d
       -0.027091233 -0.055625517 0.009943144 0.032125175
0002a0 b1 a6 c0 bd 1c de a5 bd 99 d5 e4 bc 6d a7 f9 bd
       -0.09406794 -0.080990046 -0.027933883 -0.12190137
0002b0 ce c9 2a 3c 8e d9 25 3b f4 1f 5e 3d c9 c3 d0 3c
       0.010424091 0.0025306675 0.05422969 0.025483983
0002c0 9c 30 22 3d 17 f2 f1 3c 04 72 49 bd 7b c3 75 3d
       0.03959714 0.029534383 -0.049181 0.060000878
0002d0 c8 2f 4d bd 72 cd f8 3c 0b 1b d7 3c 02 7a 68 3d
       -0.050094396 0.030371401 0.026258012 0.05675698
0002e0 33 07 a9 3d cb d1 0d 3d 30 98 0b 3c b5 6a 24 bd
       0.08253326 0.034623902 0.008520171 -0.040140826
0002f0 c0 14 ef bd f0 a4 7f 3c 92 38 fd bc e1 ca 70 bd
       -0.116738796 0.015603289 -0.030910764 -0.05878723
000300 98 fa 02 bd 64 26 cf 3c fc d3 65 b9 0e e9 8c bc
       -0.031977266 0.02528686 -0.00021918112 -0.017200973
000310 49 16 e1 bc 7d 79 80 bd fd ec ed 3c e1 2d ae bc
       -0.027476447 -0.06273172 0.029043669 -0.021262111
000320 95 9c f5 3b e1 e1 21 3b 95 b9 b2 3d 46 02 b4 3d
       0.0074954727 0.0024701285 0.08726803 0.08789496
000330 e1 1f 9f bc 06 e8 08 3e 21 b5 1c 3d f6 68 ac 3c
       -0.01942438 0.1336976 0.038258675 0.021046143
000340 b3 0e 3f 3d 65 e4 31 3c 1b 49 b3 3d 2e 17 d5 3d
       0.046644878 0.010857676 0.08754178 0.10404812
000350 6a 8a 18 3c aa 60 af 3d f0 ac b7 3d d9 72 65 3d
       0.009310344 0.08563359 0.08968532 0.05601773
000360 ca 70 15 3d 2e 7f 00 be 02 be 96 3d 42 44 68 3d
       0.036484517 -0.12548515 0.0736046 0.05670572
000370 36 4c 72 3d 57 c0 ea bd ec b1 be bd 24 c5 9b bd
       0.05915471 -0.11462467 -0.0931128 -0.07605961
000380 b6 e9 df bc b0 f0 b9 bd 7b e4 23 3e 22 88 74 bd
       -0.027333122 -0.090791106 0.16005127 -0.05970014
000390 e0 58 12 be 30 1d 88 bb 93 56 9b bd 6f e3 81 3b
       -0.14291716 -0.00415387 -0.07584872 0.00396388
0003a0 da 7f ba bd 99 c9 83 be 2a 85 b8 bb ba 7f c4 bc
       -0.09106417 -0.25739744 -0.005631109 -0.023986686
0003b0 21 25 30 3d 5e 71 16 be 87 2b 8d bc 90 2a 1f bd
       0.04300416 -0.14691684 -0.01723267 -0.03885895
0003c0 dc 29 4e bb b5 87 f0 bc f2 ea 00 3c c0 d7 ea bd
       -0.0031458056 -0.029361585 0.007868515 -0.11466932
0003d0 fe bf f3 bc f5 f8 96 3d 4d 2e 8c 3c 4c da d5 3c
       -0.029754635 0.073717035 0.017111922 0.026105069
0003e0 49 5c 02 3d 86 3b 15 3d a0 4a 96 bd 7d d0 b0 bc
       0.03182629 0.03643372 -0.07338452 -0.02158379
0003f0 44 a9 58 3d 19 a7 60 bd 9f b4 2a 3d f8 d7 2e bd
       0.0528958 -0.054846857 0.04167616 -0.042686433

encoder.embedding.bias f4 [16]
000000 96 65 40 bb 8b d1 ac 3e 25 5d 81 3e 87 30 d1 3d
       -0.0029357425 0.3375362 0.25266376 0.10214334
000010 6f b3 e7 be fa 3e e9 bd b3 78 0a be ee 75 d5 3d
       -0.45254084 -0.11388965 -0.13522606 0.10422884
000020 9b 9b 4d 3e 70 5a c7 3c cc b7 af be b2 11 14 3e
       0.2007889 0.024335116 -0.34319913 0.14459875
000030 07 d2 88 bd 89 fb 81 be 08 89 bc 3e 73 25 bb 3d
       -0.066806845 -0.2538722 0.36823297 0.09138002

encoder.transformer_encoder.layers.0.self_attn.in_proj_weight f4 [48, 16]
000000 e1 49 2c be e3 a5 26 be e4 7e 2b be e7 bb 78 3e
       -0.16825058 -0.16274218 -0.16747624 0.24290429
000010 c7 d2 fe bd 2f 48 2b be 46 c7 26 3e 80 04 cb bd
       -0.12442546 -0.16726755 0.16286954 -0.09912968
000020 dd 5f 36 be f8 23 09 be 0a 47 0a 3c 60 10 93 be
       -0.17810006 -0.13392627 0.008439789 -0.2872343
000030 bd 00 f2 3d 49 0d 24 be b3 76 f7 3d 49 67 8a be
       0.11816547 -0.16020693 0.12083187 -0.27031925
000040 38 df 06 3e 16 c4 97 be 86 68 cc bd c0 0e 55 be
       0.13171089 -0.2964179 -0.09980874 -0.20806408
000050 28 4b e0 bd 45 ad 64 be 47 21 0e 3d 32 7f 65 be
       -0.10951835 -0.22331722 0.034699704 -0.22411802
000060 ed 5a c7 bb b5 19 ca 3d 2f f4 84 be af fa 59 3d
       -0.0060838372 0.098681845 -0.25967547 0.053217586
000070 e8 cf cd 3d 43 23 21 3e 10 f6 88 3d 69 c6 ce bc
       0.100494206 0.15736108 0.06687558 -0.025241094
000080 68 5d 54 be 50 c3 1a be d6 06 51 be 0f cf 46 be
       -0.20738757 -0.15113568 -0.20412764 -0.19414924
000090 da d1 2e 3e 9e 5b ec 3d 88 34 b3 3d c7 c5 20 bd
       0.1707224 0.11540912 0.08750254 -0.039251115
0000a0 86 38 0b bc 3b de 4d be b6 c8 8d be c6 f4 ad bc
       -0.008497363 -0.20104305 -0.27692193 -0.021234881
0000b0 53 8c 54 be 5a 23 9f 3d d1 00 9c bd 49 11 de 3d
       -0.20756654 0.07770415 -0.07617343 0.10843141
0000c0 5e 2b 91 3e 75 ff 51 3e 91 7b 82 be 8c e0 3b 3e
       0.283534 0.20507605 -0.254849 0.18347377
0000d0 4a af 8d 3e 75 51 8b 3d 7d 34 1f 3e 7e f6 7a 3c
       0.27672797 0.06802646 0.15547366 0.015317557
0000e0 37 03 42 be fe f3 0f bd 18 1f 38 be f7 3c cb bd
       -0.18946539 -0.0351448 -0.17980611 -0.099237375
0000f0 64 3c 9b 3d 31 87 32 3e 54 21 89 3d e6 dc 95 3e
       0.07579878 0.17434384 0.0669581 0.29270095
000100 31 11 95 3e e7 80 31 3d e9 87 91 3e 32 a8 5d 3e
       0.29114679 0.04333582 0.28424004 0.21646193
000110 0b 63 b7 3d ea 39 52 bd 4b d1 72 be 48 bb 3b be
       0.08954438 -0.051324762 -0.23712651 -0.18333161
000120 6e d5 85 be fd 9e 09 bd 4d e7 45 3d 6a 3e 18 3d
       -0.26139396 -0.03359889 0.04831629 0.037168898
000130 3c 9e bc bd d5 39 f2 3c dd a6 9e bd 02 0b 29 be
       -0.09209868 0.029568592 -0.077466704 -0.16508105
000140 96 fa ff bd b8 28 d5 bd 9b d9 95 be 09 a9 36 be
       -0.12498967 -0.10408157 -0.29267582 -0.1783792
000150 49 99 46 3e 8d 33 06 3e ef af 75 3e 5f 2f 8d be
       0.19394411 0.13105603 0.23992895 -0.27575204
000160 00 d6 c2 3d 7a 59 97 3d 20 a6 15 bd 0a fd 10 be
       0.095134735 0.07390113 -0.036535382 -0.14159027
000170 e2 94 21 3d 88 f5 84 be 52 48 15 3e 07 8c 2b be
       0.039448626 -0.25968575 0.1457837 -0.16752635
000180 ce 52 86 be 47 c2 4f be 61 3f 5a 3e fd 54 e0 bd
       -0.2623505 -0.20288955 0.2131324 -0.1095371
000190 b2 90 a3 3a 24 aa 77 be cb 61 a5 3b 7d cc 3b be
       0.0012479036 -0.24185997 0.005047058 -0.18339725
0001a0 9d 64 d7 bd 56 24 29 3d 1c 91 bb bd fb 80 1d be
       -0.10517237 0.04129442 -0.09158537 -0.15381233
0001b0 e4 83 28 3e c1 c1 89 3e 8d 8f c2 b9 87 c6 22 3d
       0.16456562 0.26905635 -0.00037109517 0.03974011
0001c0 60 12 84 3d a3 95 79 3e d2 ac 85 3e 18 3d 33 bd
       0.06448817 0.24373488 0.26108414 -0.043759435
0001d0 f5 9f 5c be e2 38 1b be ad 97 9e 3d e4 f5 8a 3e
       -0.21545394 -0.15158418 0.077437736 0.27140725
0001e0 f5 b7 91 be ca 9f 30 be 0f 9f 84 3e 65 4d 40 be
       -0.2846066 -0.17248455 0.25902602 -0.18779524
0001f0 8a ff 19 bd 61 03 f6 3d 50 0d 80 be f2 d6 3d 3e
       -0.037597217 0.12012363 -0.25010157 0.18539026
000200 4e 98 0c be 10 0e a4 3c f8 65 31 be f4 5e 32 be
       -0.13729975 0.020026237 -0.17324054 -0.17419034
000210 ca 1d 78 3d 72 4f 71 be c6 72 c5 3c d2 a5 59 be
       0.060575284 -0.23565462 0.02410258 -0.21254662
000220 65 4d c1 bd b3 29 8d bd 83 b8 18 bc ad f2 f0 bc
       -0.0943859 -0.06892719 -0.009321335 -0.029412592
000230 32 cb 9a bd d9 38 1e 3e 10 61 90 3c 4e df b0 3b
       -0.07558288 0.15451373 0.017624408 0.0053977137
000240 51 d1 0c 3d 6a 9c 13 3e 87 ea ce 3c 98 75 ea 3d
       0.034379307 0.14415136 0.025258316 0.114482105
000250 0c b5 01 bd b2 b1 e3 3d 7f 05 0f 3d 6c 04 a8 bd
       -0.0316668 0.11117877 0.03491735 -0.082039684
000260 37 33 31 bd 4d 7c ad bc 27 68 7e 3e db c0 79 be
       -0.043261733 -0.021177435 0.24844418 -0.24389975
000270 02 1f d2 3d 54 57 a4 3c 2c c1 21 3e fc 48 5a be
       0.102598205 0.020061173 0.15796345 -0.21316904
000280 ed dc 06 3e 56 30 8e be e3 f4 26 be c8 c4 7a 3d
       0.13170214 -0.27771252 -0.16304354 0.06122282
000290 cc 67 7c 3e 54 46 57 3e 8e de 33 3e 6c 63 25 3b
       0.2464897 0.21022922 0.17565367 0.0025236262
0002a0 fa b5 5f bd c7 d3 28 be 6d 90 92 be dc 4b 2a be
       -0.054616906 -0.16487037 -0.28625813 -0.166305
0002b0 c7 ee 04 bd 1d 36 12 be 18 b6 72 be e2 13 57 3e
       -0.03245428 -0.14278455 -0.23702276 0.21003678
0002c0 76 27 18 3d 23 e5 ee 3d db 78 c5 3d bb 5a 06 bc
       0.037147008 0.11664798 0.09642192 -0.008200343
0002d0 e7 39 11 3e a7 52 de 3c fd 8e 62 be 7b 89 6a be
       0.14182244 0.027139021 -0.22124858 -0.22904007
0002e0 b3 39 06 be 26 20 56 3d 08 ff bf 3c cd ee 49 bd
       -0.13107948 0.052276753 0.023437038 -0.049300004
0002f0 69 a1 49 3e 91 54 f6 3d b4 ed 24 3e c3 cd 86 be
       0.1969048 0.120278485 0.16106302 -0.2632886
000300 41 23 f1 3d 92 41 24 3e e9 46 00 3e 3b 06 b2 3d
       0.11774302 0.16040638 0.1252705 0.086925946
000310 f8 3e 1f 3e 5d fa 58 3d 3a 1b 2a be ca fa 11 3e
       0.15551364 0.05297314 -0.16611949 0.14255825
000320 11 70 36 3d 79 68 5e 3e 59 01 4a bc 6b e7 42 3e
       0.04454047 0.2171954 -0.012329423 0.19033591
000330 6d 46 fb 3d 67 42 71 bd fa 4e 29 be cc 85 16 bb
       0.12269292 -0.058901217 -0.16534033 -0.0022967933
000340 3a d8 f7 bd a4 99 10 3e 5d 0e 3e 3e 58 62 01 bd
       -0.12101789 0.14121109 0.18560167 -0.03158793
000350 79 64 10 be 0e 6c d5 3d b8 4d 81 3c 66 42 2f 3e
       -0.14100827 0.104210004 0.01578413 0.17115173
000360 ce 3d c1 bd 95 36 7c be 1e f0 8c 3e d3 80 13 3e
       -0.094356164 -0.24630196 0.27526945 0.14404611
000370 df 2e 1a bb 94 af 23 be 9b d0 1e be 98 44 5b 3d
       -0.0023526473 -0.15984946 -0.15509264 0.053532213
000380 9c 1c 2e 3e 0d 0d 6a be 2e 22 4d be 80 ac 7a 3e
       0.17003101 -0.22856541 -0.2003257 0.24479866
000390 1e 9c ef bc cd c9 34 be a8 ac 1e 3e 33 86 77 3e
       -0.029249247 -0.17655106 0.1549555 0.24172287
0003a0 42 68 06 be ae b2 3b 3e db 31 01 3d 27 ee 85 bd
       -0.13125709 0.1832988 0.031541687 -0.065395646
0003b0 0c b8 31 3e 8d 56 62 3e 26 bf 25 3e e1 8d d5 bc
       0.17355365 0.22103329 0.16186199 -0.02606863
0003c0 5c 7b 74 3e d7 75 84 3e 28 a2 eb 3d e4 a8 ab 3d
       0.23875183 0.25871155 0.11505538 0.08381823
0003d0 ea c7 ef 3d b3 25 89 bd 7d 67 cb bd 05 d0 7d 3c
       0.117080525 -0.06696644 -0.09931848 0.01549149
0003e0 74 76 ab bc 29 9e 21 bc a8 ec 5b bd bd d5 bc bd
       -0.020930506 -0.0098643685 -0.05369249 -0.09220455
0003f0 44 b5 78 3d 27 6c 14 3d 93 3a ca bd fc 69 c7 3c
       0.060719743 0.036235955 -0.098744534 0.02434253

encoder.transformer_encoder.layers.0.self_attn.in_proj_bias f4 [48]
000000 de 15 fb 3c 62 a2 7d 3d 46 d9 90 bd 0c 82 83 3d
       0.030650076 0.06192244 -0.070726916 0.06421289
000010 cf fc 46 3d 9a ec 00 bd a5 87 60 3d 3d a7 2d bd
       0.04858094 -0.03147564 0.05481686 -0.04239582
000020 4f 5f 9f bd d6 5d 9d bd 93 ea ad bd 7a 7d ab bc
       -0.077818505 -0.076839134 -0.08492007 -0.020933855
000030 ab 48 7f 3d 54 28 03 bd fc 2a 97 3d 1c fc 22 3d
       0.06232516 -0.03202088 0.073812455 0.03979121
000040 6a 18 a2 36 35 41 4a b7 9b ed ad 35 09 72 63 b7
       4.8308184e-06 -1.205532e-05 1.2958657e-06 -1.3556805e-05
000050 f3 c3 94 36 b6 b6 a8 35 9d d8 15 b6 42 38 55 37
       4.433555e-06 1.2570151e-06 -2.2328816e-06 1.2708888e-05
000060 6c 61 4d 36 f5 7a 78 36 db 8a d0 b5 52 e8 cf 37
       3.0604087e-06 3.702645e-06 -1.553762e-06 2.4784506e-05
000070 67 0e 44 b6 0e 4b c2 b7 73 0b 37 37 57 e6 b5 b4
       -2.921466e-06 -2.3161552e-05 1.0910316e-05 -3.3881471e-07
000080 a6 36 fc 3c 9b dc 2f 3d 7d e9 95 bc 75 50 f8 3c
       0.030787777 0.042934995 -0.018299812 0.030311802
000090 dc 59 74 bd 75 4b 5e 3c 51 e2 24 3c 43 5c b0 bb
       -0.05965601 0.013567795 0.010063724 -0.005382092
0000a0 5b be 11 bc b3 c8 16 3a 8b 08 30 3c 51 f8 af 3c
       -0.008895482 0.00057519524 0.010744224 0.021480711
0000b0 fa 27 bc 3b 33 95 8d bc f9 e5 2a 3c 76 5c 2e 3d
       0.0057420703 -0.017283058 0.010430806 0.042568646

encoder.transformer_encoder.layers.0.self_attn.out_proj.weight f4 [16, 16]
000000 92 da c4 3d f4 85 27 be de 51 f3 3d 92 85 e6 3d
       0.096120015 -0.16359693 0.11880849 0.11255945
000010 db ad 11 3e a3 e0 82 bd 95 07 a9 bc 7f 19 ef bc
       0.14226477 -0.06390502 -0.020633498 -0.029186962
000020 19 dd 22 bd 1a 9d 5d 3e c8 1c bc 3d e2 6a 2a be
       -0.039761636 0.2164196 0.09185177 -0.16642335
000030 70 16 65 3d 69 eb 09 3d 18 8c 1e 3e af 8a 4b bd
       0.0559296 0.03367177 0.15483129 -0.049692806
000040 4d 08 20 3e cc 3a 44 3e 2c 40 ad bd e8 ae e1 3c
       0.15628166 0.19163054 -0.084595054 0.027549222
000050 33 cf cb bd d5 13 b1 3c 8f b9 72 bd cd 50 9c 3d
       -0.099516295 0.021615902 -0.059258994 0.07632599
000060 08 fb 05 bd f6 40 2d 3e 9d e7 f1 3b c6 fe 75 3d
       -0.032710105 0.16919312 0.007382347 0.060057424
000070 ee 6b d8 3d d4 41 d1 3d f8 75 10 bc a5 d4 9e bc
       0.10567461 0.10217634 -0.008817188 -0.019388506
000080 c9 eb fe 3c 1f a0 3a 3e 1b 97 fe bd fc ad b1 bd
       0.03111829 0.18225144 -0.12431165 -0.08675763
000090 ba cb cd bb be 93 e5 3c 70 f2 c0 3d 41 24 df bd
       -0.0062803896 0.02802455 0.09421241 -0.10895587
0000a0 ff dc d4 bd 9c b0 d8 3d 5b 66 bc 3d 5d ed 27 be
       -0.10393714 0.105805606 0.0919921 -0.1639914
0000b0 08 d0 ab 3d 96 2f 8c bd fc da 0a bc 09 7b 22 be
       0.08389288 -0.06845014 -0.0084750615 -0.15867247
0000c0 fd 04 23 bd e4 9b 5f 3e 33 f5 00 bd 0e a6 02 3e
       -0.03979968 0.21836811 -0.03148384 0.12758657
0000d0 1a d9 37 be 0d b4 67 bc 06 a0 9a bd 8d 51 a3 bd
       -0.17953911 -0.014142049 -0.07550053 -0.07974539
0000e0 2f cb 10 be e7 f1 13 be ea 39 82 bd 06 3b 34 3d
       -0.14140008 -0.14447747 -0.063587025 0.0440016
0000f0 11 0f 49 bc fb 5d ca 3c 24 d4 01 be 1a 2c b3 bd
       -0.0122716585 0.024703017 -0.12678581 -0.08748646
000100 17 8e ca bd 60 3e 87 bd 13 6f 71 be 23 81 a7 bc
       -0.09890383 -0.06603694 -0.23577528 -0.02044732
000110 5a 7d ce 3d 41 b2 1b be 88 52 b5 3c 38 6d 36 be
       0.10082503 -0.15204717 0.02213408 -0.17815101
000120 d7 d1 47 3e cc b5 72 3d 5a 31 13 bd fe 11 54 be
       0.19513641 0.059255406 -0.035935737 -0.20709988
000130 3e 97 a7 3d 31 83 46 be 02 9b 13 3d 3e 27 61 3d
       0.08183144 -0.19385983 0.0360365 0.054969065
000140 bd b6 df bd 30 5c 18 3b f1 48 51 3d ae 8d 40 bd
       -0.109235264 0.0023248307 0.051094953 -0.047010116
000150 c7 dc 28 3d 97 5c 03 be f9 28 af bd af 0e 17 3e
       0.041226175 -0.12828289 -0.08552737 0.14751695
000160 24 4c 70 bd 0f cd 35 bd f7 d5 b5 3d 68 00 d5 3d
       -0.058666363 -0.044385012 0.08878701 0.10400468
000170 97 6f 1c 3e 81 f5 85 bd a9 00 3e be 2d ed bd bd
       0.15276943 -0.06540967 -0.1855494 -0.09273753
000180 cd b6 be bb e5 85 13 3e c9 4f 23 be d6 8b ae bd
       -0.0058201314 0.14406545 -0.15948404 -0.08522765
000190 71 0e e5 bd 37 0a 37 3c 37 40 62 bc ee d4 1e 3e
       -0.11184395 0.011171869 -0.013809255 0.15510914
0001a0 03 74 c0 3c 46 96 26 be 15 46 24 3c 15 5e 48 be
       0.023492819 -0.16268262 0.0100264745 -0.1956714
0001b0 30 1a a9 3d 5b d4 40 be 82 e3 29 3d a2 22 70 3e
       0.08256948 -0.18831007 0.041476734 0.23450711
0001c0 f1 1d a2 3c ac 8b ae 3c b0 0b 03 3c 59 5e 30 3e
       0.019789668 0.021306835 0.007998392 0.17223491
0001d0 d1 b4 e3 bd 97 7b 08 be 65 df 82 bd 57 ea 83 bd
       -0.11118472 -0.13328396 -0.063902654 -0.06441181
0001e0 a9 eb aa 3d b3 1b 86 3c c7 cb de bd c1 c2 fa 3d
       0.0834573 0.01637063 -0.10878711 0.122441776
0001f0 7b 6a 66 3d 72 07 a5 3b 0f 80 96 3c a6 e4 9d 39
       0.05625389 0.005036288 0.01837161 0.0003011573
000200 55 4c 22 bd ed ea d6 3d bd ea aa bd 38 43 c3 3c
       -0.039623577 0.10494027 -0.08345554 0.023835763
000210 fb 47 07 3d 6e e7 35 be 12 d9 86 bd 4e 9b 0a 3e
       0.03302763 -0.17764065 -0.065843716 0.13535807
000220 11 f5 0e 3e be 3b 9f 3d 7e c7 10 be 86 83 81 3d
       0.13960673 0.07775067 -0.141386 0.06323914
000230 2d 3d 1b 3e b0 b7 31 3c 8f 48 0e 3d d9 db f6 bb
       0.15160055 0.010847017 0.034737166 -0.007533532
000240 e4 64 8b bc 1a f7 14 3e 52 68 5d be 90 19 93 bd
       -0.017015882 0.14547387 -0.21621826 -0.0718261
000250 d5 c5 1c bd 8d d1 c7 3d 61 e8 78 bd 68 23 a2 3c
       -0.038274605 0.097567655 -0.06076849 0.019792274
000260 14 51 b4 3b 19 56 9c bd 13 75 a7 bd cb ee be 3d
       0.0055028293 -0.07633609 -0.08176627 0.0932289
000270 e9 87 b8 bd ff 24 5a 3d 6d 17 62 bc 5b aa ec 3c
       -0.09010298 0.05325794 -0.01379953 0.028889826
000280 a0 84 08 be 47 26 85 3d 5d e1 be bd dd fa 97 3d
       -0.13331842 0.065014414 -0.093203284 0.07420895
000290 28 9a 8e 3c 0f 27 4a bd 55 eb a3 bd 77 c5 24 3c
       0.017407492 -0.049353655 -0.080038704 0.010056845
0002a0 b6 7e a6 bd b8 c6 5a bd 99 1c 08 3e 88 ba e1 3c
       -0.08129637 -0.05341217 0.13292159 0.027554765
0002b0 c8 51 17 3e 0f 81 bf bd 71 4d 33 be 25 df cc bb
       0.14777291 -0.09350788 -0.1751001 -0.006252187
0002c0 42 a4 0d bc ef e9 59 bd 9e 06 8c bd 2b 49 09 bd
       -0.008645119 -0.053201612 -0.068372 -0.033517044
0002d0 02 09 0a bd cd f8 66 bd 23 b0 58 bd 32 9b d0 bd
       -0.033699997 -0.05638962 -0.052902352 -0.10185851
0002e0 72 b9 02 3d 7f 85 92 3d 1b ab e7 3c ca 19 1d bc
       0.031915136 0.071543686 0.028279832 -0.009588668
0002f0 4b bb 36 3e 8b a9 eb bd 2c b2 c7 bd 3b 8c 15 3d
       0.17844884 -0.11506947 -0.097507805 0.036510687
000300 b3 14 f3 3c ef 34 0d bd 5a ef e9 bd f4 18 12 3d
       0.029672956 -0.03447431 -0.11422606 0.03566833
000310 07 15 49 3e bc 76 7f bc 9a 68 d7 bc 7c dd 11 3d
       0.19636928 -0.015592273 -0.026294995 0.035611615
000320 92 a8 3b bd ac 3c 7d 3d 3d a3 e8 3c 5c d6 cd bd
       -0.045815058 0.06182544 0.02839815 -0.100506514
000330 8a c1 93 bd 12 a9 f3 3c 1e 99 0f 3e 51 2a 8a 3d
       -0.07214649 0.029743705 0.14023253 0.067463525
000340 d8 27 fb 3d 1a d2 45 3e fe c6 ce 3d 78 b9 01 be
       0.12263459 0.19318429 0.100965485 -0.12668407
000350 c1 77 90 bd f3 8d b9 3d 70 94 e4 bd d4 57 35 3e
       -0.07054091 0.09060278 -0.11161125 0.17709285
000360 01 59 f1 bd e9 10 f8 bd c2 35 63 be 36 a7 3b 3c
       -0.11784554 -0.121126 -0.22188476 0.01145344
000370 8a 37 9c bb 81 ec ab 3d 0d 4b 5d 3c 2e 5f 2e be
       -0.004767363 0.08394719 0.013506663 -0.17028496
000380 6b 27 e7 3d 8b ac de 3d 3b 24 85 3d 15 a1 73 3d
       0.11286815 0.10872754 0.06501051 0.05947979
000390 d6 42 b8 bd f3 37 00 bd bd de 18 3d 8e 44 0d be
       -0.08997123 -0.031303357 0.037321795 -0.13795683
0003a0 0f 95 9e bd f3 9d 40 3d ac 4e a6 3c cf 36 bb bd
       -0.077432744 0.047025632 0.020301186 -0.09141313
0003b0 86 3e a4 3d 23 2a 26 bc b8 30 04 3d 11 f7 0d be
       0.08019738 -0.010141882 0.032273024 -0.1386378
0003c0 74 1e 3b be 94 ea a1 3d 17 a0 53 be da 2b 90 3d
       -0.18273336 0.0790607 -0.20666538 0.07039614
0003d0 c1 f1 d6 bd f9 06 83 bd c1 36 02 3e e4 59 3b bd
       -0.1049533 -0.06397814 0.127162 -0.045740023
0003e0 d5 1c a4 3d f6 39 bd bd d4 83 0a 3d 2c d0 12 3e
       0.08013312 -0.09239571 0.033817127 0.14337224
0003f0 d9 8e 4e bd fe d8 fc bd 95 5f 17 bd 8a 36 23 3e
       -0.0504292 -0.123460755 -0.03695639 0.15938774

encoder.transformer_encoder.layers.0.self_attn.out_proj.bias f4 [16]
000000 f2 47 c0 bc 54 6a 2c 3d 93 ea 9c bc a6 fc 1b 3c
       -0.023471806 0.04209359 -0.019154822 0.009520685
000010 e0 61 5c bd d2 81 aa bc f4 ee 4e 3d 1e 24 7d 3c
       -0.05380428 -0.020813856 0.050520852 0.015450506
000020 d0 8a 5e bc e6 8e f9 b8 32 24 b9 bc f1 3b 03 3d
       -0.0135829 -0.00011899862 -0.022600267 0.032039586
000030 86 f6 ec bc 9d 28 6c bc 5c e2 88 3c 15 9c f7 3b
       -0.028926145 -0.01441398 0.016709499 0.007556448

encoder.transformer_encoder.layers.0.linear1.weight f4 [128, 16]
000000 28 54 06 3e 72 d0 b0 3b 0b a1 11 3e b2 e2 85 39
       0.1311804 0.0053959424 0.1422159 0.00025536638
000010 76 32 3e 3e a8 16 1d bd 01 c4 00 bc 63 75 69 3d
       0.18573937 -0.038351685 -0.007859231 0.056996714
000020 89 71 7a 3d 1c 4c e0 3d ea 19 ee 3d 4d b1 80 bc
       0.06114343 0.10952017 0.116260365 -0.015709544
000030 76 66 b9 3d 10 8a 82 3d f3 85 5e 3e 59 80 bd bd
       0.09052746 0.063739896 0.21730785 -0.09252996
000040 d3 0a 3d bd cd 9e 09 3e 52 5b fd bc ce ac 4d 3e
       -0.0461529 0.13439484 -0.030927334 0.20085451
000050 62 49 23 bd c1 4b 69 3e 0e 39 3a 3e b3 d4 e2 3d
       -0.039864905 0.22782804 0.18185827 0.110757254
000060 56 2d ac bd c1 2c 3b 3e e1 7f 9e 3d f7 71 54 bd
       -0.08407085 0.18278791 0.07739235 -0.051866498
000070 b2 de 91 3d a3 c5 40 3e 91 50 ae 3d ba fa fc bd
       0.07122554 0.18825392 0.085114606 -0.1235251
000080 fe db 22 be 34 fe c8 bc 1c dc 03 be 19 86 25 be
       -0.15904233 -0.024535276 -0.12876934 -0.16164435
000090 4b 86 84 3e be d2 02 be 92 af d3 3c b0 a5 fe bd
       0.25883707 -0.12775704 0.025840554 -0.12433946
0000a0 87 12 0e be 49 28 05 bd 1c e1 a5 bc 29 34 e2 bd
       -0.13874255 -0.032509122 -0.020248942 -0.11045105
0000b0 b7 17 b2 3d 4b a8 0e 3c 81 ad 4e 3d c9 9f 75 3d
       0.086959295 0.008707116 0.050458435 0.059966836
0000c0 5a 48 b8 bc ec f4 83 3d f9 c7 c0 bb e1 dc 27 3e
       -0.022495437 0.064431995 -0.0058832136 0.16392852
0000d0 aa 4d 96 3e 98 0d 1d 3e 2c 8f 35 bc 41 65 3b 3e
       0.29356128 0.15337217 -0.011081498 0.18300344
0000e0 e6 9b 3f 3e 3a 20 e7 3c e5 19 d6 3d 6e e0 3d 3d
       0.18711814 0.028213609 0.10454158 0.04635661
0000f0 96 c3 99 3d 61 b3 0c 3e 1a 8a 9b bd 58 74 b6 bd
       0.07508008 0.13740303 -0.075947 -0.089089096
000100 28 78 4b bc d2 6b 99 bd e9 6d de 3d 5c 5c cf bd
       -0.012418784 -0.07491268 0.108608074 -0.10125038
000110 c8 77 87 bd 4e d0 b1 3d d4 3b 41 3c 5b c6 81 bd
       -0.06614643 0.08682309 0.011794049 -0.063366614
000120 89 3a 8d 3d 95 c4 3f 3e 06 b9 02 bd 3f 0d c2 3c
       0.0689593 0.18727334 -0.031914733 0.023687957
000130 b4 98 8b bd 64 ae 88 3d 10 21 39 3c 64 86 c6 ba
       -0.06816235 0.06673887 0.011299387 -0.0015146253
000140 0b 75 ae bc d6 d0 43 3d 96 9c de bd af 5f d6 3d
       -0.021296045 0.047806583 -0.1086971 0.10467469
000150 fb c0 1d bd e9 b8 02 be 0f fa 15 3e 42 26 2e be
       -0.03851412 -0.1276585 0.14646171 -0.17006782
000160 6e 7b 16 be 81 8e 50 be 41 7e 0c bd db 27 a9 bb
       -0.14695522 -0.20366861 -0.034300093 -0.005162222
000170 f7 2a 0e 3e 77 02 98 3d ef 86 af bd e5 25 8d bd
       0.13883577 0.07422345 -0.085706584 -0.068919934
000180 66 d6 07 3d 91 9e b6 3d ef 1a 08 3c b7 1b 68 3d
       0.03316345 0.08916963 0.008307203 0.056667056
000190 0a d0 5b bd ca 35 23 be 1b c4 56 be ea 8c 1a 3d
       -0.0536652 -0.15938488 -0.20973246 0.037732042
0001a0 a1 66 bb 3d a2 de 1f 3d a8 91 a4 bd 0a 3d c4 bd
       0.09150434 0.03903068 -0.08035594 -0.09581955
0001b0 09 e4 f3 3d ec 37 fa bc 9b 60 c7 3d 00 86 6a bd
       0.11908729 -0.030544244 0.09735223 -0.0572567
0001c0 0b 33 f7 3d 96 1d 97 bc 23 79 17 3e 9e b1 ce bd
       0.120702825 -0.018446725 0.14792304 -0.100924715
0001d0 89 a8 23 3e 0f 0f 50 3d e4 8d 4e bd 40 cb 3a 3e
       0.1598226 0.05079561 -0.050428286 0.18241596
0001e0 4b 17 1e 3d 38 33 24 3e 6b 41 18 3e 2a b3 f4 3c
       0.038596433 0.16035163 0.14868705 0.029870588
0001f0 07 e1 00 bd 30 29 1c 3e 8b 29 b4 3d a3 c4 f2 bd
       -0.031464603 0.15250087 0.08796986 -0.11853912
000200 e1 79 12 3e c1 53 22 be 5e 4e 10 be cb f1 23 bd
       0.14304306 -0.15852262 -0.14092395 -0.040025514
000210 ed 85 8f bd f6 82 fe 3d e7 77 35 bd ab 44 de bd
       -0.07007966 0.124273226 -0.0443038 -0.10852941
000220 29 b7 cf 3d f6 13 a9 bd 33 4f 27 3e a9 4a 28 3e
       0.10142357 -0.0825576 0.16338806 0.1643473
000230 e4 89 2c 3d 56 54 04 3e 53 c1 1d be b8 c2 3e be
       0.04212369 0.12922797 -0.15405779 -0.18628967
000240 f8 94 61 3d cb 10 c9 bd 88 47 3b 3d ef 59 16 be
       0.05507371 -0.09817656 0.045722514 -0.14682744
000250 63 2d cf 3d e5 35 16 3e b6 04 76 3d 9a b0 9d bd
       0.10116079 0.14668997 0.060063086 -0.076997
000260 3b b7 d5 bc 81 97 02 be dc 2b 37 3e 13 64 8f bd
       -0.026088348 -0.12753107 0.17887825 -0.070015095
000270 d4 6b e9 3d df e5 02 bd 42 81 4c be 58 1a 0f 3d
       0.1139752 -0.031957503 -0.19971183 0.034937233
000280 ae d1 25 3d e3 68 cd 3d 7b 35 22 bd f4 75 2c bd
       0.04048317 0.10029771 -0.039601784 -0.042104676
000290 07 1a 95 3d 06 57 2c 3d 94 55 b1 3d 74 22 9a ba
       0.07280355 0.04207518 0.08658901 -0.0011759535
0002a0 1e dd a2 3d 25 a5 46 bd 82 a9 68 3e 6e af ef 3d
       0.07952331 -0.048497338 0.22720912 0.117033824
0002b0 5d c0 2b be b5 15 d3 3d 32 72 e9 bd 94 c0 07 be
       -0.167726 0.10306875 -0.11398734 -0.13257056
0002c0 ea 95 33 be ac be f0 3c eb 37 02 3e 04 de dd 3c
       -0.17537656 0.029387794 0.12716644 0.027083404
0002d0 bb e2 35 3e fd 3e 3a 3e 1b 32 9d 3c 02 41 9d bd
       0.17762272 0.1818809 0.019188931 -0.07678415
0002e0 3b fc bc bd d4 c4 b9 bd 1e 18 1d 3e b1 15 4f bc
       -0.09227797 -0.09070745 0.15341231 -0.012639449
0002f0 d2 bf aa 3d 92 b9 82 bd 14 0e 72 bd 2b f2 81 bd
       0.08337368 -0.06383051 -0.059095457 -0.06345018
000300 7c 95 32 3d 08 5d 15 be 8c 57 b2 bd 5e 3a 21 3e
       0.04359959 -0.1458627 -0.087081045 0.15744922
000310 b9 06 49 bc 21 c1 1c 3e 8e 40 e3 3d 85 ef bc 3d
       -0.012269669 0.15308048 0.11096297 0.09225372
000320 6b 56 b7 3d ec 08 1c 3c e4 e3 20 3c ad fe ef 3d
       0.0895203 0.0095236115 0.009819958 0.117184974
000330 44 b0 b7 3d d4 11 48 3e e8 f8 91 3c 6d f5 a3 bd
       0.08969167 0.19538051 0.017818883 -0.08005796
000340 c9 04 98 3c e0 72 17 be 5a fe b4 bb 9e e8 b7 3d
       0.01855697 -0.14789915 -0.005523485 0.08979915
000350 4b 18 14 3e fe 8a ae bc 4c 6c fa bd d6 07 99 bd
       0.14462392 -0.021306511 -0.12227687 -0.07472198
000360 31 b6 24 be 89 90 27 be d4 6b 59 bd d3 15 1b be
       -0.16085126 -0.1636373 -0.05308135 -0.15145044
000370 02 79 18 3e bc 3f 4a 3e d3 74 59 3d 61 7e 79 bc
       0.14889911 0.19750875 0.053089928 -0.015227885
000380 96 39 35 3d 3c 52 81 3d 21 4e 2d 3d ae 1a 04 be
       0.04424437 0.06314513 0.042310838 -0.12900802
000390 76 5b 21 be 69 92 1a 3d 85 8c a7 3c c6 08 8a 3d
       -0.15757546 0.037737284 0.020452747 0.06739955
0003a0 e2 2c bd 3c 0a 0b 19 3e 13 ad 2d bd 60 96 ba 3d
       0.02309269 0.14945617 -0.042401385 0.09110713
0003b0 0c 0f 39 be b4 e2 e4 3d 78 5a e9 3d 86 00 1c 3d
       -0.18072146 0.11176053 0.11394209 0.038086437
0003c0 e8 91 1f be af e7 c7 3d a2 58 e7 3d 61 b8 86 3d
       -0.15583003 0.09760987 0.11296202 0.06578136
0003d0 bf 9d f9 39 9b 12 08 bd 68 cd 2e 3e ed 5e d2 bd
       0.0004761051 -0.03322087 0.17070544 -0.10272012
0003e0 e4 52 ba bd fe fe 04 be 0f c5 6b 3d bd d8 31 3e
       -0.090978414 -0.12987897 0.057560977 0.17367835
0003f0 72 fb 9d bd 36 7a a4 bd 7e 43 91 be a5 d6 36 3d
       -0.07713975 -0.080311224 -0.28371805 0.044638295

encoder.transformer_encoder.layers.0.linear1.bias f4 [128]
000000 7a de 06 be d9 5e d1 bd 23 32 0d 3e 6f eb af bd
       -0.13170806 -0.10223169 0.13788657 -0.08589827
000010 af 92 00 be 8a 56 3e be 0b f2 8b bd 49 02 cf 3d
       -0.12555955 -0.185877 -0.068332754 0.10107858
000020 12 02 24 be 6d d4 e6 3d 37 85 4c 3e 98 0d 63 be
       -0.16016415 0.11270986 0.19972692 -0.22173154
000030 39 22 c4 3d 53 2c 41 3d 50 5a d0 bc cd 7b 3a be
       0.0957684 0.04716141 -0.02543369 -0.18211289
000040 d6 7b 42 3d 48 2d 10 bd a7 5d 78 be cf 0e a4 bc
       0.04748138 -0.035199434 -0.24254476 -0.020026593
000050 3c ef fc bd 3c 96 06 be 66 95 ae 3d 07 31 20 be
       -0.12350318 -0.13143247 0.08524589 -0.15643702
000060 84 8b 24 be f2 0f cb bb 18 01 79 be ba 75 4b be
       -0.16068846 -0.006196969 -0.24316823 -0.19869128
000070 b0 57 de bd 7a d3 53 be 2b a6 49 be ec 3d 5b be
       -0.10856569 -0.2068614 -0.19692294 -0.2141034
000080 f1 77 9b be b3 b7 01 3e eb df 5a 3d 52 88 7f be
       -0.30364946 0.12667732 0.0534362 -0.24954346
000090 e3 ca 4c bd f5 76 52 bd 9b b7 cb ba 00 9a 13 3e
       -0.049998175 -0.051382978 -0.001554239 0.14414215
0000a0 51 8f 61 be c0 8d 2d 3d 17 a6 6e be 0c 7a 54 be
       -0.22027327 0.04237151 -0.23305546 -0.20749682
0000b0 8b 05 1b bc cb a1 15 3e 71 59 52 be 6a d0 26 be
       -0.009461771 0.146125 -0.20541932 -0.16290441
0000c0 28 99 14 3d e6 f1 b0 3d 32 7f 46 be fd 75 c4 bb
       0.036278874 0.086398885 -0.19384459 -0.0059955106
0000d0 a4 d1 03 3d ca c0 09 be c7 d8 1b be 58 91 3e bd
       0.03218235 -0.1345245 -0.15219413 -0.04652533
0000e0 be 93 86 be 5e 83 9d be d6 91 92 be 22 2a 73 bd
       -0.26284593 -0.30764288 -0.2862689 -0.059366353
0000f0 19 07 6f be 5c 81 b8 3d a3 92 0b 3e 33 71 00 3e
       -0.23342551 0.09009048 0.13630156 0.12543182
000100 c5 1d 75 bd a5 17 83 be e6 4d b3 3d ea 11 51 3d
       -0.059842844 -0.25603977 0.08755092 0.051042475
000110 68 6c 83 3d 17 6a e4 bd 41 cc f0 3c 37 7a 5c bb
       0.06417161 -0.111530475 0.02939427 -0.0033642182
000120 63 32 01 3e 87 c8 34 3e 79 6a 4a be 7b 0c 08 3e
       0.12616877 0.1765462 -0.19767179 0.13286011
000130 21 4f 25 bd ac 43 79 3d 14 09 f9 3d eb 7e 6b be
       -0.040358666 0.060855553 0.12159935 -0.22997634
000140 69 50 39 be a6 5c c1 3d 14 c4 bd bd 48 15 aa 3d
       -0.1809708 0.094414994 -0.092659146 0.0830484
000150 9d f9 7f bd cf c8 51 be 42 0b 67 be e6 01 ea bd
       -0.06249391 -0.20486759 -0.22562888 -0.11426143
000160 02 1b 1e be 20 cc 1d 3e 8e 95 ed 3d 14 73 05 bd
       -0.1543999 0.15409899 0.11600791 -0.03258045
000170 a3 9d 99 3d d2 b9 b9 3c 55 47 01 3c 72 2e cc 3d
       0.0750077 0.022671614 0.007890542 0.09969796
000180 59 f8 85 be 23 63 41 bd 7f 22 94 bd 93 c8 4a be
       -0.26166037 -0.047213685 -0.07233142 -0.19803075
000190 66 7d 5c be a6 b9 8c be 51 1c bd b9 f9 bd f3 bd
       -0.2153221 -0.2748539 -0.00036069987 -0.11901469
0001a0 33 2d b3 bd 66 6f e6 bd 95 3c 9f bd 71 7b 50 be
       -0.087488554 -0.11251716 -0.07775227 -0.20359589
0001b0 57 22 75 be 99 bf 19 be a9 1d 14 be ea e3 83 be
       -0.23938881 -0.15014495 -0.1446444 -0.25759822
0001c0 ff 0d 50 be ad c5 c3 bc 87 e2 01 be 4f 34 78 be
       -0.20317839 -0.02389797 -0.1268407 -0.24238704
0001d0 38 e6 2d bd e0 ce c0 bc 63 9b 1e be 49 e4 d2 bd
       -0.04245588 -0.023536146 -0.15488963 -0.10297448
0001e0 b7 b7 0c 3e d8 c9 87 be d3 81 1f be 0b e9 1d be
       0.13741957 -0.26521182 -0.15576868 -0.1542093
0001f0 60 fc 50 bd a6 3c 4f 3d ff ad 27 be 29 ea 07 be
       -0.051021934 0.05059495 -0.16374968 -0.13272919

encoder.transformer_encoder.layers.0.linear2.weight f4 [16, 128]
000000 f6 59 ba bb de f2 22 bc 89 1e b3 bc 9e 0d fa 3b
       -0.0056869937 -0.009945599 -0.021865146 0.007631018
000010 ef 46 9d 3d 50 74 42 bd 0f 49 33 bd e8 f4 d9 bb
       0.07679545 -0.047474205 -0.043770846 -0.0066515096
000020 ac 06 3d 3c af 6d 90 3c cf 81 09 bb b7 0f e8 3c
       0.011537235 0.017630426 -0.0020981913 0.028327806
000030 4d 29 4b 3d 3b 76 2c bd 81 c9 26 3c ec e0 41 bb
       0.049599934 -0.04210494 0.010179878 -0.0029583527
000040 be 5a a1 bc 7b 65 60 3c 6c fb 45 3d 1f c0 16 3c
       -0.01969659 0.01369607 0.048335478 0.009201079
000050 68 4e 34 3c 9e c3 77 3d 9b 40 77 3d af 96 32 3b
       0.011005022 0.06048929 0.060364347 0.002725046
000060 ca 78 54 3d 85 29 72 bd 7d 3f 21 3c c2 c3 6e 3c
       0.051873006 -0.059121627 0.009841797 0.0145730395
000070 e8 f6 16 3c c0 b2 68 3a 70 8a 35 3d a2 6e 4d bd
       0.0092141405 0.00088767335 0.044321477 -0.050154336
000080 36 99 37 bd 80 38 fd bc 85 28 24 bd b6 a3 48 bd
       -0.044823848 -0.03091073 -0.040077705 -0.048984252
000090 46 cb 06 3c cb 10 ab bc 45 25 99 3c 33 d7 ce 3c
       0.008227175 -0.020882031 0.01869453 0.0252491
0000a0 0e 9d 3f 3b cd a9 7a bc 39 e8 8a bc ad ce 7b bb
       0.00292379 -0.015299273 -0.016956436 -0.003842275
0000b0 c9 ff 11 bd dc 80 93 3b e2 65 7b bc 0f 0f 43 bc
       -0.035644326 0.004501445 -0.015344115 -0.011905446
0000c0 87 52 85 3b b6 ae 6b 3d df 5e a3 bc 2f 37 3e 3d
       0.004068676 0.057539664 -0.019942699 0.046439346
0000d0 3e 49 20 bc 15 e0 79 3d 2d e0 83 bb 70 db fc b9
       -0.009783087 0.061004717 -0.0040245266 -0.0004822868
0000e0 33 e4 8f 3d b0 e9 00 3c 28 69 b5 b9 61 46 5d bc
       0.070259474 0.007868215 -0.00034601358 -0.013505549
0000f0 11 7f 5e bd fd 3c 71 bc f2 52 2a 3d 46 a5 d7 bc
       -0.0543204 -0.014724013 0.04158301 -0.026323926
000100 c5 df 1b 3d 08 8c 47 3d a2 53 89 3d d4 e8 4c 3c
       0.0380552 0.04871753 0.06705405 0.012506682
000110 99 ef 97 3b 28 f8 1b bd 05 36 89 bb 2f 33 80 bc
       0.0046367166 -0.038078457 -0.004187348 -0.015649406
000120 4a 5f c7 bc 99 ba 48 3c 94 5e 55 3c 41 33 1f bd
       -0.02433743 0.01225152 0.013023037 -0.03886724
000130 08 9b 0c bd 98 22 31 3d 5d 6d 85 bd 59 64 84 3c
       -0.034327537 0.04324588 -0.06515 0.01616113
000140 9c 94 22 3a 76 34 a0 ba 53 5e f7 bb c7 c7 6f 3c
       0.0006201954 -0.0012222666 -0.007549086 0.014635033
000150 44 57 fb 3c 92 3e 9e 3c d6 b1 1c bd 81 65 3f bb
       0.03068126 0.019316945 -0.038255535 -0.0029204788
000160 79 d0 15 3d 69 1a f4 bc 1e e0 be bc 26 16 46 3d
       0.03657577 -0.02979775 -0.023300227 0.048360966
000170 e1 5f 2c bd ae 57 4d 3a 04 75 d5 3c 2e fa 8f 3b
       -0.042083625 0.00078331947 0.026056774 0.0043938374
000180 8d 24 98 39 38 fc 37 3d 62 d7 29 bd a1 2f 71 bc
       0.00029018932 0.04491827 -0.04146517 -0.014720828
000190 92 0b a7 3a f3 8a f5 3b df b6 7d bd 93 71 bc 3c
       0.0012744537 0.0074933707 -0.061941978 0.023003375
0001a0 88 d6 3d bd 6a 5f 44 3c ac dc 9f 3b c6 c9 55 b9
       -0.04634717 0.011985639 0.004878601 -0.0002038843
0001b0 0d 65 84 3d 57 6e 28 bd c3 20 fe bb b5 14 af 3c
       0.064645864 -0.041120853 -0.0077553703 0.021372179
0001c0 b9 49 18 3d f0 3e 8c bc 1c 9f c9 bc 7d 1b 23 bc
       0.037179682 -0.017119855 -0.024612002 -0.009955284
0001d0 51 f7 8d bc ce b1 4a bd c6 55 0d 3c 5e 62 0f bc
       -0.017329844 -0.049485974 0.008626407 -0.00875148
0001e0 d9 ec 89 3c b0 cb cc 3c 6c 3e 1e bb ba 1f 81 bc
       0.01683657 0.02499947 -0.0024146093 -0.015762199
0001f0 79 b7 19 bd 36 06 39 bd 0a 1f 84 bc 53 30 2a bd
       -0.03752849 -0.04517194 -0.016128082 -0.04154999
000200 79 1a 7d bc 73 02 62 bc e5 3a 34 bd 91 00 18 bc
       -0.015448206 -0.013794529 -0.04400148 -0.009277479
000210 6c c8 df 3b aa 82 05 3b 07 d4 db bc d8 2f 2d 3c
       0.006829312 0.0020372071 -0.026834501 0.010570489
000220 67 d3 5a 3a 14 40 1b bd 10 d1 0e bd e5 e0 96 3c
       0.00083475414 -0.037902907 -0.034867346 0.018417785
000230 30 84 69 35 c9 2e 1d bc 26 9a c5 3b 01 8b c4 bc
       8.699162e-07 -0.009593674 0.006030339 -0.023992063
000240 9e ef 6f bc 27 29 e4 ba c6 54 30 3b cc 04 39 bd
       -0.0146445315 -0.0017407284 0.0026905998 -0.04517059
000250 7a 6d a2 3c 0d eb 06 bc 70 08 79 bc fd 50 0f 3c
       0.019827593 -0.008234751 -0.015199766 0.008747336
000260 de db 69 bc b7 9f 12 bd 49 2a a5 3c dc f3 08 3b
       -0.014273612 -0.035796847 0.020161765 0.0020897305
000270 7f fa 8a bb f5 a4 c9 3c 36 39 b1 bb d0 ab f8 bc
       -0.0042412872 0.02461479 -0.0054084314 -0.030355364
000280 01 f5 cd 3c 8b d1 f7 ba a1 b3 bd bc 01 c4 03 bd
       0.025141241 -0.0018907053 -0.023156943 -0.032169346
000290 9b f9 8c 3c 95 45 80 bc e6 38 34 bc 88 7c 33 3c
       0.017208865 -0.01565818 -0.010999894 0.0109549835
0002a0 69 84 2a bc 32 14 77 bc 97 3a dc bb 65 08 9e bc
       -0.010407546 -0.0150804985 -0.0067208516 -0.019291112
0002b0 1e 31 04 bc b6 74 a1 3b 5d c6 bd bc 5e 9b 12 bc
       -0.008068351 0.004927243 -0.023165876 -0.008948175
0002c0 c9 f3 93 b7 7f 06 7c 3c 97 16 97 bc f8 b4 a6 3c
       -1.7637287e-05 0.015382408 -0.018443389 0.020349964
0002d0 27 72 64 bc 49 94 65 bd e2 d0 71 3c e7 31 6e 3c
       -0.013943232 -0.05604962 0.014759274 0.014538265
0002e0 09 5e 1c 3d 12 96 16 bd 44 e8 7d 3c e7 56 26 3c
       0.038175616 -0.036764212 0.015497271 0.010152555
0002f0 49 f2 c0 bc a1 58 34 3b e5 f8 f4 ba ad ae 80 bc
       -0.02355303 0.0027518647 -0.0018689899 -0.015708292
000300 a3 6a 20 bd b9 ce 88 ba c4 de 70 38 23 69 1d bd
       -0.039164197 -0.0010437585 5.7427926e-05 -0.038430344
000310 4f 6b 96 bc 8b 5d 02 bd a1 59 6b bc e8 21 9e 3b
       -0.018361716 -0.03182749 -0.014364631 0.0048258193
000320 a6 a0 3a bc 2f e2 3e 3b 44 b4 f2 ba 38 f8 24 bd
       -0.011390841 0.0029126515 -0.0018516858 -0.040275782
000330 30 34 74 bc ae dd d3 3b 3d c0 ee 3a 34 19 21 3b
       -0.014905021 0.0064656353 0.001821525 0.0024581673
000340 5f 42 12 bc 8b 07 b4 bc 7f 94 d3 bb 2b 8d 36 3c
       -0.008926957 -0.021976253 -0.006456911 0.0111420555
000350 6f 4e 54 bc cd ba e9 bc 6e e2 d1 bb d4 ee 48 3c
       -0.012958153 -0.028531456 -0.0064051664 0.012263972
000360 63 c3 64 3d f3 f5 13 bd fe 1f b3 bc 21 b8 9c 3c
       0.055850398 -0.036123227 -0.021865841 0.019130768
000370 dd a0 b0 3c 17 83 c6 bc 63 e6 10 3c 20 ea 29 bc
       0.02156108 -0.02423243 0.008843991 -0.010370761
000380 3b 73 0a bb 28 2c a8 3c 77 91 6d bc 80 01 9a bb
       -0.0021125812 0.020528868 -0.014500014 -0.004699886
000390 47 83 22 bc 8d c4 b6 b9 22 10 5e bd d4 f8 2e 3c
       -0.009918994 -0.00034860187 -0.054214604 0.010679442
0003a0 36 4e a5 ba d1 c8 41 bc 32 02 d9 bc f7 55 43 3c
       -0.001261181 -0.0118276635 -0.026490305 0.011922351
0003b0 45 4d a0 bb a5 32 ad bb 45 8c ca 3c d1 72 0f bd
       -0.0048920237 -0.0052855783 0.024725089 -0.035021607
0003c0 e4 12 fa bb a1 f1 a2 bc 73 b3 e1 bb 79 a0 ca 3c
       -0.0076316465 -0.019890608 -0.006887847 0.024734722
0003d0 7f f5 18 bc 1e 6f 64 bc a3 ed a9 3a 08 f6 1e 3c
       -0.009335875 -0.013942508 0.0012964498 0.009702213
0003e0 e3 fe fd bb 2c ca d7 bc 13 d8 59 bc 9c ae c5 3c
       -0.007751332 -0.02634152 -0.013296145 0.024131112
0003f0 27 e4 b7 bc 78 b7 3a bd b4 60 13 bc 3e 09 64 bc
       -0.022447659 -0.045585126 -0.008995224 -0.013918219

encoder.transformer_encoder.layers.0.linear2.bias f4 [16]
000000 e3 a8 24 3d ab e3 3d 3d d0 57 31 3d 16 ea 2e 3d
       0.040200125 0.0463597 0.043296635 0.04270371
000010 17 01 e4 3c ae f9 03 3d ad 93 7c bd cf 04 54 3c
       0.02783255 0.032220535 -0.061664272 0.0129406
000020 56 8e ea 3c 78 df ac bc d0 45 53 bc a3 0b 03 3d
       0.028632324 -0.021102652 -0.012895063 0.03199352
000030 7f 94 ad bc e6 76 8f 3d 11 b5 25 bd 6a 24 06 3b
       -0.021188973 0.070051 -0.04045588 0.0020468482

encoder.transformer_encoder.layers.0.norm1.weight f4 [16]
000000 4f cb 72 3f bb 5c 71 3f f0 d5 7f 3f 4f ba 80 3f
       0.94841474 0.9428212 0.9993582 1.0056857
000010 da 74 90 3f 87 f9 7e 3f 7a 3b 81 3f e0 10 7a 3f
       1.128566 0.995995 1.0096276 0.97682
000020 d5 60 79 3f f4 82 71 3f 60 6e 8a 3f bb b7 79 3f
       0.9741338 0.94340444 1.0814934 0.97545975
000030 bb 95 7b 3f a0 7a 86 3f 80 c1 83 3f 70 47 7c 3f
       0.98275346 1.0506172 1.0293427 0.98546505

encoder.transformer_encoder.layers.0.norm1.bias f4 [16]
000000 79 3f 1a 3d 7a 03 03 3b 31 88 01 3d 8e 73 dd bc
       0.03765819 0.0019991086 0.031624023 -0.02703264
000010 16 7d 5f 3d 65 c5 3c 3c b4 e7 be bc c4 a8 c5 bc
       0.05456265 0.011521672 -0.023303844 -0.024128325
000020 cc be 94 bb a1 2d 8a 3b f6 92 1d bd ee 7d 2b bc
       -0.0045393463 0.004216865 -0.03847023 -0.010467036
000030 ac ce 67 3d 8f d2 d2 bc aa 5c 39 bc 6f 9c cf bc
       0.056593582 -0.025735168 -0.011313597 -0.025343148

encoder.transformer_encoder.layers.0.norm2.weight f4 [16]
000000 c8 96 71 3f 90 9a 77 3f 56 d4 80 3f 7b 97 7d 3f
       0.943707 0.9672022 1.00648 0.99059266
000010 b0 49 88 3f 23 de 7c 3f 62 ce 80 3f 6b d0 74 3f
       1.0647488 0.98776454 1.0062983 0.9563052
000020 3d 8c 78 3f 47 56 76 3f 60 2e 86 3f e7 05 76 3f
       0.97088987 0.962254 1.0482903 0.96102756
000030 08 0f 7d 3f 1f ba 83 3f 4f fd 81 3f c0 cf 7d 3f
       0.9885106 1.0291175 1.0155429 0.99145126

encoder.transformer_encoder.layers.0.norm2.bias f4 [16]
000000 ba 05 b0 3c ab ad f2 3b b9 4b fa 3c 15 f1 a6 bc
       0.021487106 0.0074059567 0.030553686 -0.020378629
000010 99 da 80 3d c9 76 77 3b 10 92 1a bc 4c 58 4b bc
       0.06291694 0.003776001 -0.009434238 -0.012411188
000020 cc 67 96 bc e7 36 2a 3b b5 00 1b bd 41 39 2a bc
       -0.018360041 0.0025972666 -0.03784247 -0.010389627
000030 97 3f 66 3d 87 a1 c5 bc a9 51 5e bc 30 f3 47 bc
       0.056212988 -0.024124874 -0.013569274 -0.0122039765
