embedding_autoencoder_transformer/best_autoencoder_transformer.pth (torch, 186986 bytes, 96 tensors)

encoder.embedding.weight f4 [16, 40]
00000000: 8cac 26bc 48bf b3bd 3229 8ebd d2cc 863e
00000010: 732f a93c 9c50 223d 2e4c 35bd 99d3 26bd
00000020: ed5d 5a3c 73bf 9c3c db5f 513d bec4 923d
00000030: 9146 53bb a291 e63d 4f17 373c 71e4 14bd
00000040: aa08 17be 0cc3 7abe fede db3d f18e 4bbd
00000050: 2097 583d d370 bebd f1e7 07bd e4f0 953d
00000060: a4c8 2b3d 4c58 7ebe 1121 333d 455c 2c3c
00000070: 2d53 a23d 1591 b83b 085a 0b3b 9f38 8c3d
00000080: d0f6 48bd fdee fdbd 5129 663d 9004 9f3b
00000090: 68ec 9a3d 93b9 b7bd 6aaa e3bd ce62 d93c
000000a0: dd4c 8a3c 849c 183d 0a87 6dbc 2e9e c83d
000000b0: e973 9fbc 74b3 40bd d198 123c 8f32 17bd
000000c0: 9f16 b1bd de0a 0bbe a8ad 3fbd ed8d 88bd
000000d0: 0892 ecbc 7f94 df3d 15a0 bc3d c752 89be
000000e0: a489 d4bd 4d48 aa3e 3004 d4bd e209 bc3c
000000f0: 336a 99bd f94c c33c db60 68bc 112f 823d
00000100: c9dc 773d efce 5d3d 9799 863d 4870 a93d
00000110: 9e3f 76bd 1344 013b 9e06 163d a0e9 aebd
00000120: 6685 363c 6a1c a3bc e925 513d bac0 d0ba
00000130: 6086 0fbd 17b4 0a3b 37f9 23bd 492e 2aba
00000140: 3b5c a3bc 0489 673b 12d7 63bd 1b7b 2d3e
00000150: 0ac5 91b9 977a 5fbd 8f5d 3bbc 3986 22bd
00000160: be89 8abd 4876 a7bd 4a80 113d 6dc1 a2bd
00000170: 009e b03c 8536 42bc 10bb b3bd 4c41 fa3d
00000180: ed69 a83d 2058 ab3d d9f5 b83d c5b1 943c
00000190: 8466 8abd ad60 da3c 2461 043d 6521 bd3d
000001a0: 0f03 bcbb 4ef2 08bd 4a8b 31bd a29c 27be
000001b0: adc3 8ebd ead3 f13c 3800 b2bc bdcf c6bd
000001c0: 09ca fe3d 8851 75be 8663 7c3d 8bb5 673c
000001d0: 80f5 0abe 4e58 8abc 7777 b03c 4d03 873c
000001e0: 9139 133b a065 2f3d 186f 4cbc 031a 43bd
000001f0: 731e 6d39 b5a7 eebd 8162 e6bb c0e7 d9bc
00000200: b08a dcbd 364c 80bc f78e f43d a6a1 ba3d
00000210: 1940 b73c d785 593e 880a 0dbe f86c 593d
00000220: 7cff 833d ae43 1dbc f80f d7bd 4aa1 963d
00000230: b0fb abba df46 44be 9748 1ebc 4cb7 fa3c
00000240: 5e72 3ebd 855a b8bd b5e3 cebd 5e81 bbbc
00000250: 8e00 afba 3ad2 513c b2eb 6fbb 33ac 6bbd
00000260: fa07 8bbd abfe 84be 6536 233d b77b 853c
00000270: fd18 4f3e 0d83 d93b d544 5f3d 45ba 5e3d
00000280: ad24 453d 3a0c ba3d 418b 40bb b36c cbbd
00000290: 3583 fabb d224 fabd 7f5e 1e3d cc16 0ebd
000002a0: 1bbc ddbd 94b2 cbbd fa88 4dbd e29f 443e
000002b0: feda 0bbc 8fd4 37bd 5cb5 693d 69d3 20be
000002c0: 93b8 0f3d 1430 b9be 27b8 23bd b749 543c
000002d0: d3f3 9fbd a779 bb3d 1e80 1b3d 7afe 8a3d
000002e0: b553 e33c d91d 96bb 5a1b 343d 52a3 fdbd
000002f0: 7aec b73c b500 0b3c c6dd ff3b 50d4 dbbd
00000300: a3d9 b13d 4810 333d 48b2 483d 0103 f63b
00000310: a576 c2bd 208a cf3d b1a9 81bd 9107 8e3b
00000320: 770b 213c ba4e 9bbc eae9 52bd 0664 893b
00000330: c263 8ebd 5a4c d43c f724 1c3b 7038 42bd
00000340: 3c7b 8d3d 1144 463d b296 09bd 8ed8 38bc
00000350: 74b8 84bc f440 f4bd 9678 f9bd 221d b5be
00000360: 2728 873e 9ecd 113d fc79 c1bc e475 b4bc
00000370: bfb3 693d 9ac4 23be 5651 153d 31ac d23d
00000380: 0c9d 123d 20bf acbd 1e99 7bbd 3806 dcbb
00000390: 4103 abbd ee08 1a3d d2f3 ce3c bef3 163d
000003a0: 5976 263e 1dc6 f0bd af5d 633d 0efb 2ebc
000003b0: 8e90 85bd e3c7 4ebd 67d9 5dbd e77f dabb
000003c0: 5220 563c cf52 4439 f231 14bd 36d8 80bc
000003d0: 0b78 1abc c1b7 b03d 673b a23b 4657 d4bc
000003e0: 6e2e b83d aaa3 1a3b f322 3ebd f0c2 2abe
000003f0: 0254 be3c 31f6 a23c d6bd a5bc 294c 94bc
-0.010172974 -0.087767184 -0.06941451 0.2632814 0.020652508 0.039627656 -0.044262104 -0.04072914
0.013328058 0.019134259 0.051116806 0.07166432 -0.0032238106 0.11258246 0.011174991 -0.03635067
-0.14749399 -0.24488467 0.10735892 -0.049696866 0.0528785 -0.09298863 -0.03318018 0.07321337
0.041939393 -0.2483837 0.043732706 0.010520046 0.07926021 0.0056325295 0.002126338 0.06846737
-0.049063504 -0.12399099 0.056191746 0.004852839 0.07564622 -0.08970942 -0.11116488 0.026536372
0.016882354 0.03725864 -0.014497528 0.097957954 -0.01946445 -0.04704614 0.008947567 -0.03691345
-0.08646893 -0.13578364 -0.04679647 -0.06667695 -0.028878227 0.10916995 0.09210221 -0.26820967
-0.10377815 0.33258286 -0.10352361 0.022953931 -0.07490959 0.023840414 -0.014183248 0.063566335
0.06051329 0.054152425 0.06572264 0.08273369 -0.060119264 0.0019724413 0.036627404 -0.08540654
0.011140203 -0.01991101 0.051061545 -0.0015926578 -0.03504026 0.002116447 -0.04003259 -0.00064918824
-0.01994144 0.003532947 -0.05562503 0.16941492 -0.0002780336 -0.05456027 -0.01143588 -0.039678786
-0.067645535 -0.08176857 0.035522737 -0.07947049 0.021559715 -0.011853819 -0.08775914 0.12219486
0.08223329 0.08366418 0.09031267 0.018151173 -0.067578346 0.026657427 0.032319203 0.09234885
-0.0057376693 -0.033434205 -0.043345727 -0.16368344 -0.06970916 0.029519994 -0.02172862 -0.09707592
0.12440879 -0.23956883 0.06161835 0.014142404 -0.13570213 -0.01688781 0.02154134 0.016481066
0.0022464732 0.042821527 -0.012477659 -0.04763223 0.00022613425 -0.11653081 -0.0070307855 -0.026599765
-0.1076864 -0.01566134 0.11941331 0.09112863 0.022369431 0.21242462 -0.13773549 0.053082436
0.06445214 -0.009598656 -0.10501093 0.07354982 -0.0013121273 -0.1916766 -0.009660861 0.03060498
-0.046495788 -0.0900164 -0.101020254 -0.022888836 -0.0013351606 0.01280647 -0.0036608991 -0.05753727
-0.06788631 -0.25975546 0.039846797 0.016294343 0.20224376 0.006637937 0.054509003 0.05437686
0.04813068 0.09084363 -0.0029379877 -0.09932842 -0.0076450356 -0.12214054 0.038664337 -0.03468971
-0.10826894 -0.099461704 -0.05017946 0.19201615 -0.0085360985 -0.044880446 0.057057723 -0.15705647
0.035088133 -0.36169493 -0.039970543 0.012957028 -0.07810178 0.09154063 0.03796398 0.06786819
0.027749876 -0.004581195 0.043971397 -0.123846665 0.022451628 0.008484055 0.00780842 -0.10733855
0.08684089 0.0437167 0.048998147 0.0075076823 -0.09495286 0.10133767 -0.06331194 0.004334398
0.009829394 -0.018958438 -0.05149261 0.004192832 -0.06952621 0.025915314 0.0023825744 -0.047417104
0.06908271 0.048404757 -0.03359098 -0.011282099 -0.016201235 -0.11926451 -0.12181203 -0.3537379
0.2639782 0.035596482 -0.023617737 -0.02202887 0.057056185 -0.15992966 0.03645452 0.10286749
0.035794303 -0.08434892 -0.06142532 -0.0067146085 -0.0835023 0.037606172 0.025262747 0.036853544
0.16256084 -0.11756537 0.055509266 -0.010679973 -0.06521712 -0.050483596 -0.05416241 -0.006668079
0.013069229 0.00018722865 -0.036180444 -0.015728097 -0.009428035 0.08628798 0.004950929 -0.025920521
0.08993231 0.0023596087 -0.04642005 -0.16675925 0.023233417 0.019892784 -0.020232122 -0.018102722

encoder.embedding.bias f4 [16]
00000000: 2500 91bb 7a72 b33c 1e0b 9a3e a473 3cbd
00000010: e44f 423e fadf 72bd d9d7 44be 70e4 40be
00000020: e501 d4bd fd16 8a3e ac85 b13d f437 2f3e
00000030: 1ae8 1dbe 1056 2b3e ae0f 2c3c 5940 39be
-0.004425066 0.021905173 0.30086607 -0.04600872 0.18975788 -0.059295632 -0.19222964 -0.18837142
-0.10351924 0.26970664 0.08668074 0.17111188 -0.15420571 0.16732049 0.010501785 -0.18090953

encoder.transformer_encoder.layers.0.self_attn.in_proj_weight f4 [48, 16]
00000000: e997 41be bfb5 273c 71a9 4abe 2ea7 8f3e
00000010: ebaf 5e3d 933b 603e 6295 1d3e 9b93 5a3e
00000020: ed4f 2fbd 941a a4bd a486 66bd bbf1 fa3c
00000030: d06a 47bd 28fc ffbc 3316 913e 1581 9ebd
00000040: 5a50 8c3e 0bd8 5ebe 0cdd 273e 9d1d c4bd
00000050: d77a 7ebe 885a 2d3e 5c7b 08be bd9a 3f3e
00000060: 089e 373e e542 243d 24c7 e7bc 93fc 0ebe
00000070: 70ba 35be 4f80 3e3e 3364 463e 1b16 763d
00000080: 5895 91be e5e3 89bd fb64 8fbd 225a 91bc
00000090: 9092 303d fe82 83be 6489 8f3e ba22 a0be
000000a0: 5168 14be 1621 ff3d bf0a b1bd 1b7a aa3e
000000b0: 12b3 273d da25 ab3d d16a c1bd 72bf b43d
000000c0: 3713 d2bd f852 4a3d 4f93 3a3d 7e84 f5bd
000000d0: d7f3 15be 3ee9 c1bd d895 1ebe 4f6c a63b
000000e0: cbe6 4cbe e3f2 6a3a a9cc 413d 1dfd 943e
000000f0: 8eea 2ebe b57d 823e 7250 f63d 07cb 683e
00000100: 6857 093e 8884 483e 8839 f9bd 9d95 133e
00000110: 1368 b8bd e516 213e 9e34 5d3e 618e f4bd
00000120: ea18 a9bc 8e5e 3d3e 4788 763d aec1 35bd
00000130: 793c 64be 5c94 d0bd 5fb8 89bc 1013 003e
00000140: ae2d 09be 4920 f3bd f634 2f3e d918 013b
00000150: 9b65 8bbd 33c0 523e ffd0 4a3d 938e a0bc
00000160: 79be 1f3e 11a5 87be fd80 cebd 6de5 823e
00000170: e47a 273e e620 41bd c54e 603d 4f4b 43be
00000180: 56ee 6b3e f6f4 2a3e e1e5 4f3e 1e83 5abd
00000190: 9f01 063d 394c c33d 32aa c23c 0727 c1bc
000001a0: 632e 2a3d 30d6 0f3e d7c3 843e 5865 1cbe
000001b0: e710 c6bd e82d a3bd d749 543e 36ed 60bc
000001c0: a4f9 33be c587 8f3e 75d7 09bd 8384 3fbc
000001d0: f37b 2dbd f575 4ebb 8852 8c3c f86f 0cbe
000001e0: 2062 5a3e 2a66 463d ebc2 25bd 83d2 81be
000001f0: 0b66 d43e dc13 c8bb fa1b 453e 956c 523c
00000200: 2936 55be 694c c73d e872 673e 9aac 6e3e
00000210: 64cc c13d 6f8a 15bd d590 2f3e f727 85be
00000220: c3fb 8c3e b102 38be 425d 233e 0c38 f13d
00000230: 4c96 9abe bb7f 6b3e 089f 023e c746 1f3e
00000240: 4140 383e 4dd0 12be 2a42 0a3d d01d b53d
00000250: 1c9c 593e 6c4a 4d3e 7311 b83e f7a5 823d
00000260: e5d4 23be 00c8 d73d f2c0 18be 1498 a53e
00000270: 51d2 373e 1420 bdbe 57da 063e 2a3b 173e
00000280: c5d4 033e f009 c23b 0d15 40be a128 02be
00000290: 5a48 61be 1c38 953e 81b5 44be 1759 6bbe
000002a0: d09e 05be 3e1a 4cbe 8581 9a3d 37e0 38be
000002b0: 6e8d 1e3d 915d 4cbe ff15 073e 204c 443d
000002c0: e9f6 9a3d 4eab d8bd 0e66 4abe 0200 873e
000002d0: 789e 69bb 38c7 45be 6e35 3a3e 35c3 613e
000002e0: 06d8 c6bc 65de 823d d822 943e 1f44 743e
000002f0: be02 953d a82f e83d 973a 56be df79 0dbe
00000300: 266f 303e a950 813d 7509 9ebd 2274 3a3e
00000310: 3f37 08bd 549a 22be 99ec a13d a4ac e83d
00000320: 3e32 03be e349 99bd 7d70 463e 9207 783e
00000330: fbb8 f3bd 3af8 01be e730 b73e d94e 05bd
00000340: 5d64 463e 914b 0f3e c115 a0bd b4c1 0bbe
00000350: 8d2b 823d 6d64 e9bd d097 5fbd f9ef b6bd
00000360: cf3f 0d3e 427e 14be 271b ad3d 584e 1d3e
00000370: 040b 873e 48b4 013d 7cb9 043e 8e32 98be
00000380: e35c 993d 27b6 903d 7ed6 44be f1f8 21bd
00000390: cfe8 14bc ef76 cb3b a135 cb3e 164f ed3c
000003a0: 57d8 263d 03a7 6d3e 47dd 6d3e 0513 b33e
000003b0: 8c92 fb3d 8b46 90be f086 043e a092 b33d
000003c0: 5623 c9bd 3a74 87bd d52b 80bd 661a 97bd
000003d0: 6b88 57bd 33bf 5a3e 1962 393e 53f4 9bbd
000003e0: 21ff eb3d e33f 2c3e c771 473d 62fd 3e3d
000003f0: bde9 cc3d 2281 acbd 429b 87be 7be0 26bd
-0.18905605 0.010236203 -0.197912 0.28057235 0.054366987 0.21897726 0.15389016 0.2134537
-0.042800833 -0.08012882 -0.056280747 0.030632844 -0.04868585 -0.031248167 0.2833725 -0.07739464
0.27405053 -0.21762101 0.16392916 -0.09575961 -0.24851547 0.16929066 -0.13328308 0.18711372
0.17931378 0.040102858 -0.0282932 -0.13963537 -0.17746902 0.18603633 0.1937416 0.060079675
-0.28434253 -0.067329206 -0.07001682 -0.017743174 0.043108523 -0.25685877 0.28034508 -0.31276494
-0.14492919 0.124574825 -0.08644628 0.33296284 0.04094226 0.08356829 -0.09444202 0.08825578
-0.10257571 0.04939553 0.04555064 -0.119881615 -0.14643799 -0.094683155 -0.15486848 0.0050788294
-0.20009916 0.00089625845 0.04731432 0.2909936 -0.17081663 0.25486532 0.120270625 0.22733699
0.13412249 0.19581807 -0.12169176 0.14412542 -0.090042256 0.1573139 0.21602103 -0.11941219
-0.020641763 0.18493101 0.060188558 -0.04437416 -0.22288693 -0.10184547 -0.016811548 0.12507272
-0.13396332 -0.11871392 0.17110047 0.0019698648 -0.06806489 0.2058113 0.04951572 -0.019599235
0.15600003 -0.26493123 -0.10083196 0.25565663 0.16355473 -0.047150515 0.05476262 -0.19071697
0.23040137 0.16695008 0.20302536 -0.0533477 0.03271639 0.09536023 0.023762796 -0.02357818
0.041548144 0.1404655 0.25930664 -0.15273035 -0.096711926 -0.0796774 0.20731293 -0.0137284305
-0.17575699 0.2803327 -0.03365274 -0.011689308 -0.042354535 -0.0031503413 0.017129198 -0.13714588
0.21326494 0.048437275 -0.04046909 -0.2535592 0.41484103 -0.006105883 0.19248953 0.012843271
-0.20821442 0.09731371 0.22602427 0.2330803 0.094628125 -0.036508974 0.17145093 -0.26007053
0.2753583 -0.17969777 0.15953544 0.11778268 -0.30192792 0.22997944 0.12755978 0.15554343
0.17993261 -0.14337273 0.033754505 0.08843577 0.21250957 0.20047921 0.35950813 0.063793115
-0.15999182 0.10536194 -0.14917353 0.3234259 0.17951323 -0.36938536 0.13169228 0.14768663
0.12874134 0.005921595 -0.1875803 -0.12710811 -0.22000256 0.2914437 -0.19209863 -0.22983204
-0.13048863 -0.19931886 0.07544235 -0.18054281 0.038709097 -0.19957568 0.13191985 0.04792416
0.075666256 -0.10579549 -0.19765493 0.26367193 -0.0035647433 -0.19314277 0.18184444 0.22047122
-0.02427293 0.06390075 0.28932834 0.23854111 0.07275914 0.11337215 -0.20920788 -0.13816021
0.172299 0.06314213 -0.077166475 0.18208364 -0.03325581 -0.15879184 0.079064555 0.113610536
-0.12812135 -0.07484796 0.19378848 0.24221638 -0.119005166 -0.12692347 0.35779497 -0.032545898
0.19374223 0.1399367 -0.07816649 -0.1364811 0.06355963 -0.11396108 -0.05458814 -0.0893249
0.13793872 -0.14501289 0.084524445 0.15361917 0.26375592 0.03166607 0.12961382 -0.2972607
0.0748842 0.07065993 -0.19222447 -0.03954405 -0.009088709 0.0062092463 0.39689353 0.028968375
0.04073366 0.23208241 0.23228942 0.34975448 0.12283811 -0.2817882 0.129421 0.08768201
-0.09821193 -0.06613965 -0.0625836 -0.07378082 -0.052620333 0.21361999 0.18103828 -0.076149605
0.11523271 0.16821246 0.04869249 0.046628363 0.100055195 -0.08423068 -0.2648564 -0.040741425

encoder.transformer_encoder.layers.0.self_attn.in_proj_bias f4 [48]
00000000: c7ac 2d3b 81cd bb3d 83e8 c23d 2193 d43d
00000010: 9d35 173d b420 fa3d 6611 43bd d71b 7abd
00000020: e2da f6bc 3459 133d 95a4 6f3d 9e58 a83d
00000030: c35b 343c b0bf 253d ef9d 463c 62e9 5b3d
00000040: a645 2eb7 0148 3935 1427 4537 2f50 7e37
00000050: b3ee 8536 bb15 6b36 e9e5 88b6 40bf 17b6
00000060: f8c5 f3b7 fcb8 8736 09af 6f36 903f d637
00000070: 7544 a1b6 a1a5 a2b2 10b3 0f37 fe92 f035
00000080: 8660 babc c6ed 08bc b223 f53b dc0d 0c3d
00000090: 6cae 6a3b 92d2 02bd 5309 abbc fbbb d6bc
000000a0: 8e33 523c afad 0bbb a864 773c 1f27 c63c
000000b0: d9a5 733c 1ce5 b23c 8acb 2bbc 0155 9e3c
0.0026500688 0.09170056 0.09517004 0.10379625 0.036916364 0.12213269 -0.047624014 -0.061061706
-0.030133668 0.035973743 0.058506567 0.082200274 0.011008206 0.04046601 0.012122615 0.053689368
-1.03874245e-05 6.902265e-07 1.1751214e-05 1.5158249e-05 3.991497e-06 3.5030378e-06 -4.079881e-06 -2.2612076e-06
-2.9060044e-05 4.0448485e-06 3.571566e-06 2.5540387e-05 -4.8061434e-06 -1.8934601e-08 8.565155e-06 1.7924174e-06
-0.022751104 -0.008357471 0.007481062 0.034192905 0.003580953 -0.031939097 -0.02087847 -0.026212683
0.012829674 -0.002131324 0.015099682 0.024188576 0.014871084 0.021837763 -0.010485539 0.019327642

encoder.transformer_encoder.layers.0.self_attn.out_proj.weight f4 [16, 16]
00000000: c0b0 f83d 460f a53d fe03 9b3d 6fbd 19bd
00000010: a43d de3c 2810 8cbd bc7f 15bd 3118 b43d
00000020: 36df b8bd 310b a23d 05f1 e7bc 99a2 d7bc
00000030: 6124 f6bd 0ec0 99bd 25fd 053e 2cf3 56be
00000040: 30f7 5a3c 01d5 4ebd dad1 8a3d e288 febd
00000050: a5b5 f03d 998c 28bd 978c 8ebb 6026 0ebe
00000060: e78a 36be aa06 c3bd 5fce f83c 487e 253d
00000070: 9251 023d ab5b bb3d 2343 a3ba cb3d 743d
00000080: d493 703d eb44 77bd a73a e93c 03f6 8a3d
00000090: fa66 c33d cc2f 7c3d c569 34be 9eee 493e
000000a0: 6f20 60be 4172 f4bb 3f04 5f3c 72d6 a73d
000000b0: bdca debd a90e a3bd 6c59 01bd eeb0 4bbe
000000c0: 8a29 5c3e f5bf 233e 6158 38be e6a8 0ebe
000000d0: 5572 16be edf0 25bc 35ec 443e c6da 8bbc
000000e0: e0a7 f03d e83a 29be cd52 ffbd efb4 453e
000000f0: 2b3f aabb 90bf f1bc 99f5 eebd 9579 b43d
00000100: 51de c23d 5a93 813e 6126 a9bd 2a82 8abd
00000110: 6f5d f5bd bc8c 2bbd e7e2 43be 5127 8a3d
00000120: 87f4 54be db58 0f3e 7d6c 18be b315 263e
00000130: 65fd 2a3e c02a 37bd df5b 51bd da94 31bd
00000140: dea9 11bd 525b 833b c3f7 ee3d 5f72 e13d
00000150: e63f e7bc 482d 333d 0a3f 023e 06ec d63c
00000160: b26a 013d a402 d73d 8208 a9bd 0167 663d
00000170: 7d57 21be bb43 19be 7a6f e73d c925 11be
00000180: f696 d83c a2d1 bcbc 9f8d d5bd edc8 a8bd
00000190: ebf4 bbbd 2a56 4c3c 29ac a43d dd4b 07be
000001a0: cf9b 89bd fea6 033e 5352 f4bd 799e 683e
000001b0: 7a6c c63d 5f7d 8cbe 432b 5abd 4811 02be
000001c0: 5ac7 b3bd 5c88 a4bd f7a3 d03d efd6 e5bd
000001d0: bf85 8abd b877 053e ad76 c53c bc64 0d3e
000001e0: ad9e 0bbd 34e7 ae3b 7b8a 8ebd 0034 f13c
000001f0: 26b2 d9bd 8a71 9a3d a786 41be 8090 f63c
00000200: 0243 593d 9ffd 00be 6390 6c3c 185a d3bc
00000210: f5a5 8c3d 394b 803d a489 063e 35d9 10bd
00000220: fe4b 52be 5470 97bc 0d05 c63d 6086 043d
00000230: b230 b63b e395 08be 750a 4bbd 5473 71bd
00000240: f270 09bd 9ffb 803d f6ff c73b cb42 f13c
00000250: 3410 b3bc c032 9abd 8494 be3b 2458 3fbe
00000260: 2b16 44bd ad05 413e 8e11 ccbd 7a65 3b3d
00000270: 5bb0 4e3e 2ea7 99bc a234 173e 2f5b cc3c
00000280: 7b8d 52be 2ca5 e53b ed10 c73d 9bc5 01be
00000290: 2cc4 6ebd d5ce 163e e1cc 263e 960e 083e
000002a0: 30a5 b43d 293b a13b 55b7 c7bc 4fa0 5fbd
000002b0: 9aba 1a3e a8df be3d 6d50 1abd 12fa 833e
000002c0: da78 11be 8893 9f3d 0695 38bb 2160 8e3e
000002d0: c7cd a63d d6b4 25bb 4a2a acbd 4e89 ddbd
000002e0: ef7b 6abd e7b9 3f3d 6de1 853d 8705 103e
000002f0: 79e6 c4bc 138a 37be ec2f 09be 0849 f1bd
00000300: c8bd 00be 4430 1c3e 5820 b13d f2ab d93c
00000310: 6d93 e5bd 1836 183e f748 0a3e b63d c83d
00000320: 0b0d 0c3e 9a93 8d3d a435 0fbe 3d01 143e
00000330: 13fb 40be 8e07 9abc 8270 0dbe 8fda 65bd
00000340: 5fec 9abd d842 06be 8a11 cf3d b077 11bd
00000350: 46c4 403d 1c1d 13be 98a5 04be a8cc 47bd
00000360: c097 1ebc a2f7 c1bd c2c7 8bbc 8514 8abd
00000370: 6718 aabd a8f2 b73d 28bc 43bd 9118 32be
00000380: 9870 1e3e b55f 3fbe 8305 42bd 5684 ed3b
00000390: 28a1 12be 4c02 753d a392 173c 976f 393e
000003a0: bf81 dabd 85c1 263e 1fad 98bd 0c07 6b3d
000003b0: e05b 99bd 3631 4f3c 72b1 633d ec3d 853b
000003c0: 37db 273d 4dac 09bd f2e2 86bd b86d a1bd
000003d0: 9fca d63c 3560 d9bd 11bc 17be 11f8 cdbd
000003e0: 1eaf aabd fa46 c3bd 0b53 2dbb baf9 b03c
000003f0: f8d4 bb3c e1b0 233d 5570 9abd cc9a e1bc
0.121430874 0.08059554 0.07569121 -0.037534174 0.027129002 -0.06839019 -0.03649877 0.08793677
-0.09026949 0.07912291 -0.02831317 -0.02632265 -0.120186575 -0.07507335 0.13084848 -0.209912
0.013364598 -0.050496105 0.06778307 -0.12428452 0.11753396 -0.04114971 -0.0043502557 -0.13881826
-0.17826425 -0.095227554 0.030371843 0.040403634 0.031816073 0.09148344 -0.0012455921 0.059629243
0.05873473 -0.06036846 0.02847035 0.06785204 0.095411256 0.06156902 -0.17618473 0.19719931
-0.21887372 -0.007459909 0.013611852 0.08195199 -0.10878513 -0.079617806 -0.03157942 -0.19891712
0.21500221 0.15991195 -0.18002464 -0.13931617 -0.14692052 -0.010128242 0.19230731 -0.017072093
0.117507696 -0.16526377 -0.12466965 0.19307302 -0.0051955185 -0.02951029 -0.11667938 0.088122524
0.0951506 0.25307733 -0.08259273 -0.06763108 -0.11980712 -0.04188226 -0.19129525 0.0674578
-0.20796405 0.1399874 -0.14885135 0.16219215 0.16698225 -0.044718504 -0.051113006 -0.043354847
-0.03556239 0.004008689 0.116683505 0.11008143 -0.028228711 0.043744355 0.1271936 0.026235592
0.031595893 0.104985505 -0.08253576 0.056250576 -0.1575603 -0.14967243 0.11300559 -0.1417457
0.026439171 -0.02304918 -0.10427403 -0.082414486 -0.09177574 0.012471715 0.080406494 -0.13212533
-0.06719171 0.12856671 -0.119297646 0.22716703 0.09688659 -0.274394 -0.053263914 -0.12701905
-0.08778258 -0.08033821 0.10187524 -0.11222636 -0.06763791 0.1303395 0.02410444 0.13807958
-0.034086872 0.00533762 -0.06960007 0.02944374 -0.10629682 0.07541187 -0.18899022 0.0300982
0.05304242 -0.12596749 0.014438721 -0.025799796 0.06867591 0.062643476 0.13138443 -0.035363395
-0.20536801 -0.01848618 0.09668932 0.032354712 0.005560004 -0.13338427 -0.04957052 -0.058947876
-0.03355498 0.06297993 0.006103511 0.029450795 -0.021858312 -0.07529211 0.0058160443 -0.18685967
-0.047872704 0.18849821 -0.09964286 0.045751072 0.20184462 -0.018756475 0.14766172 0.024945823
-0.20561783 0.0070082154 0.09720025 -0.12673037 -0.058292553 0.14727338 0.16289093 0.13286814
0.088205695 0.0049203825 -0.024379412 -0.05459624 0.15110245 0.09320003 -0.037674356 0.25776726
-0.14206257 0.07791811 -0.0028164997 0.27807716 0.08144718 -0.0025284789 -0.084065035 -0.108172044
-0.0572471 0.04680815 0.06537137 0.14064609 -0.02403568 -0.17923765 -0.13397187 -0.11781508
-0.12572396 0.15252787 0.08648747 0.026571248 -0.1120976 0.14864385 0.13504396 0.097773954
0.1367685 0.069129184 -0.13985306 0.14453597 -0.18845777 -0.01880243 -0.1381245 -0.056116637
-0.075646155 -0.13111436 0.10110767 -0.035514534 0.04706218 -0.14366573 -0.12953794 -0.04877916
-0.009679735 -0.0947106 -0.017063025 -0.06742195 -0.08305436 0.0898183 -0.04778686 -0.17392184
0.15472639 -0.18688853 -0.047368538 0.0072484417 -0.14319289 0.059816644 0.0092512695 0.18108974
-0.10669278 0.1628476 -0.07454895 0.057379767 -0.07488227 0.01264601 0.055589147 0.0040662196
0.040980544 -0.033611584 -0.06586255 -0.07882255 0.026219664 -0.10614053 -0.14817835 -0.100570805
-0.08334182 -0.09535022 -0.0026447203 0.021603454 0.0229287 0.039963607 -0.07540957 -0.027539633

encoder.transformer_encoder.layers.0.self_attn.out_proj.bias f4 [16]
00000000: a68d b3bb 087e bb3c 56b7 7f3c baa6 183c
00000010: 635f 863c 7220 cf3a d783 8fbc e8b5 f6bb
00000020: 5eed 12b9 e355 7f3c 4c77 6d3a 4da8 8a3c
00000030: 8273 02bb 9be1 143d fc65 9abc 28e3 10bb
-0.0054795323 0.022887245 0.015607676 0.009317094 0.016402906 0.0015802516 -0.01751892 -0.007529009
-0.00014012071 0.015584442 0.0009058609 0.016925955 -0.0019905274 0.036347967 -0.018847458 -0.0022108052

encoder.transformer_encoder.layers.0.linear1.weight f4 [128, 16]
00000000: 3663 7a3c 7218 393e 526b 41bc d4bd 5ebd
00000010: 2329 e2bc 97db f8bc efb7 d43d e240 703b
00000020: 7dcb 4c3d 78ad 03be 3d97 2e3d 2122 33be
00000030: ac95 ecbd 7d86 02be 2007 2f3d cf27 08bd
00000040: bbbb 873d 243d 903d 798d da3d d855 7fbd
00000050: f00f 03be daab 1dbe c12e ca3d 83ef b6bb
00000060: 8b90 123d 253d a9bc 8abf cb3d 18d0 10be
00000070: e0ff 3e3e ded7 413b b946 5f3e 1f63 1b3c
00000080: 72a2 353e abe7 18be 5aab 013e aee3 743d
00000090: d44c 82bd 86a3 043e 1746 493d d6d7 4c3e
000000a0: 9da7 cc3c d4eb 93bd cafb 323e a4a1 fabc
000000b0: 09ac 1d3e 27c3 da3d 8aeb 663e a92d 8e3e
000000c0: d8f8 35be 65fe 2c3d 4191 46be 4c3b a3bd
000000d0: b5b9 983c 9c48 edbc a143 ad3d f27b 6fbd
000000e0: e290 8d3c 2eaa e5bd f212 5dbc 543c f3bc
000000f0: 37e2 b93c b3fd e4bc f05b 43be 2529 133b
00000100: fb70 953c 17d4 a63c 2879 0f3e 38a7 bf3d
00000110: 3c0a 90bc 0b46 db3d 7642 2fbe 8d9a df3c
00000120: 90a6 99bc d670 85be 29e8 933c 2f8b bbbd
00000130: 727e 04be ff7d e23b 3dad c93d ae5d 70bc
00000140: dfec 4c3e 5a09 7cbd 46c2 f5bd 55c3 26bd
00000150: 3252 71be e0e5 613e 2012 8fbd 5f6a 7d3d
00000160: f2dd be3d 3481 67bd 6599 623c 751e fabd
00000170: d482 a73b e8c0 fd3d 7de2 893c 34f6 74bd
00000180: f8e7 423d 749a 6f3c 72b6 b1bd fbb9 1abd
00000190: 3d1a 423c 9fcf b5bd 91a6 e23c 369f ef3d
000001a0: b4dc aa3d 442f af3d 8b13 af3d d59e 68be
000001b0: df6c 3f3e 244c e73c f80c fa3d 7cd9 66ba
000001c0: e6ca 8cbd b25d 2d3e bb06 06bd 0630 f1bd
000001d0: 0f70 2c3d 4ce7 12be 40e2 0fbe e1a9 2b3e
000001e0: d62c 533d 8266 c53d 0ebc dcbc f8f4 3abd
000001f0: 78eb 19be 6c96 12be 6fa2 0d3d db8d 0dbe
00000200: 9586 b53d e5e7 34bd 1b74 46be 63f0 e43d
00000210: 1d01 d93d 982f 10be 394f 883e c40c 813d
00000220: c6e7 c9bd 6cdd e03d 5886 47be 2f3f 753c
00000230: 4120 a5bc a021 f2bd 52e0 db39 950f 88bd
00000240: 1db1 b33d f0ec 8e39 4c41 0d3d 0bfa 3f3c
00000250: 6df1 b63d 1d7f 22be 4120 00be f2ff 5b3e
00000260: 4bbb 263e a1e3 763d 9847 a6ba 71d6 933d
00000270: f7dd 323e acbf e8bd bcb7 383d 7f66 663e
00000280: 42d2 c93d a212 65be 142b 64be 52d9 a9bc
00000290: f55f 9a3e 498d 8ebd 4162 0e3e a980 a7bc
000002a0: 75ab e3bd 41f8 83bd cc30 53bd 78d6 c9bd
000002b0: 6d5b 58bd 163f 19be 2c76 7ebe ca97 333e
000002c0: be57 a2bc 67f5 60bc f455 efbd 7d65 a9bd
000002d0: 20ea 10be d8cc 1fbe d938 f0bd 8b20 a2bd
000002e0: 49e4 bbbd fd55 64be 377c c3bd 9c2a 2bbc
000002f0: dc39 dbbc 5e66 16be cf30 a8bc 93c1 e23c
00000300: f51a bcbd f0ff ecbc 2e89 bfbd 036f d7bc
00000310: fc1e 03bc 40d8 91bd 3b31 23bd a426 eabd
00000320: 3fc1 da3b 434e 3b3c 9e2d d8bd 0354 ecbd
00000330: 6064 b9bd b205 9dbd af24 07be 932d cfbd
00000340: bf7f 87bc 37e8 d43d a139 533e 3923 713d
00000350: c7bd 61be a92b 0f3e 902b 0bbd 9a7b 943d
00000360: 0874 773e 97a9 5bbe fca6 373e d9fc 093b
00000370: 7f61 c7bc 14e7 193d 2889 543e 3b5f 27bd
00000380: 3f3e acbd eb6e 42bd 3647 3ebc 679d e1bd
00000390: ca03 fdbd bfb6 893d 8187 94bd e907 89bd
000003a0: fb9e 823e 3f87 38bd c960 88bd d9cf ebbd
000003b0: 9fe0 e23d 0e1b eabc 9450 d03d 6dd1 eebc
000003c0: ea1e 0e3e 8ba8 433e 4d75 c3bd df63 933d
000003d0: 2a5e 323e d14c 5e3d a471 08bd 20d5 bebd
000003e0: ba96 4d3c c1a3 1a3e 8422 08be e130 89ba
000003f0: 32eb e13d 4bca 9dbd 98dc 54be 44fb e53d
0.015282443 0.18075731 -0.011805372 -0.054380253 -0.027607506 -0.030378146 0.10386645 0.0036659767
0.04999875 -0.12859142 0.0426247 -0.17493488 -0.11551985 -0.12746616 0.042731404 -0.03324109
0.066276036 0.07042912 0.10671515 -0.062337726 -0.12799048 -0.15397587 0.09872199 -0.0055827512
0.03578238 -0.020659039 0.099486426 -0.14141881 0.18652296 0.002957813 0.21804322 0.0094840815
0.17737749 -0.14932124 0.12663022 0.059787445 -0.0636231 0.12953004 0.04913911 0.2000421
0.024982268 -0.07222715 0.17478862 -0.030594654 0.15397657 0.106817536 0.22550789 0.2776921
-0.17770708 0.042234797 -0.19391347 -0.07970294 0.01864324 -0.028965287 0.08460165 -0.058467813
0.017281 -0.112141 -0.013493286 -0.029691853 0.022690875 -0.027953004 -0.1907804 0.0022454944
0.01824235 0.020364804 0.14011061 0.09358066 -0.017583005 0.10706719 -0.17115197 0.027295375
-0.018756181 -0.2606265 0.018055039 -0.091574065 -0.1293886 0.0069119926 0.09847496 -0.0146707725
0.20012234 -0.061532356 -0.11999945 -0.040713627 -0.23566511 0.22060347 -0.06985879 0.06186902
0.093196765 -0.056519702 0.013830517 -0.122128405 0.0051120315 0.123903096 0.01683163 -0.05980511
0.047584504 0.014624227 -0.08677377 -0.03777502 0.011847076 -0.08877491 0.027667316 0.11700289
0.08342877 0.08553937 0.085486494 -0.2271684 0.18693875 0.028234549 0.12209505 -0.00088062114
-0.06874637 0.16930273 -0.032721262 -0.11776738 0.042099055 -0.14346045 -0.14051151 0.16764022
0.05155643 0.096386924 -0.02694514 -0.045643777 -0.1503123 -0.14315194 0.034578737 -0.13823645
0.0886356 -0.044166464 -0.19380228 0.11178663 0.105959155 -0.14080656 0.26622942 0.06301263
-0.098586604 0.10979733 -0.19484842 0.014968677 -0.020156981 -0.1182282 0.00041938067 -0.06643597
0.08774016 0.00027260883 0.0344861 0.01171733 0.08932767 -0.15868802 -0.12512304 0.21484354
0.16282384 0.060275678 -0.0012686132 0.07218636 0.17467485 -0.113646835 0.045097098 0.22500037
0.098545566 -0.22370389 -0.22282058 -0.02073351 0.30151334 -0.06960542 0.13904668 -0.020447092
-0.11116687 -0.06443835 -0.05156021 -0.0985536 -0.052821565 -0.14965472 -0.24849766 0.17538372
-0.01981723 -0.0137303835 -0.11686316 -0.082713105 -0.14151812 -0.15605485 -0.11729593 -0.07916363
-0.09174401 -0.22298427 -0.095451765 -0.010447171 -0.026760988 -0.14687487 -0.020531086 0.027680194
-0.09184829 -0.028930634 -0.09352337 -0.026298052 -0.008002993 -0.071213245 -0.03984187 -0.11433151
0.0066758688 0.011432233 -0.10555576 -0.115394615 -0.09052348 -0.07667102 -0.13197587 -0.101161145
-0.016540406 0.10395854 0.20627452 0.05887148 -0.2204505 0.13981499 -0.03397709 0.072501376
0.24165356 -0.21451412 0.17934793 0.002105525 -0.024338482 0.03757389 0.20755446 -0.040862303
-0.0841031 -0.04746906 -0.011613658 -0.1101635 -0.12354238 0.06724309 -0.07252408 -0.06690962
0.25511917 -0.045050856 -0.06659085 -0.11514253 0.11077999 -0.028577354 0.10171619 -0.029152596
0.1387898 0.19107263 -0.09543858 0.07196783 0.17418733 0.054272477 -0.0333115 -0.09317994
0.012548143 0.1510153 -0.13294417 -0.0010466838 0.11031188 -0.077046 -0.20787275 0.11229566

encoder.transformer_encoder.layers.0.linear1.bias f4 [128]
00000000: 5d51 ddbd 3667 22be 91ad 6cbe 576d 933d
00000010: 9173 b7bd 50cc 3dbe bdc5 0cbe 1fee 083e
00000020: fd0e 8ebd f612 ef3d a107 d6be 7aa3 963d
00000030: 0d1b 263c f684 7cbe e82f 8cbe 7415 e43d
00000040: e450 33be aacc 013e a5ab 01be 0eae 003e
00000050: 25e2 29bd 89e1 14be 2dd8 18be 385d 8cbc
00000060: 3a3c 343e 8ac4 febd 44f5 063e 905f 7dbe
00000070: 919d 893d 23f9 49be 7e5c 1abb 946c 9cbe
00000080: 1fa2 3cbd 4a58 79be 7451 383e 5c6c 96be
00000090: a927 fb3c 84c5 b33d 5b94 63be 652d 9bbd
000000a0: 5e5f 3d3d 0b21 24be 9e03 59bd 8a17 58bc
000000b0: f5d8 5ebe e04b edbd 31d9 16be 30a8 91be
000000c0: 23da 243e dbba 313d e014 34be 6b53 0f3e
000000d0: ea8b dc3d 72a4 41be 6db0 55be 49ea 91bd
000000e0: 852c 92bc f2ab 4ebe 9bdb 77be 7271 08bd
000000f0: 6845 133e 5d27 63be a1c6 c6bd 21cf e7bc
00000100: e0ea 323e 9185 2fbd 4e0f 1a3e cf6a 1cbe
00000110: fa46 2c3d f1d1 7cbe 3e03 f83c af43 393e
00000120: c57b 82be 3665 4b3d 1b51 6bbb 90dd cb3d
00000130: 8f24 33bd be08 093e 7557 263d 616f a5bb
00000140: c924 27be d6a8 b63d ba23 023d 6311 53be
00000150: 9078 47bd af4f 93be 283a 4cbe 9d66 7a3d
00000160: e7c2 f9bd cd6e 8cbe 6d13 9abe bb22 bb3b
00000170: cbf2 9f3d 4e13 2bbd ee77 87bd 1560 b7bc
00000180: 341e fbbc aa1f 783d 1012 63be a6f2 f3bd
00000190: f733 8039 15e6 a53c 65a2 fcbc f869 80bc
000001a0: e281 7abe 728f 783d 61bd f3bd bda3 303d
000001b0: 22db 133c c2a5 90bb c1d2 063d ae84 a6be
000001c0: 7660 e1bd eee1 a2bd cb76 98be 0062 83be
000001d0: f687 6bbe b531 35be 6256 88be 6809 5abd
000001e0: 82b3 83be 0859 a5be c177 123e 7ee0 933d
000001f0: 6312 abbd b14f f1bd 7df5 4dbc 4812 8dbd
-0.108065344 -0.15859684 -0.23113085 0.07198589 -0.089575894 -0.1853497 -0.13747306 0.13372086
-0.069364525 0.116735384 -0.41802695 0.073553994 0.010138285 -0.24660096 -0.273803 0.11136904
-0.17511326 0.1267573 -0.12663133 0.12566397 -0.041475434 -0.1453916 -0.14926215 -0.017134294
0.176011 -0.124398306 0.13179499 -0.24743485 0.067195065 -0.19723944 -0.0023553665 -0.3055159
-0.04605305 -0.24350086 0.17999822 -0.29379547 0.03065856 0.087779075 -0.22224562 -0.07577018
0.046233527 -0.1602823 -0.052981965 -0.013189206 -0.2176245 -0.11586738 -0.1473129 -0.2844863
0.16098838 0.04339109 -0.17586088 0.13996665 0.10768874 -0.18910387 -0.20868082 -0.071247645
-0.017843494 -0.2018278 -0.24204867 -0.033311315 0.14381945 -0.22182985 -0.09705854 -0.028297009
0.1747241 -0.04285199 0.15044901 -0.15275119 0.042059876 -0.24689461 0.030274983 0.18092225
-0.25485054 0.04965707 -0.0035906497 0.09954369 -0.043736037 0.13382241 0.04061075 -0.005048678
-0.16322626 0.08918922 0.031772353 -0.20612101 -0.04869896 -0.2877173 -0.1994406 0.061133016
-0.12195378 -0.27428284 -0.30092946 0.0057109273 0.07809981 -0.041766457 -0.06614672 -0.022384683
-0.03065405 0.060577072 -0.22174859 -0.11911516 0.0002445278 0.020251313 -0.030839154 -0.01567553
-0.24463609 0.060683675 -0.119013555 0.043124903 0.009024413 -0.004414291 0.032915834 -0.32523102
-0.110047266 -0.07953249 -0.29778132 -0.25660706 -0.23001084 -0.17694743 -0.26628405 -0.053231627
-0.2572289 -0.32294488 0.14303495 0.07220553 -0.08353116 -0.11782778 -0.012570736 -0.068882525

encoder.transformer_encoder.layers.0.linear2.weight f4 [16, 128]
00000000: c05f 99bc 2e3b 403c ac7a 86bd 9c8b 2abc
00000010: 03c6 2c3b 107c 333d e4f9 213c 7c4a 62bc
00000020: 8d47 193d 281d 963c b59a 1d3e efd6 823c
00000030: 0aec 7dbd cd50 85bc cb1d 143d 6d83 3d3d
00000040: 50a8 efbc c13e 89bc a404 adbc ac75 1abc
00000050: 7572 4cbc 31a1 1fbd 39d7 eb3c 4821 11bd
00000060: 238d 7abc 0bae 28bc 1082 493c 8a7f 6ebd
00000070: 93ff 43bc 9d80 22bd 717a 3abc 598f 70bb
00000080: 847b 02bc 8e7e e1bc 9201 2cbd 3af6 19bd
00000090: dc45 c0bc 153d 143c 8071 c63c 70e7 41bd
000000a0: f4e7 69bc fc77 abbc 62c5 5a39 b198 a0bc
000000b0: 37a3 94bc 85a5 d4ba cc7f cbbc 21fa cb3c
000000c0: b058 6b3b 3269 66bc bdaa e73c 9017 d8bc
000000d0: d035 51bc 571c 353d 1c37 0cbc 62ff 8d3c
000000e0: db2a 44bb 4a7c 8a3c 6b38 54bd b6c1 b8bb
000000f0: 89c5 b33c a99f a23c 3f47 3bbc 7a6e d8bb
00000100: 237c 4b3b 99a4 9b3b 7b13 a3bb 8fc2 b23b
00000110: 2b58 45bc 5553 5b3c ffdc c13c 35b8 97bc
00000120: e14c 09bd 899c 1d3c d843 633c 36af c4bb
00000130: 81aa 1fbd 1373 2f3c 76c9 20bd fe9f 573d
00000140: 2697 0dbb 0666 55bc 13df 7b3c 0a4c cfbb
00000150: 26fa 00bc 1b11 eebc d020 8cbb 5c59 4c3d
00000160: 7562 883d 2b91 1cbd b289 24bd 9c07 573d
00000170: 348c a3bc 6350 81bd eb33 47bb a6fb 08bc
00000180: 978e 7c3c fe34 0a3d 8ae9 b13c 7c5d 7abb
00000190: 9f89 8e3c 9f1f 083d d747 55bc 8c2a 9cbc
000001a0: fd1b b6bc 2e72 8d3b 94c0 fbb7 a508 403c
000001b0: eeb3 8abc fb1c 4e3c 1140 67bd 0e2c ac3b
000001c0: 8e7a c0bc 240b 32bc 8c10 eebc 164e fbbc
000001d0: ac87 b3bd 16c9 c6bb fff6 123d 9367 11bc
000001e0: a641 8ebc 9d7a a3bc d127 2bbc b22e e7bc
000001f0: c869 173c 22bd 0f3b 74b4 2bbd 92b5 3f3d
00000200: bf1a cdbc 0736 91bc 2352 983d a187 60bd
00000210: bbf2 683d 676f 70bc 9794 e43b e78b 0abc
00000220: d7a3 883c 1ad4 4fbc 1378 14be a3c8 eb3c
00000230: f52a edbc ef1f 4abd ce02 16bd c838 f6ba
00000240: 60c5 92bc 4d71 32bb d0a6 463b f26a 3f3c
00000250: c758 b13b 9aef 99bc 0090 f6b6 8e13 2a3b
00000260: 3b75 cbbc 10c5 b2bc f286 cf3a febc 573d
00000270: 23be ddbb 7d39 e63c d9e4 72bc a467 633d
00000280: 0301 7e3c 88d9 523c 6189 2ebc e1a7 d4bc
00000290: d8c1 7e3b e0a2 bf3c 96e3 cd3c 2b2b 58ba
000002a0: 1eba a1bc 793a 6ebc 2f69 8cbc 4fd9 0cbc
000002b0: 0495 8d3b f4c8 b2bc 4a4c 0a3c 0d75 21bb
000002c0: 3c54 71bc 1804 6b3b c115 cf3c e9cb df3b
000002d0: ac76 92bc 278e 943c c02b 013b 6d43 9c3c
000002e0: 7ee1 35bd 045a d43c 3d01 2c3d df43 91ba
000002f0: c7fe 4bbb d567 303d 87c7 383c ccc7 9dbc
00000300: b255 85bc 3f32 d83a 39aa ce3a aa3a f13c
00000310: 5b16 2ebc 46de 10ba fa6e dd3c 0520 c2bb
00000320: cfd2 3cbc 9f29 b8bc 2c31 4b3c f341 353b
00000330: 99d7 7bbc fe32 91ba 8e44 65bc 4425 0f3d
00000340: 842c 9339 ba6f 88b9 21b6 453c 0437 45bc
00000350: eafd 20bd 582f 1d3d 6664 36bc a6bf 133c
00000360: 06ac 16bc 1b12 00bd 994e 373b e4d2 bdbc
00000370: d1be 1fbd 1be7 4fbc 092b ef3b 8924 723c
00000380: d6cb 9c39 a316 94bb a264 273c 2ecd 9c3c
00000390: e7ef 39bc ed4e a83c 639d f13a b6c2 dbbc
000003a0: f22f 703b 5e41 93bc 6d1a 99bc fd06 7d3c
000003b0: f974 07bb 67c9 5ebd 5d3c 683c d16a c03c
000003c0: 1dbd 19bd 5822 c23c 6fff f03c d0ef 873c
000003d0: a46c bbb9 7ce3 1ebd 6f7a 91bc 8e26 8bbc
000003e0: b920 f9bc cf23 373d 4c1e 9abb 10fd feba
000003f0: d931 bc3b 6b9b ec3c 75f1 8bbb 052c 65bc
-0.018722415 0.01173286 -0.065663666 -0.010409262 0.0026363141 0.043819487 0.009886239 -0.013811704
0.03742175 0.01832445 0.15391047 0.015971629 -0.061992683 -0.01627388 0.036161225 0.046267916
-0.029255062 -0.016753556 -0.021120377 -0.009427469 -0.012478461 -0.038972083 0.02878915 -0.03543213
-0.015292439 -0.010295401 0.012299076 -0.0582271 -0.011962789 -0.039673436 -0.011381731 -0.0036706536
-0.007964019 -0.027526166 -0.041993685 -0.037588336 -0.023470812 0.009047766 0.024224043 -0.047339857
-0.014276493 -0.020931236 0.00020863631 -0.019604059 -0.018144233 -0.0016223645 -0.024841212 0.024899544
0.0035911016 -0.014063166 0.028279657 -0.026378423 -0.012769178 0.04421648 -0.008558061 0.01733369
-0.002993277 0.016904969 -0.051811617 -0.0056383265 0.021944778 0.019851523 -0.011430561 -0.0066049667
0.0031049333 0.004749846 -0.0049766875 0.005455322 -0.012044947 0.013386567 0.02366495 -0.018520454
-0.033520583 0.00961984 0.013871156 -0.006002332 -0.038980965 0.010708588 -0.039254628 0.052642815
-0.0021604984 -0.013024813 0.015373009 -0.0063262032 -0.00787214 -0.02906089 -0.0042763725 0.049889907
0.06659404 -0.03822438 -0.04017038 0.05249749 -0.019964315 -0.06314161 -0.0030395936 -0.008360779
0.015414855 0.033741944 0.021717805 -0.0038202694 0.017399607 0.03323328 -0.013017616 -0.019063257
-0.022230143 0.00431659 -3.0011208e-05 0.011720811 -0.0169315 0.012580152 -0.056457583 0.005254275
-0.023495939 -0.010866914 -0.029060625 -0.030676883 -0.08766112 -0.006066452 0.035880085 -0.008874792
-0.017365288 -0.019955928 -0.010446505 -0.028220508 0.009241529 0.00219328 -0.04192014 0.04680402
-0.025037168 -0.017725958 0.07437541 -0.054816846 0.05687211 -0.014674998 0.006975721 -0.008456207
0.016679687 -0.012684846 -0.1449893 0.028782194 -0.028951148 -0.04934686 -0.03662377 -0.0018785233
-0.017916381 -0.0027228177 0.003031183 0.011683213 0.0054121944 -0.018791009 -7.348135e-06 0.0025951597
-0.024836173 -0.021822482 0.0015833064 0.05267047 -0.006767051 0.028103584 -0.014825069 0.05551876
0.015503171 0.012869246 -0.010652871 -0.025958957 0.0038872864 0.023393095 0.025132935 -0.00082461786
-0.019742068 -0.014540308 -0.01714 -0.008596732 0.0043207426 -0.021824338 0.00844104 -0.0024636418
-0.014729556 0.0035860594 0.025278928 0.006829728 -0.017878853 0.01813419 0.0019709915 0.01907512
-0.0444045 0.025921829 0.04199337 -0.0011082849 -0.00311272 0.043067772 0.01127804 -0.01926031
-0.016276214 0.0016494467 0.0015767283 0.029446919 -0.010625447 -0.00055262854 0.027030457 -0.005924227
-0.01152487 -0.022480784 0.01240186 0.0027657717 -0.015371227 -0.0011077819 -0.0139933955 0.03494765
0.00028071192 -0.00026023184 0.012067349 -0.0120370425 -0.03930465 0.03837523 -0.011132335 0.0090178605
-0.009196287 -0.031267267 0.0027970432 -0.02317185 -0.039000336 -0.012689377 0.0072988314 0.0147792185
0.00029906508 -0.0045193 0.010216864 0.019140806 -0.011348701 0.020545447 0.0018433746 -0.026826244
0.0036649671 -0.017975505 -0.018689359 0.015443561 -0.0020669086 -0.05439129 0.014174548 0.023488434
-0.037533868 0.023698017 0.029418675 0.016593844 -0.00035748363 -0.038791165 -0.017758576 -0.016986158
-0.030411111 0.044711884 -0.0047033187 -0.0019454081 0.005743247 0.028882703 -0.0042707273 -0.013987546

encoder.transformer_encoder.layers.0.linear2.bias f4 [16]
00000000: 76b8 6d3d a0a5 653d 6f26 463d f341 273d
00000010: caef 863d 8042 673d 621a df3c 7b66 dfbc
00000020: 0955 033d 1652 53bd 365c d3bc 30aa 073d
00000030: a7d8 2c3c 4fbc 5c3d 3957 16bd 8c3b 53bd
0.058037244 0.056066155 0.048376497 0.04083438 0.06588705 0.056459904 0.02723426 -0.027270546
0.032063518 -0.051591955 -0.025800806 0.033121288 0.010549701 0.053890523 -0.036704276 -0.05157046

encoder.transformer_encoder.layers.0.norm1.weight f4 [16]
00000000: d397 7a3f 5822 803f a8a9 893f 965d 7d3f
00000010: 9942 813f 867a 673f a807 7a3f cc5d 7a3f
00000020: 91b7 7d3f 7470 843f f469 7a3f 1c3d 873f
00000030: 77e6 823f dd9c 7f3f 9f67 823f a729 8c3f
0.97887915 1.0010481 1.07549 0.98970926 1.0098449 0.9042133 0.9766793 0.9779937
0.99108225 1.0346818 0.9781792 1.0565524 1.0226582 0.9984873 1.0187873 1.0950211

encoder.transformer_encoder.layers.0.norm1.bias f4 [16]
00000000: dc15 91bb 1580 dd3b 9fe3 cfbb 7d2d 4a3c
00000010: 3e70 0bbd 2aeb b63c 9cba 9cbb b096 1bbd
00000020: 5f81 203d 7a4b ad3c 86ae 79bb 77f5 073d
00000030: 434c 5cbc 96e5 693c 791e dc3b 569a 66bd
-0.0044276547 0.0067596533 -0.006344273 0.012339947 -0.03404259 0.022328932 -0.0047829878 -0.037985504
0.039185878 0.021154154 -0.003809841 0.033193078 -0.013445917 0.014275929 0.0067175 -0.05629953

encoder.transformer_encoder.layers.0.norm2.weight f4 [16]
00000000: 3e0c 843f 55de 7b3f 049f 873f 3f63 803f
00000010: 5aa5 813f 46ab 703f a745 753f f4f3 7b3f
00000020: 4db6 7b3f 31b6 823f 0d18 7b3f 4d86 873f
00000030: bd26 803f ecea 7d3f 1527 7d3f 9759 863f
1.0316236 0.98386127 1.0595403 1.0030288 1.0128586 0.9401134 0.95809406 0.9841912
0.98325044 1.021185 0.98083574 1.058786 1.0011822 0.9918659 0.9888776 1.0496091

encoder.transformer_encoder.layers.0.norm2.bias f4 [16]
00000000: 39ba 9f3a 5eb0 cbba 062b 3fbc ee47 963c
00000010: 4b3c debc bd38 fa3c ff09 443b da25 01bd
00000020: 18c9 4e3d 664f 8e3b ab76 73bb 29d3 c63c
00000030: ab66 42bb d736 6a3b 86f8 e9bb c40d 8ebc
0.0012186236 -0.0015540232 -0.011667972 0.018344846 -0.02712836 0.030544633 0.0029913185 -0.03153024
0.050484747 0.004342961 -0.003714959 0.02427061 -0.0029663246 0.0035738254 -0.007140222 -0.017340548

encoder.transformer_encoder.layers.1.self_attn.in_proj_weight f4 [48, 16]
00000000: fcc9 40be 1941 f83b 1a8a 45be 4643 6b3e
00000010: ad17 353e 18b6 c83d 2e8b 573d a9ec 273e
00000020: 8e64 78bd d47e b8bd 8407 24be d722 ae3d
00000030: 3bce 13be 3029 2a3c 0ae8 8c3d 990c 40bc
00000040: 78c2 563e 71bf 47be e819 4f3d 2980 4bbe
00000050: 89e1 bebd 62e7 773e 6b89 13be 710a 213e
00000060: f084 333e c4df 0bbe 01a3 b73d e031 1cbe
00000070: 9b11 35be 9dd2 aa3d a7dd e23d 029b 7c3e
00000080: a198 19be 45f1 52be 6cd8 9fbe 4ec8 24be
00000090: f32f 8e3e 7cba 1bbe fe71 843e c7fd 0bbe
000000a0: 6162 69be fa51 99bc 8be7 47bd 0547 e93d
000000b0: d6f0 92bd 4378 d63d df84 a7be 8b3d 8f3e
000000c0: 8bd9 87be d27c 7f3d e345 993d 7fd4 fcbd
000000d0: 4635 dabe 9a19 5cbd 7751 66be 4d62 1abd
000000e0: aff6 29be b2ce dfbd 7c9f f339 54e3 993e
000000f0: 43d7 92bd 335a 7a3e 6c5c ad3e eccc f9bc
00000100: 8ab2 303e 8ed7 733d 70e3 46be 06ab 043e
00000110: b257 13bd 9a2b 063e 20bb 813e 14a5 20be
00000120: ab97 da3c 459a 423e 6723 193e d9e9 0ebd
00000130: f682 cdbd f788 09be a916 62bd 28a5 603e
00000140: 3085 88be 64c0 213e 4098 2d3d 1e6e c33c
00000150: 0816 6cbe d1cb 9b3d 8f3e 46be bec1 963c
00000160: ae81 923e 10c7 8cbd 0213 20be 16e0 c13e
00000170: 79c0 7a3e 5d2f 2b3e a895 793e ade2 53be
00000180: 6110 bf3d 46e1 873e f256 133e fb5b 603d
00000190: fd9b d1be e84c 093e 2182 afbc 2c5b 263c
000001a0: 1f65 823d d036 1f3e 6862 f83d ebe9 a43d
000001b0: e76e d5bc 4583 6d3b a815 ca3e d36b b0bd
000001c0: 50c0 a8bd ff01 273e 9e02 1f3d 6eff 8f3e
000001d0: 33e9 95be 4b31 f83b 954c 113e c7cc 42be
000001e0: 8481 1e3e 25b0 b5bc c360 c03c f5c2 f6bd
000001f0: ecc3 7f3e 5c98 23bd 386e 653e 42be be3c
00000200: 966e 90bd 3178 9a3d ed3d 783e d373 873d
00000210: fe19 8e3d 0fa8 02be 6b4b d43d 6417 e1bd
00000220: 3e32 b73e bd45 89bd f30d 983e 971d f23d
00000230: b1b7 5abe 7872 603e dcdb 0ebd 5198 603e
00000240: 7273 523e 0771 70bc cc31 ccbd 7773 f33d
00000250: 142a 7a3e 5ad1 9c3e badb c23d 4482 7fbc
00000260: aab5 43be 0b86 dd3d cd40 42bd c8a9 b13e
00000270: 88c1 5e3e 9385 38be be12 653e d794 773e
00000280: 1cbc c23d 2602 8c3a 21b3 d0bd fa57 83be
00000290: 4e61 57be 1a13 a23d 2dd6 5cbe 06ac 99bd
000002a0: 7f97 2339 5a07 3abe 24ca 643c 7a13 34bd
000002b0: 2ea8 a13d ea7b 39be 97ca 333e d184 e83d
000002c0: ab4a 3ebd 0ed4 123d 4da6 37be 6cac ad3e
000002d0: b6af 433d 11e1 b3bd 97f8 1d3e 0682 853d
000002e0: 465b e9bb c946 7a3d 45b1 433e 7e0d fe3d
000002f0: 20f8 57bb 1158 0c3e 8897 02bc 5d75 15be
00000300: 8c3d 05be 5651 433e ebee 93bd cdea 7e3b
00000310: 32c9 78be 4fc7 8bbd 5d44 88bd fa1b 13bb
00000320: 58e4 31bd 2e2f ee3d 5ab3 9ebd 2a86 c53e
00000330: ff01 0b3e bb94 79bc 24ac cb3e d021 83be
00000340: d75e 423e 452e 123d bfa2 0dbd f271 b93b
00000350: 3b31 ebbc 9e7e adbd 0f3d 1a3e 4f84 bdbc
00000360: 6d1d 73bc 3bc7 e8bd 7243 c13d 3b90 463e
00000370: f494 0a3d c55c 50bc 3be7 ad3e ea50 afbd
00000380: 5a97 4c3e a522 f23c 7f5f 77be 0c5b 25bd
00000390: 9cab 433e f8c9 f6bc ccd3 933e 3434 ad3d
000003a0: a159 66bd 793c f83d 0dd3 7a3e 3d3a 553e
000003b0: 8cd0 99bd 6076 5abe b45d d53d 2d24 2e3e
000003c0: 9528 0fbd 42dc 393c 9beb 32be 725d 27bd
000003d0: f008 213c fa60 0e3e f6df e53d 8ef3 c8bb
000003e0: 0e5f c23d 185f fe39 9590 413d 93c9 a5bd
000003f0: 61b6 743d db28 71bd 07dd e9bd 657b a43d
-0.18827051 0.0075761196 -0.19290963 0.22974882 0.17684813 0.098003566 0.052622966 0.16398872
-0.06064277 -0.090085655 -0.16018492 0.08502739 -0.1443414 0.010385796 0.068801954 -0.0117217535
0.20972621 -0.19506623 0.050561816 -0.19873108 -0.09320361 0.2420936 -0.1440789 0.1572664
0.1753118 -0.13659579 0.089666374 -0.15253401 -0.17682497 0.083409525 0.11077433 0.24668506
-0.1499963 -0.2059985 -0.31219804 -0.16092035 0.27770957 -0.15207857 0.2586822 -0.13671027
-0.22791435 -0.018715847 -0.0488048 0.11390499 -0.07174842 0.10472157 -0.3271856 0.2797664
-0.2653316 0.062374897 0.07484033 -0.12345218 -0.4261877 -0.053735353 -0.22492014 -0.037691403
-0.16598009 -0.10928096 0.00046467397 0.3005625 -0.07169964 0.24448471 0.33859575 -0.030493222
0.17255607 0.05953174 -0.19422698 0.12955865 -0.035972305 0.1310257 0.25338078 -0.15687972
0.026683649 0.19004162 0.14954911 -0.034890983 -0.100347444 -0.13431154 -0.05519739 0.21938002
-0.26664114 0.15796047 0.042381525 0.023856219 -0.23055279 0.07607234 -0.19359802 0.01840293
0.28614563 -0.06873906 -0.15632251 0.37866277 0.24487485 0.16717286 0.24373496 -0.20691939
0.09329296 0.26539057 0.14388636 0.05477522 -0.40939322 0.13408244 -0.021424355 0.010153573
0.063669436 0.15548253 0.121281445 0.08052429 -0.026053859 0.0036241573 0.39469647 -0.08614316
-0.08239806 0.16309355 0.038820855 0.28124565 -0.2927948 0.0075742356 0.1418937 -0.19023429
0.15479094 -0.022178719 0.02348364 -0.12048904 0.24977082 -0.039940223 0.22405326 0.023284081
-0.070523426 0.07542456 0.24242373 0.066138886 0.06938551 -0.12759422 0.10365947 -0.109907895
0.3578052 -0.06702755 0.29698142 0.1182205 -0.21359135 0.21918666 -0.034877643 0.21933104
0.20551851 -0.014675385 -0.099704355 0.118872575 0.24430114 0.30628473 0.09514566 -0.015595023
-0.19112268 0.10816582 -0.04742508 0.34699845 0.21753514 -0.18019705 0.22370431 0.24177872
0.09508535 0.0010681793 -0.10190416 -0.25653058 -0.21033213 0.079137996 -0.21566077 -0.07503514
0.00015601328 -0.18166867 0.01396421 -0.043963887 0.07893406 -0.18113676 0.1755775 0.11353458
-0.046457928 0.035846762 -0.17934532 0.3392061 0.047774993 -0.087831624 0.15426861 0.06518941
-0.0071214763 0.061102662 0.19110592 0.12404917 -0.003295429 0.1370547 -0.007970698 -0.14595552
-0.1301176 0.19073996 -0.07223304 0.0038897276 -0.242955 -0.068251245 -0.06653664 -0.0022447095
-0.043430656 0.116300926 -0.07749052 0.38578922 0.1357498 -0.015233214 0.3977977 -0.25611734
0.18981491 0.035688657 -0.034579035 0.0056593353 -0.028709998 -0.08471416 0.15062355 -0.023134379
-0.014838559 -0.11366125 0.09436692 0.19390957 0.03383346 -0.0127174305 0.33965477 -0.08560355
0.19979611 0.029557535 -0.24157523 -0.040370032 0.19108433 -0.030125603 0.28872526 0.084572226
-0.05623782 0.12120909 0.24494572 0.20822997 -0.0751048 -0.21334219 0.10418263 0.17005987
-0.03495081 0.011344017 -0.17472689 -0.0408606 0.009828791 0.13904181 0.11224358 -0.0061325496
0.094907865 0.00048517506 0.047257025 -0.08095088 0.059744243 -0.058876853 -0.11419111 0.08031348

encoder.transformer_encoder.layers.1.self_attn.in_proj_bias f4 [48]
00000000: 58e1 093c 899c 47bd 0d1d c2bd 41ee b23d
00000010: c08d 473d 5faa 9b3c cf04 063d d659 8e3c
00000020: 862e c4bc 5bba b8bc e74f 893d 0cdf 733c
00000030: 300a 2b3d 8dfe f43d 6fe3 30bd 8263 c1bd
00000040: f617 a136 9e13 1bb7 c18e f2b6 c60c ba37
00000050: 4131 9337 a0c1 4a36 443f 1e36 e084 c936
00000060: a6ea a237 ee6b 70b6 8c30 83b6 c8ea 4f37
00000070: 48c6 e337 ca55 2fb7 404c 3837 b9bd 4cb6
00000080: 1ca5 c5bc cddf c3ba 8513 9d3c bcbd 553c
00000090: 93e9 c03b e6f6 f4bc ae61 94bc 0339 0dbc
000000a0: 97c5 7f3b 50a4 c0bc 315f 02bc cd41 183d
000000b0: 2f82 1d3d 66e2 b73c e37e cdba f470 28bc
0.008415543 -0.048733268 -0.09478197 0.087368496 0.048719168 0.019002138 0.03271943 0.017376821
-0.023947965 -0.022549799 0.06704693 0.0148847215 0.041757762 0.11962614 -0.043185648 -0.09442808
4.8009633e-06 -9.243287e-06 -7.2287808e-06 2.2178876e-05 1.7546701e-05 3.021305e-06 2.358066e-06 6.0057355e-06
1.9421172e-05 -3.582561e-06 -3.909756e-06 1.2392826e-05 2.715284e-05 -1.0450787e-05 1.0985008e-05 -3.0508802e-06
-0.024126582 -0.0014944017 0.019174347 0.0130457245 0.005887219 -0.029902887 -0.018112984 -0.00861955
0.0039027685 -0.02351585 -0.007957266 0.037172128 0.03845423 0.022446822 -0.0015678074 -0.010280836
