embedding_autoencoder_transformer/best_autoencoder_transformer.pth (torch, 186986 bytes, 96 tensors)

encoder.embedding.weight f4 [16, 40]
-0.0043286593 0.037798293 0.0460919 -0.027104806 0.011016247 -0.032979798 -0.018181693 -0.011016276
-0.020995094 0.07010109 -0.0027349505 0.15503934 0.01673986 -0.30981615 0.17298093 0.13710201
-0.03579915 0.09981489 -0.020654641 -0.045838386 0.091127135 -0.09460521 -0.06818728 -0.05335603
-0.1049317 0.06658264 0.052203 0.028285883 0.055803925 -0.025347011 -0.020784138 0.0013306376
-0.022157181 -0.27769655 -0.024750305 0.04131406 -0.0773554 -0.035024222 -0.054177113 -0.029912401
-0.0068508 0.02061131 -0.018855166 0.05674105 -0.032534026 0.004276069 -0.039159786 -0.013998211
-0.03343967 0.05214839 0.0822931 0.09529407 0.04021021 0.017512986 0.19066843 -0.10553146
0.28746015 0.070914656 0.029867386 -0.0024724668 0.026908236 -0.08070906 0.0027241027 0.008278153
-0.01801076 -0.011229018 0.096364826 -0.079481944 0.08458736 0.018278351 -0.025057504 -0.012637281
0.037074517 0.052091643 -0.028355839 0.03804919 -0.044510357 0.06531609 -0.12742594 -0.053017646
0.021968372 -0.0073027434 -0.017581176 0.20068698 -0.032312367 0.16990416 0.014755101 -0.013707204
0.11679409 0.029387103 0.004642227 0.17335784 0.06471715 0.048960175 -0.105771706 -0.03336076
-0.13200597 -0.029449522 0.020269366 -0.0034597681 0.027400514 -0.059089456 -0.04179408 -0.028058022
0.011031687 -0.14350188 -0.18189973 -0.06909472 -0.00050540396 -0.024187349 0.008708337 0.034304366
-0.12456216 0.24015191 -0.028442537 0.04583675 -0.06269804 0.022332503 -0.051704023 -0.04503538
0.015664373 -0.014056858 -0.0055858768 -0.015121686 0.0023077128 0.030766943 -0.04109859 -0.0116480915
0.019052912 -0.13439688 0.01079194 -0.014526497 0.02123577 -0.01417676 0.006468078 0.12582362
-0.008290582 0.03730954 0.072328456 -0.019515637 -0.086835034 -0.025236616 0.12918262 0.17015663
0.085902445 -0.07061069 -0.046478696 0.075673886 0.30486026 -0.019478291 0.013302807 -0.2021304
-0.013073043 -0.20587043 -0.022088604 0.044236347 -0.037335545 0.21397108 -0.011181431 -0.04348406
-0.014139939 -0.0067567555 -0.027986864 -0.0006001354 -0.014372372 -0.009353395 -0.00638718 -0.012175318
-0.008479565 -0.04733199 -0.053264476 0.015120204 0.05633318 -0.22514056 0.0024921454 0.00814904
0.089970864 0.079597354 -0.041336853 -0.009211157 -0.08015897 0.0012027051 0.13572693 0.13410346
0.06202889 0.12002482 -0.13387717 0.004094703 -0.09413764 -0.010059909 0.025697894 -0.112922885
0.059286073 0.06672902 -0.026323818 0.042840283 -0.07585143 -0.052713674 -0.12612915 -0.047530584
-0.0085164625 0.026357206 0.030816447 -0.11558831 -0.042157467 -0.12344892 -0.0058044493 -0.010313578
-0.1644055 -0.06971131 -0.12009667 -0.0017902161 -0.02210847 -0.11546941 -0.027911203 -0.1500772
-0.03578649 -0.18325117 -0.051615696 -0.068273716 0.031156873 0.01592348 0.065560296 0.07230446
-0.0057092262 -0.1977548 -0.14548476 0.090951905 0.05978103 -0.034701098 0.033874378 -0.1194093
0.06675807 0.17209658 -0.028362667 0.028179727 0.037820403 -0.03409774 -0.03774608 -0.027641358
-0.028826062 -0.026404308 0.0097889425 -0.16094722 0.020520126 0.022800272 -0.026557595 -0.01526217
0.05187183 0.11006299 -0.05692875 -0.06945012 0.09521849 0.024166638 0.14927986 -0.07411695
00000000: 6dd7 8dbb 62d2 1a3d dcca 3c3d e60a debc
00000010: 7d7d 343c d315 07bd c6f1 94bc 9c7d 34bc
00000020: e7fd abbc 2991 8f3d db3c 33bb a2c2 1e3e
00000030: 0822 893c 39a0 9ebe ea21 313e 7864 0c3e
00000040: 21a2 12bd c06b cc3d ec33 a9bc 08c1 3bbd
00000050: dda0 ba3d 60c0 c1bd c6a5 8bbd da8b 5abd
00000060: 6ee6 d6bd 7b5c 883d d0d2 553d ccb7 e73c
00000070: a892 643d 89a4 cfbc 7f43 aabc ca68 ae3a
00000080: fa82 b5bc 3e2e 8ebe 27c1 cabc ef38 293d
00000090: 826c 9ebd 8f75 0fbd d2e8 5dbd da0a f5bc
000000a0: ad7c e0bb 0dd9 a83c 2676 9abc 4e69 683d
000000b0: 6642 05bd 441e 8c3b 0366 20bd c158 65bc
000000c0: 09f8 08bd 8d99 553d 4989 a83d 8a29 c33d
000000d0: 76b3 243d 6577 8f3c 963e 433e e120 d8bd
000000e0: fa2d 933e b43b 913d 73ac f43c 1c09 22bb
000000f0: a96e dc3c cb4a a5bd dc86 323b 17a1 073c
00000100: 4d8b 93bc eaf9 37bc ec5a c53d 6ec7 a2bd
00000110: 233c ad3d 7bbc 953c 6545 cdbc 990c 4fbc
00000120: 73db 173d 0c5e 553d 814a e8bc 78d9 1b3d
00000130: 7e50 36bd 71c4 853d f27b 02be 0829 59bd
00000140: 04f7 b33c da4b efbb 6606 90bc e380 4d3e
00000150: f959 04bd 5bfb 2d3e 61bf 713c 2e94 60bc
00000160: bd31 ef3d 39bd f03c d31d 983b b884 313e
00000170: 6d8a 843d 778a 483d d69e d8bd 4ba5 08bd
00000180: 932c 07be 2040 f1bc f10b a63c 47bd 62bb
00000190: 0b77 e03c c907 72bd 4530 2bbd f0d9 e5bc
000001a0: 40be 343c 28f2 12be ec43 3abe 8881 8dbd
000001b0: 167d 04ba 8c24 c6bc 6aad 0e3c bc82 0c3d
000001c0: 721a ffbd 62ea 753e 5300 e9bc 51bf 3b3d
000001d0: d467 80bd a7f2 b63c 99c7 53bd 0577 38bd
000001e0: 9252 803c bc4e 66bc bb09 b7bb f3c0 77bc
000001f0: ff3c 173b f50a fc3c ff56 28bd a3d7 3ebc
00000200: da14 9c3c 569f 09be add0 303c 8b00 6ebc
00000210: a3f6 ad3c a445 68bc 2cf2 d33b e8d7 003e
00000220: 39d5 07bc e3d1 183d f120 943d 42df 9fbc
00000230: 91d6 b1bd 05bd cebc 7348 043e 8a3d 2e3e
00000240: 9fed af3d 569c 90bd 7260 3ebd e9fa 9a3d
00000250: a516 9c3e f090 9fbc 04f4 593c 46fb 4ebe
00000260: 5130 56bc b3cf 52be 29f3 b4bc 2c31 353d
00000270: 28ed 18bd 3c1b 5b3e 5232 37bc 571c 32bd
00000280: 34ab 67bc c667 ddbb b544 e5bc 6852 1dba
00000290: 197a 6bbc fb3e 19bc 8d4b d1bb fc7a 47bc
000002a0: e0ed 0abc 30df 41bd da2b 5abd bbba 773c
000002b0: 9fbd 663d 3f8b 66be 4353 233b 8d83 053c
000002c0: a542 b83d f003 a33d d550 29bd 65ea 16bc
000002d0: 632a a4bd 16a4 9d3a 00fc 0a3e 6b52 093e
000002e0: 0112 7e3d 93cf f53d 1917 09be dc2c 863b
000002f0: 3ccb c0bd 51d2 24bc 6484 d23c 1d44 e7bd
00000300: f4d5 723d 39a9 883d 0ca5 d7bc 4b79 2f3d
00000310: ff57 9bbd 4bea 57bd 0028 01be 6eaf 42bd
00000320: a288 0bbc 11eb d73c c672 fc3c 90b9 ecbd
00000330: 4fad 2cbd cad2 fcbd 4033 bebb 48fa 28bc
00000340: ea59 28be cec4 8ebd 3ef5 f5bd afa5 eaba
00000350: d21c b5bc 3a7b ecbd 09a6 e4bc d6ad 19be
00000360: db94 12bd 32a6 3bbe fb6a 53bd 17d3 8bbd
00000370: b33c ff3c f571 823c 7a44 863d 5c14 943d
00000380: 7614 bbbb 3c80 4abe f5f9 14be fe44 ba3d
00000390: f4dc 743d bd22 0ebd dcbf 0a3d dd8c f4bd
000003a0: 74b8 883d 163a 303e d358 e8bc 2cd9 e63c
000003b0: 91e9 1a3d 12aa 0bbd a29b 1abd 2170 e2bc
000003c0: a224 ecbc d94d d8bc cd61 203c 59cf 24be
000003d0: d319 a83c a3c7 ba3c 508f d9bc 2e0e 7abc
000003e0: 8e77 543d b468 e13d 1f2e 69bd dd3b 8ebd
000003f0: e901 c33d 1df9 c53c d2dc 183e a1ca 97bd

encoder.embedding.bias f4 [16]
0.068299934 0.007867466 -0.006603858 -0.19987693 0.39354178 -0.28085575 -0.1046351 0.15112944
-0.0155227175 -0.039852094 0.06736043 0.021416178 0.09263288 0.2530637 0.16561948 -0.49017256
00000000: d6e0 8b3d 8be6 003c 2d65 d8bb 8aac 4cbe
00000010: 4f7e c93e 53cc 8fbe ed4a d6bd adc1 1a3e
00000020: ff52 7ebc f33b 23bd 44f4 893d fb70 af3c
00000030: 4fb6 bd3d 9191 813e 2798 293e e6f7 fabe

encoder.transformer_encoder.layers.0.self_attn.in_proj_weight f4 [48, 16]
0.13616781 -0.016593294 -0.28501186 0.008640865 0.05176258 -0.30204418 0.14955057 0.10131287
-0.019657 -0.043526817 0.041321333 0.09965167 0.06995336 -0.10862382 0.2970494 0.18551719
-0.049249 0.21464859 -0.08348293 -0.07899885 -0.025660302 0.034374107 -0.058312524 0.036090948
0.0047087707 0.21955869 0.04230336 0.048634302 0.18645796 -0.09089352 -0.13372086 0.049872406
-0.039377294 -0.12385764 -0.13366915 -0.17624743 -0.12862383 0.25764993 -0.031145763 0.0051813954
0.09631229 -0.16430932 -0.16923463 0.144406 -0.23251326 0.09934348 -0.0019393705 -0.015175056
0.23442666 -0.2303815 -0.06075047 -0.01475662 0.20714085 -0.17797382 0.12706856 0.2362832
-0.14750227 -0.12618385 0.011718672 -0.17528746 -0.114713155 -0.12009263 -0.12836374 0.013003655
0.26889655 -0.11093473 0.12216648 -0.054281365 0.22602494 0.14580974 -0.02006639 0.234704
-0.05833135 0.14838763 0.24272153 -0.19071044 0.17289802 -0.06966764 0.112662405 -0.053258743
-0.08429777 -0.14461151 -0.17161609 0.093046784 -0.13290453 0.18642165 0.064384304 -0.15824205
-0.14799345 0.08524264 -0.08281281 -0.0217019 0.15579727 0.112208985 -0.20063542 0.0036346666
-0.058669083 -0.11798736 -0.12168352 0.034723204 -0.112193316 -0.1973054 0.08351507 0.20828554
-0.14079444 -0.07209979 0.118468314 -0.00583852 0.0964809 0.056519665 0.07533218 0.20576085
0.043551426 -0.0920389 0.31347913 0.107899666 -0.045604773 0.09283909 -0.054571968 0.112200096
0.21858521 -0.15363589 0.25675687 0.114113435 0.32515356 0.20642523 0.09957762 -0.35498264
-0.09125241 0.044292282 -0.18273991 0.13740814 0.051219285 0.012426009 0.15029848 -0.14564209
0.025872007 0.18885385 -0.11531748 0.011281763 0.03896456 0.004761704 -0.16171484 0.22867712
-0.019270042 -0.09945299 -0.17834128 -0.094378166 0.1372937 -0.05769328 0.034284875 0.15908922
0.11963452 0.0069681522 -0.25265074 -0.07066208 0.2302178 -0.06506428 -0.18766624 0.066471815
0.20694277 0.15860675 -0.039370935 0.21739285 0.057924476 -0.0063765002 -0.16263467 -0.21058312
0.07968463 -0.07294652 -0.13644159 0.01627873 0.18719314 -0.14258 0.018014772 -0.011248496
-0.107563995 -0.026416957 -0.08899911 -0.24533041 -0.2122666 -0.16733913 -0.24828587 -0.022340318
-0.08356128 -0.21812545 -0.083183266 -0.027652653 0.06582289 -0.18730146 -0.027272653 -0.11122271
-0.15326011 0.18922909 -0.16384123 -0.005818462 0.0824727 -0.25285718 0.14464705 0.10785233
0.10774634 -0.08798371 0.008550766 -0.049805477 -0.08585527 0.019819012 -0.0036188862 0.05067833
-0.09769569 0.11110094 0.17798081 -0.19473691 0.179887 0.1687251 0.22995597 0.22183691
0.11781969 -0.0017814769 0.012845237 0.23789035 0.10313592 0.16516604 0.1511432 0.20875728
0.09658983 0.16811992 0.0911954 -0.13424361 -0.020531945 -0.034894526 -0.17954396 -0.051546566
-0.050096452 -0.10615503 0.044837955 0.09776767 0.14046796 0.11307636 0.21812674 0.071111225
-0.22059488 -0.06993791 0.21879755 0.1316579 0.24931979 0.10489155 -0.16107877 -0.15518293
0.16197738 0.11214044 0.15494438 -0.40782315 -0.07687145 0.20395355 -0.016560582 -0.24688046
00000000: 936f 0b3e a9ee 87bc 13ed 91be 6a92 0d3c
00000010: 0005 543d 89a5 9abe c923 193e 1f7d cf3d
00000020: b807 a1bc 2d49 32bd 8f40 293d 2d16 cc3d
00000030: b543 8f3d 2a76 debd dc16 983e 38f8 3d3e
00000040: 52b9 49bd d7cc 5b3e 19f9 aabd 26ca a1bd
00000050: 8e35 d2bc ddcb 0c3d 1dd9 6ebd 1ad4 133d
00000060: 084c 9a3b fed3 603e 4a46 2d3d c334 473d
00000070: d6ee 3e3e 6226 babd 1fee 08be 0247 4c3d
00000080: 164a 21bd 13a9 fdbd 91e0 08be 357a 34be
00000090: f7b5 03be b1ea 833e 6625 ffbc b2c8 a93b
000000a0: 613f c53d b440 28be d84b 2dbe 2bdf 133e
000000b0: f517 6ebe 9874 cb3d 7a32 feba cca0 78bc
000000c0: 8b0d 703e 21e9 6bbe 7cd5 78bd c0c5 71bc
000000d0: bb1c 543e c53e 36be 431e 023e 39f4 713e
000000e0: d60a 17be 5736 01be acff 3f3c 8e7e 33be
000000f0: bbee eabd 20f3 f5bd c971 03be 480d 553c
00000100: cfac 893e bf31 e3bd 6b32 fa3d 2356 5ebd
00000110: 1573 673e 264f 153e 4562 a4bc 3f56 703e
00000120: dbec 6ebd edf2 173e fe8b 783e 9949 43be
00000130: 2e0c 313e e8ad 8ebd 8cbb e63d d725 5abd
00000140: 4fa4 acbd 0a15 14be 21bc 2fbe 508f be3d
00000150: 2018 08be 51e5 3e3e ebdb 833d 340a 22be
00000160: 988b 17be b193 ae3d c399 a9bd 2fc8 b1bc
00000170: 5289 1f3e d3cd e53d 5f73 4dbe 9633 6e3b
00000180: fe4e 70bd 5ba3 f1bd 3635 f9bd eb39 0e3d
00000190: 9cc5 e5bd 6d0a 4abe f309 ab3d ce48 553e
000001a0: 6b2c 10be 0ea9 93bd 849f f23d 0e51 bfbb
000001b0: c797 c53d 2a81 673d c247 9a3d f9b2 523e
000001c0: fb62 323d e47e bcbd 5680 a03e 80fa dc3d
000001d0: 12cc 3abd 6c22 be3d db86 5fbd 2ac9 e53d
000001e0: cdd4 5f3e ba52 1dbe a375 833e 4eb4 e93d
000001f0: 877a a63e 2361 533e 5aef cb3d 49c0 b5be
00000200: 8be2 babd d36b 353d 2c20 3bbe b8b4 0c3e
00000210: 50cb 513d 7696 4b3c d8e7 193e 3323 15be
00000220: 88f1 d33c e762 413e 922b ecbd 25d7 383c
00000230: 4d99 1f3d 1108 9c3b 9398 25be 562a 6a3e
00000240: 35dc 9dbc 02ae cbbd 199f 36be 5749 c1bd
00000250: b896 0c3e ca4f 6cbd 4c6e 0c3d 49e8 223e
00000260: f102 f53d 1955 e43b 705b 81be 48b7 90bd
00000270: 37be 6b3e 6c40 85bd 942b 40be 6022 883d
00000280: cee8 533e cf69 223e 6b43 21bd 3b9c 5e3e
00000290: 3742 6d3d f6f1 d0bb b489 26be 1aa3 57be
000002a0: b231 a33d fc64 95bd 58b7 0bbe f95a 853c
000002b0: 8faf 3f3e 7e00 12be b793 933c 9d4b 38bc
000002c0: 834a dcbd 6068 d8bc 2a45 b6bd e537 7bbe
000002d0: 6a5c 59be f35a 2bbe a73e 7ebe 0b03 b7bc
000002e0: 2d22 abbd 475c 5fbe fd5b aabd d187 e2bc
000002f0: 27ce 863d f4cb 3fbe e66a dfbc bbc8 e3bd
00000300: 38f0 1cbe 45c5 413e ffc5 27be cca8 bebb
00000310: 72e7 a83d 7f76 81be 5b1e 143e afe1 dc3d
00000320: 1daa dc3d ce30 b4bd 8318 0c3c d400 4cbd
00000330: e3d4 afbd 7b5b a23c d62a 6dbb 1594 4f3d
00000340: ae14 c8bd e488 e33d 9a40 363e 1d69 47be
00000350: 4c34 383e 46c6 2c3e 9479 6b3e 3729 633e
00000360: 734b f13d 7280 e9ba d474 523c 8799 733e
00000370: ed38 d33d 4921 293e 48c5 1a3e 78c4 553e
00000380: e4d0 c53d a127 2c3e a7c4 ba3d 2877 09be
00000390: 9c32 a8bc 90ed 0ebd 5fda 37be 7e22 53bd
000003a0: f031 4dbd cf67 d9bd 01a8 373d 6b3a c83d
000003b0: d5d6 0f3e 9494 e73d 9e5c 5f3e c3a2 913d
000003c0: a0e3 61be 9b3b 8fbd 770c 603e 54d1 063e
000003d0: b04d 7f3e 62d1 d63d d5f1 24be 46e8 1ebe
000003e0: 66dd 253e e3a9 e53d bda9 1e3e 32ce d0be
000003f0: c76e 9dbd 33d9 503e 0faa 87bc 3bce 7cbe

encoder.transformer_encoder.layers.0.self_attn.in_proj_bias f4 [48]
0.02431808 0.0045693372 -0.00015182147 -0.05194065 -0.013685362 -0.1135465 0.03539137 0.21058312
-0.09525373 0.019296607 -0.029254286 0.014076442 -0.062070373 0.06697237 -0.028607477 0.1745978
-1.32115565e-05 -4.7400886e-06 8.127944e-06 -4.602172e-06 8.560044e-07 1.1719215e-05 1.4721918e-06 -2.6144458e-05
-2.1666578e-05 -5.027975e-05 4.877157e-05 -2.9304392e-06 -7.056703e-06 -1.5922915e-05 2.1097096e-06 1.0481982e-05
-0.0074368934 -0.053590573 -0.033694565 -0.04341952 0.02010079 0.054878112 0.043004226 -0.030411705
0.056140784 0.03841165 -0.000799848 -0.028323786 -0.011305659 -0.008474096 0.0080198115 -0.03799765
00000000: b636 c73c 61ba 953b 4432 1fb9 b8bf 54bd
00000010: 9238 60bc 118b e8bd 8bf6 103d 1aa3 573e
00000020: 6314 c3bd eb13 9e3c afa6 efbc e1a0 663c
00000030: 813d 7ebd cf28 893d 3a5a eabc c4c9 323e
00000040: 34a7 5db7 0d0d 9fb6 415d 0837 5b6c 9ab6
00000050: 2dc8 6535 a59d 4437 2098 c535 cc50 dbb7
00000060: 9fc0 b5b7 78e3 52b8 1390 4c38 90a8 44b6
00000070: 9ec8 ecb6 3392 85b7 8994 0d36 c5db 2f37
00000080: 2fb1 f3bb ca81 5bbd 5003 0abd abd8 31bd
00000090: 69aa a43c dfc7 603d 3325 303d f821 f9bc
000000a0: e1f3 653d 8955 1d3d e4ac 51ba 4907 e8bc
000000b0: 5f3b 39bc efd6 0abc 8765 033c 6da3 1bbd

encoder.transformer_encoder.layers.0.self_attn.out_proj.weight f4 [16, 16]
0.044219334 0.0455208 0.08850518 0.12978166 0.07362016 -0.118200906 0.06945916 0.07162069
0.11989529 -0.07082902 0.007081043 -0.19168913 0.2057222 0.11540439 -0.0021736154 -0.028625874
0.09199032 0.22433218 0.0685542 -0.021358455 0.04097268 0.07935313 -0.029724162 -0.11435354
-0.17514965 0.04396048 -0.1468727 0.05646743 -0.06936542 -0.1049756 0.009971495 -0.012215366
0.15149929 0.09020776 0.046143364 -0.13133422 0.08651988 0.12692083 0.13833782 -0.083142444
-0.066211395 0.21292807 -0.1117679 -0.079342395 -0.081776224 -0.109402075 0.03183335 0.09307839
0.06442647 0.026817895 0.08799342 -0.12251884 0.09403047 -0.005416862 0.06407495 0.22600704
0.01281789 0.063038 -0.040578976 -0.0855299 -0.040648405 0.21563384 -0.11694024 0.1483678
0.043761563 0.064829536 0.10515025 0.08492941 0.11928458 -0.06301409 0.14313024 -0.10015617
0.08675401 -0.14679365 -0.21051128 -0.15366738 0.08616853 0.1428178 -0.17393842 -0.029055854
-0.16470836 -0.16354445 0.02665778 0.100130275 0.13624965 -0.13137504 0.07155546 0.1484058
-0.2251612 -0.011666171 -0.041248564 0.0047379835 0.010090915 0.19171692 -0.09890163 -0.08215901
0.0716472 0.017488481 0.14142972 -0.07021627 -0.141045 -0.007949159 -0.15153983 0.032720342
0.0417235 0.075959206 0.05269226 0.008692348 0.09639474 0.009278384 -0.09311411 0.12698802
-0.07629997 -0.16969734 -0.14108458 -0.16251865 0.081973605 0.12910488 0.13689052 -0.16092668
0.24686772 -0.13674918 -0.048572857 -0.012930863 0.036039393 0.10513629 -0.1822596 0.007244102
-0.11080262 -0.19553111 -0.029145824 -0.07421553 0.07329091 -0.041281402 0.08896181 0.013202101
-0.18670464 0.17859846 0.12652883 0.02382715 -0.0042152936 -0.04610375 0.14986466 0.07944613
0.029335015 0.026496489 -0.019398477 0.13107063 0.03637446 -0.030097019 0.1846909 -0.071794115
-0.06994004 0.09463272 -0.06949102 -0.10809385 0.081002496 -0.028255794 -0.0045132767 -0.07760506
0.022789292 0.10985485 0.06539731 0.063608415 -0.12513559 -0.019037114 -0.07862103 0.1256786
-0.07915955 -0.0009816475 0.003961695 0.04610983 -0.13171719 -0.014507064 -0.04020421 -0.081676655
0.05680054 0.16866112 0.24809846 0.03796599 0.009774046 -0.17126192 -0.024621528 -0.04974234
-0.08829682 -0.0054740775 -0.046334863 0.04507835 -0.11473272 -0.19578566 0.0787074 -0.030885024
0.18804637 0.18421419 0.24119876 0.011694132 -0.024713976 -0.018702798 0.056492914 -0.13577533
0.023913192 0.03051264 -0.05166221 -0.1265249 0.04099304 0.016891995 0.003495317 0.112097695
-0.017828077 -0.16056749 -0.12353917 -0.09018833 0.0923773 -0.012904994 0.1811081 0.14224347
0.0222483 0.14677283 0.037032552 -0.124275185 -0.17643897 -0.10312465 0.20049486 -0.041596215
0.11931646 -0.025665304 -0.14924802 0.12982772 -0.23905781 0.028225023 -0.103965014 0.15727058
0.16790186 0.07339988 0.08686952 -0.15778579 -0.038530122 -0.040774923 0.1081181 -0.11672051
-0.0617684 0.046310823 -0.06915494 -0.07485519 -0.05366386 -0.006493084 -0.17086 0.14967377
0.0932179 -0.1010013 0.07178254 0.118703865 -0.005052147 0.0041559883 0.028517922 0.02871969
00000000: 551f 353d 0574 3a3d 3442 b53d 7ce5 043e
00000010: 2bc6 963d 5113 f2bd 9b40 8e3d dead 923d
00000020: a98b f53d ce0e 91bd 1808 e83b 284a 44be
00000030: d7a8 523e 2359 ec3d 3773 0ebb cf80 eabc
00000040: 6c65 bc3d 56b7 653e 2566 8c3d edf7 aebc
00000050: f8d2 273d e583 a23d 1680 f3bc 3032 eabd
00000060: 6e5a 33be e70f 343d cc65 16be 644a 673d
00000070: 750f 8ebd 73fd d6bd 7b5f 233c f522 48bc
00000080: a122 1b3e d9be b83d d300 3d3d 7a7c 06be
00000090: 5631 b13d 89f7 013e 6ea8 0d3e 9646 aabd
000000a0: d799 87bd d109 5a3e 92e6 e4bd 447e a2bd
000000b0: 4b7a a7bd 320e e0bd b063 023d e29f be3d
000000c0: 06f2 833d 34b1 db3c e535 b43d 28eb fabd
000000d0: 0c93 c03d ef7f b1bb ba39 833d 646e 673e
000000e0: 2102 523c 111a 813d 2436 26bd 4d2a afbd
000000f0: f17e 26bd 1ecf 5c3e 5d7e efbd bbed 173e
00000100: 533f 333d 59c5 843d 0459 d73d 78ef ad3d
00000110: 794b f43d 880d 81bd bc90 123e ae1e cdbd
00000120: 16ac b13d 1351 16be 4590 57be fb5a 1dbe
00000130: 2079 b03d d43e 123e ea1c 32be 8b06 eebc
00000140: 4fa9 28be 3278 27be 6b61 da3c 1a11 cd3d
00000150: 0785 0b3e 2e87 06be ab8b 923d b1f7 173e
00000160: a890 66be 7823 3fbc 41f4 28bd 1641 9b3b
00000170: 5d54 253c 7151 443e f08c cabd fc42 a8bd
00000180: c4bb 923d 0144 8f3c f4d2 103e 8ccd 8fbd
00000190: 1a6e 10be 303d 02bc 422d 1bbe c405 063d
000001a0: 43e6 2a3d 8090 9b3d d7d3 573d 5a6a 0e3c
000001b0: 9b6a c53d 5d04 183c 9cb2 bebd 2609 023e
000001c0: 2943 9cbd 24c5 2dbe 7a78 10be 4a6b 26be
000001d0: c7e1 a73d 1234 043e 072d 0c3e f7c9 24be
000001e0: e4ca 7c3e fa07 0cbe 55f4 46bd f8db 53bc
000001f0: 0b9e 133d b251 d73d 43a2 3abe ef5f ed3b
00000200: 7cec e2bd 4f39 48be 39c3 eebc 50fe 97bd
00000210: 8b19 963d b016 29bd 9c31 b63d a04d 583c
00000220: 802f 3fbe 84e2 363e c690 013e 2831 c33c
00000230: 7220 8abb 49d7 3cbd 1f76 193e a7b4 a23d
00000240: fc4f f03c 2a0f d93c 8ee9 9ebc 6137 063e
00000250: 63fd 143d 068e f6bc 9c1f 3d3e cb08 93bd
00000260: b93c 8fbd cdce c13d 4f51 8ebd 4f60 ddbd
00000270: a3e4 a53d b278 e7bc 1ce4 93bb 67ef 9ebd
00000280: 9cb0 ba3c 94fb e03d 06ef 853d 2145 823d
00000290: 8b23 00be b9f3 9bbc 1004 a1bd e4b1 003e
000002a0: 671e a2bd a0aa 80ba 1bd1 813b a9dd 3c3d
000002b0: dfe0 06be 09af 6dbc 2bad 24bd 1746 a7bd
000002c0: afa7 683d 80b5 2c3e 860d 7e3e 3a82 1b3d
000002d0: 5223 203c 495f 2fbe 16b3 c9bc a0be 4bbd
000002e0: f7d4 b4bd e45f b3bb a0c9 3dbd 13a4 383d
000002f0: fdf8 eabd 097c 48be 5831 a13d 9702 fdbc
00000300: 3a8f 403e a5a2 3c3e cffc 763e bf98 3f3c
00000310: f774 cabc 9c36 99bc 1d65 673d b008 0bbe
00000320: 99e5 c33c a5f5 f93c c19b 53bd be8f 01be
00000330: 51e8 273d 1561 8a3c b011 653b 7a93 e53d
00000340: 300c 92bc ce6b 24be 1b02 fdbd a9b4 b8bd
00000350: 4f30 bd3d 786f 53bc 6774 393e 46a8 113e
00000360: 1142 b63c 9e4b 163e 72af 173d fd83 febd
00000370: 6bac 34be 0433 d3bd 864e 4d3e cb60 2abd
00000380: 305c f43d 0b40 d2bc 79d4 18be 8ff1 043e
00000390: 92cb 74be 2a38 e73c 9ceb d4bd 8a0b 213e
000003a0: 77ee 2b3e ad52 963d a6e8 b13d 9992 21be
000003b0: c3d1 1dbd 9b03 27bd 066d dd3d 2a0b efbd
000003c0: dd00 7dbd 6bb0 3d3d 1ba1 8dbd ae4d 99bd
000003d0: a3ce 5bbd f0c3 d4bb edf5 2ebe 1544 193e
000003e0: 07e9 be3d c5d9 cebd b902 933d 031b f33d
000003f0: 7b8c a5bb f52e 883b 6b9e e93c 8e45 eb3c

encoder.transformer_encoder.layers.0.self_attn.out_proj.bias f4 [16]
-0.025880702 -0.037904482 0.0217325 -0.007095555 0.03357734 -0.034883913 -0.013755344 0.07204592
0.005513737 -0.00094541704 -0.025831819 0.012006446 0.02000893 0.0523279 0.01602724 -0.041472875
00000000: c403 d4bc bb41 1bbd 5b08 b23c d481 e8bb
00000010: 6588 093d 6fe2 0ebd 185e 61bc d08c 933d
00000020: 94ac b43b ddd5 77ba 409d d3bc afb6 443c
00000030: c4e9 a33c c855 563d 8f4b 833c 76df 29bd

encoder.transformer_encoder.layers.0.linear1.weight f4 [128, 16]
-0.038887206 0.10718886 0.04735384 0.07702019 0.045481686 -0.038091503 0.046317164 0.06654167
0.012856941 0.0845356 0.0007194128 0.12605457 -0.0073799766 0.12787741 0.0657531 -0.040049944
0.14945652 0.0028368689 0.12559704 0.16152363 0.10744519 0.15518008 0.04993104 0.005405016
0.07564661 0.13540106 0.0022464725 0.010128573 -0.06437533 0.12927243 -0.030292189 -0.028122466
-0.20823102 -0.07811996 0.033982642 0.15196553 -0.14238258 0.1081757 -0.044349782 -0.12902299
0.010026909 0.035619464 0.08830398 0.17874634 -0.22340441 0.14092265 -0.038939472 0.074249655
0.109500915 0.07886183 0.12447115 0.053493883 0.052286185 0.12648417 0.101523384 -0.13114193
-0.11394144 -0.13615648 -0.11693878 -0.1818009 0.059352435 0.018405532 -0.0695793 0.1451406
0.074697345 0.15176627 0.2081116 0.13731016 -0.17486191 0.109225355 0.086107284 -0.08731084
-0.10479507 -0.017418161 -0.14001411 -0.07647585 -0.110823564 0.1059397 0.12143538 0.05303756
-0.05294341 -0.060628567 0.0034713398 -0.12875864 -0.03585594 -0.1340052 0.12159938 -0.15921484
0.027430568 -0.0032392698 -0.07881711 -0.062009398 -0.21753278 -0.07914322 -0.19395608 0.008398245
-0.015163388 -0.066032626 -0.111057065 -0.019248936 0.08607554 0.17158484 -0.07620738 0.03432647
-0.027523005 -0.12032328 -0.033218186 0.06528147 0.1297408 0.062205307 -0.040138554 0.15234624
0.03300304 0.022322029 -0.0830258 0.04894904 0.027972724 0.039183892 0.07470759 0.028847579
0.02519339 -0.11841804 0.046327535 -0.070986405 -0.0060094898 0.010158508 0.015801776 0.087072395
0.06802213 -0.1934021 -0.017131003 -0.01699131 -0.20341337 0.018457875 -0.052349433 0.06925061
-0.16456744 -0.012338573 0.07719602 -0.031351592 -0.16134351 -0.15924197 0.03518202 -0.053450268
0.027908135 0.00015236826 -0.044547535 -0.00023821145 0.011756638 0.0246148 -0.003464541 0.11556862
0.01879886 0.053810287 0.13131556 0.18796994 0.01989649 0.08696284 0.07700513 -0.058155242
-0.12999766 0.11294079 -0.01868071 -0.12125339 -0.22512774 0.18321869 -0.042400356 0.059144117
-0.08344229 0.2232002 0.071892574 0.1740931 0.11693328 0.060557414 -0.14482528 0.07792849
0.08894565 0.009005296 0.0029951436 0.10264921 -0.21634711 0.08963756 0.1893903 -0.010990676
0.008725891 -0.15934277 -0.14304124 -0.083299816 0.08800591 -0.053380296 -0.055734977 0.26070285
0.08616895 -0.09592449 -0.099758066 -0.013747942 -0.070026524 -0.18726103 0.14647204 -0.05392901
-0.14152995 -0.042443942 -0.12943815 -0.03805387 0.00059319916 -0.24752145 -0.10485357 0.08830033
-0.12404355 0.15759784 -6.527168e-05 -0.08396999 -0.12621516 0.1807664 0.026901305 0.008828478
-0.09508813 -0.20110458 0.0753703 -0.09595485 -0.15093423 -0.0038549344 -0.0029019322 0.05011615
-0.016793512 0.037080456 0.11267309 0.13393354 -0.04497563 0.06142406 0.17978074 -0.17451546
-0.13216405 0.10083144 -0.023816986 0.072354786 -0.03841831 0.13544875 -0.03262436 0.15686949
-0.050364062 0.076936804 0.050952233 0.06814607 0.023237446 -0.16212112 0.12153706 0.2122152
-0.039197844 0.076737545 -0.22715038 0.27696478 0.19962655 0.03280371 0.14257841 -0.17240877
00000000: 3148 1fbd d585 db3d 1af6 413d c3bc 9d3d
00000010: 014b 3a3d d605 1cbd 11b7 3d3d 0047 883d
00000020: eba5 523c 0021 ad3d fa96 3c3a 7314 013e
00000030: bbd3 f1bb 4cf2 023e 90a9 863d 690b 24bd
00000040: 210b 193e c3ea 393b 839c 003e 7366 253e
00000050: 390c dc3d 87e7 1e3e 7d84 4c3d 8f1c b13b
00000060: 9cec 9a3d 93a6 0a3e 8e39 133b 50f2 253c
00000070: 37d7 83bd fe5f 043e 5327 f8bc 1661 e6bc
00000080: 833a 55be 5cfd 9fbd 6231 0b3d da9c 1b3e
00000090: bdcc 11be 398b dd3d 1ea8 35bd 9a1e 04be
000000a0: e847 243c b7e5 113d b8d8 b43d 4809 373e
000000b0: 20c4 64be 074e 103e ff7e 1fbd 3410 983d
000000c0: 0442 e03d 5082 a13d bbea fe3d 671c 5b3d
000000d0: 0a2a 563d 1185 013e 7eeb cf3d 124a 06be
000000e0: 215a e9bd 9b6c 0bbe 997d efbd 042a 3abe
000000f0: 8a1b 733d 33c7 963c 987f 8ebd bd9f 143e
00000100: ecfa 983d 9e68 1b3e 351b 553e 099b 0c3e
00000110: 000f 33be 8bb1 df3d 0459 b03d 07d0 b2bd
00000120: cc9e d6bd 88b0 8ebc dc5f 0fbe 5f9f 9cbd
00000130: 77f7 e2bd eaf6 d83d 1db3 f83d ea3d 593d
00000140: 30db 58bd a955 78bd 6b7f 633b 4ed9 03be
00000150: aedd 12bd a938 09be 1909 f93d 3709 23be
00000160: 12b6 e03c ee49 54bb dd6a a1bd 91fd 7dbd
00000170: eac0 5ebe d715 a2bd 6c9c 46be cb98 093c
00000180: dc6f 78bc 1d3c 87bd e371 e3bd f2af 9dbc
00000190: 5f48 b03d f0b3 2f3e 9d12 9cbd ea99 0c3d
000001a0: ed77 e1bc 0d6c f6bd cb0f 08bd 4bb2 853d
000001b0: c6da 043e feca 7e3d 5368 24bd a700 1c3e
000001c0: 322e 073d b0dc b63c 6e09 aabd ca7e 483d
000001d0: 0e27 e53c 4a7f 203d 4b00 993d c251 ec3c
000001e0: 5e62 ce3c 2885 f2bd f1c1 3d3d 5261 91bd
000001f0: 41eb c4bb df6f 263c ba72 813c 0353 b23d
00000200: 304f 8b3d 330b 46be 5156 8cbc 5c31 8bbc
00000210: 984b 50be f834 973c 5c6c 56bd 44d3 8d3d
00000220: 5e84 28be ba27 4abc f218 9e3d 876a 00bd
00000230: 3c37 25be 5410 23be 061b 103d abee 5abd
00000240: 9a9f e43c 0bc5 1f39 7a77 36bd 66c8 79b9
00000250: ea9e 403c faa4 c93c 5a0d 63bb 3eaf ec3d
00000260: 1100 9a3c 2d68 5c3d 9677 063e 317b 403e
00000270: f7fd a23c 9319 b23d deb4 9d3d 3134 6ebd
00000280: 1b1e 05be 804d e73d 4a08 99bc b353 f8bd
00000290: e387 66be ae9d 3b3e ffab 2dbd 1a41 723d
000002a0: cbe3 aabd 988e 643e 6a3c 933d 7645 323e
000002b0: b77a ef3d 0d0b 783d 144d 14be f998 9f3d
000002c0: 2329 b63d f38a 133c 2c4a 443b c039 d23d
000002d0: 198a 5dbe e693 b73d 88ef 413e 3c12 34bc
000002e0: 0af7 0e3c c02a 23be 6779 12be 1899 aabd
000002f0: 713c b43d 4ca5 5abd 5c4a 64bd d87a 853e
00000300: 5979 b03d 0f74 c4bd f54d ccbd 0c3f 61bc
00000310: 116a 8fbd 5bc1 3fbe c4fc 153e aae4 5cbd
00000320: 3aed 10be b3d9 2dbd 6f8b 04be 60de 1bbd
00000330: ec80 1b3a 4376 7dbe 78bd d6bd ced6 b43d
00000340: 8b0a febd 5461 213e 77e2 88b8 75f8 abbd
00000350: 8c3e 01be d41a 393e 2060 dc3c 52a5 103c
00000360: 91bd c2bd 5cee 4dbe be5b 9a3d fa83 c4bd
00000370: 818e 1abe 11a3 7cbb 582e 3ebb 9846 4d3d
00000380: 8c92 89bc ade1 173d 26c1 e63d e025 093e
00000390: 5e38 38bd cc97 7b3d 7118 383e 2eb4 32be
000003a0: 0356 07be b780 ce3d d71b c3bc bf2e 943d
000003b0: 855c 1dbd 14b3 0a3e 1fa1 05bd 65a2 203e
000003c0: 8c4a 4ebd 0b91 9d3d 4ab3 503d 2b90 8b3d
000003d0: 755c be3c 1403 26be 6ce8 f83d f14e 593e
000003e0: eb8d 20bd 9328 9d3d 1c9a 68be 54ce 8d3e
000003f0: e76a 4c3e 2f5d 063d 1300 123e ed8b 30be

encoder.transformer_encoder.layers.0.linear1.bias f4 [128]
0.03542387 -0.18268815 0.16783507 0.12763305 -0.13644664 -0.035336025 0.089041844 -0.011797792
-0.3046336 0.06025526 -0.14030692 0.1863878 -0.1677879 0.088069096 0.0047755507 -0.19772777
-0.101554014 -0.09554965 -0.26981127 -0.044507787 -0.05898436 0.025497431 -0.053139873 -0.10549725
-0.2787064 -0.124343164 -0.19548129 -0.24110988 -0.055124152 -0.23281315 0.08398094 -0.0007558227
-0.26193005 0.011159709 0.057276968 -0.24797392 -0.14048076 0.015239044 -0.2186873 0.14738393
-0.2524264 -0.2524512 -0.10813567 -0.0359787 -0.24141724 -0.033112485 -0.27192286 0.026397558
0.07221397 -0.25910613 -0.12392551 -0.23520312 -0.2215284 -0.10207837 -0.15728536 0.09249086
-0.07053991 0.19948065 -0.13736792 0.085738584 -0.06927323 0.0046369764 -0.27606463 -0.18281212
-0.1522251 -0.11009576 0.10471144 -0.29239354 -0.20904997 0.020000415 -0.20429507 0.15022196
0.06148461 -0.008478872 -0.20065646 -0.060511302 0.049430244 0.100854896 -0.09213117 -0.26960462
0.05174368 -0.055620022 0.08701339 -0.26058388 -0.3024234 0.007538185 -0.042523474 -0.028579038
0.15995558 -0.045104213 -0.24424048 -0.01774631 -0.23386337 -0.05046073 -0.19677174 -0.022290776
-0.2078947 0.08039612 -0.22599806 -0.0335517 0.07030358 0.070371136 -0.061275877 -0.1456615
-0.15097891 0.12271547 -0.23905632 0.07913648 -0.1383539 -0.10525309 -0.04458354 -0.027741197
0.22738752 -0.012265441 0.06710098 0.122078806 -0.22208099 0.22866628 -0.087379724 -0.08584871
-0.19163059 -0.2775058 0.06613266 -0.15163289 -0.15408516 -0.21416545 -0.21417302 -0.023370998
00000000: 9f18 113d 9a12 3bbe f5dc 2b3e 3db2 023e
00000010: abb8 0bbe 82bc 10bd 925b b63d 874b 41bc
00000020: eff8 9bbe 38ce 763d 9eac 0fbe 72dc 3e3e
00000030: 97d0 2bbe 925d b43d 397c 9c3b 2679 4abe
00000040: 8dfb cfbd 89af c3bd b424 8abe cc4d 36bd
00000050: 9699 71bd fddf d03c 32a9 59bd f10e d8bd
00000060: 9bb2 8ebe a1a7 febd 3f2c 48be 82e5 76be
00000070: ddc9 61bd 9266 6ebe 33fe ab3d 6722 46ba
00000080: b21b 86be 36d7 363c 419b 6a3d e0ec 7dbe
00000090: 30da 0fbe 2fad 793c 90ef 5fbe d0eb 163e
000000a0: 083e 81be 4941 81be 3c76 ddbd 675e 13bd
000000b0: 1536 77be f5a0 07bd 7939 8bbe b13f d83c
000000c0: ebe4 933d 8fa9 84be a8cc fdbd 16d9 70be
000000d0: 57d8 62be 770e d1bd 6a0f 21be d96b bd3d
000000e0: 3a77 90bd a844 4c3e 2daa 0cbe b697 af3d
000000f0: 20df 8dbd c7f1 973b 5858 8dbe 1a33 3bbe
00000100: e6e0 1bbe e379 e1bd f472 d63d 9bb4 95be
00000110: 3211 56be e9d7 a33c ba32 51be c9d3 193e
00000120: 49d7 7b3d f7ea 0abc e378 4dbe b3da 77bd
00000130: 5e77 4a3d 038d ce3d 44af bcbd 9e09 8abe
00000140: 2ef1 533d d2d1 63bd 1434 b23d 406b 85be
00000150: 3dd7 9abe e102 f73b 182d 2ebd 961e eabc
00000160: 65cb 233e 32bf 38bd 2d1a 7abe b660 91bc
00000170: e179 6fbe e9af 4ebd 887e 49be 259b b6bc
00000180: 59e2 54be b9a6 a43d 096c 67be 826d 09bd
00000190: 53fb 8f3d be1e 903d 6afc 7abd 4a28 15be
000001a0: 379a 1abe 4052 fb3d 2ecb 74be 4f12 a23d
000001b0: a5ac 0dbe ef8e d7bd 3b9d 36bd 8241 e3bc
000001c0: 46d8 683e fdf4 48bc 3d6c 893d 7404 fa3d
000001d0: 3369 63be 7e27 6a3e 24f4 b2bd 73d1 afbd
000001e0: cf3a 44be 3d15 8ebe 8f70 873d a745 1bbe
000001f0: 80c8 1dbe 304e 5bbe 2c50 5bbe 8974 bfbc

encoder.transformer_encoder.layers.0.linear2.weight f4 [16, 128]
0.0111973435 0.007618097 -0.007861343 -0.025333399 -0.010255254 0.01602308 -0.003967708 0.04183394
0.010205222 -0.014813163 -0.012463277 0.025563406 0.00855689 0.013257731 -0.0122185955 -0.008830518
-0.005925958 -0.01125021 -0.009578476 0.01776239 -0.0018362692 -0.007812376 0.0016801844 -0.0025722047
0.02847682 -0.008383348 0.030341895 0.020885533 -0.0012304406 -0.0033643225 0.0111361295 -0.0024378072
0.010272521 -0.008910242 -0.018148437 0.005984094 0.0072356462 0.022620447 -0.0042025303 0.03735194
0.0017323745 0.03999605 -0.015364621 0.018238213 0.00498598 -0.026556876 0.021748839 -0.014345672
0.013864732 0.000862402 -0.01815053 -0.024667548 -0.033657216 -0.051710602 -0.033048823 -0.056042068
-0.0073423577 0.03785587 0.040211115 0.018787002 0.01291017 0.0031134915 0.022036558 0.027998442
0.0038395324 -0.0036151626 0.0009418052 0.006384287 0.042347368 0.017355116 0.009325921 0.0075484994
-0.025387637 -0.011527697 -0.009001059 -0.0022474302 -0.024878968 -0.017337766 -0.026335733 -0.009758153
0.013777579 0.015810324 -0.002231599 -0.018998265 0.010777667 0.029816149 -0.0055979127 -0.005769553
-0.010780187 -0.024297217 -0.04065327 -0.005332667 0.019718293 0.02696269 0.013901696 -0.0099284
-0.026489895 0.024618903 0.004103496 -0.03711582 -0.0071944008 0.0073683723 0.010159781 -0.0012815297
0.03288512 -0.0009883717 0.027935505 0.0037695465 -0.014268691 -0.0057341754 0.02007171 0.016288817
-0.030890217 -0.0100122355 0.019993547 0.019085195 -0.00048005482 0.04232341 0.000808953 0.0020215132
0.0027573875 0.04967738 0.0020922052 0.005148716 0.0013986602 -0.0005130246 0.02167163 0.0012654038
-0.005508515 -0.06624743 -0.014837981 -0.0379486 0.009621596 -0.011544469 -0.008274958 -0.0043423227
0.025007175 -0.012611195 0.010943258 0.025936 -0.008115558 0.017096154 0.0053722505 0.00772011
0.015592476 -0.0017904835 0.0019023158 0.015288181 0.0055000056 -0.0042466978 0.009734428 -0.0072442153
-0.017214227 -0.038311455 0.012387704 0.021181144 0.016533284 0.0041312086 -0.012100134 -0.0035375818
-0.029547304 -0.008417304 -0.031814203 0.0014876531 -0.0010286308 -0.007316186 -0.01598307 -0.008998286
-0.010878945 0.007975067 -0.0016058662 0.0006131669 -0.014349619 0.016229868 0.016887471 0.013996929
0.026660359 -0.022017442 0.011077376 -0.008566747 -0.014823076 -0.003942493 -0.012075148 -0.01467557
0.011417686 0.015097606 0.033185903 0.0044294745 -0.0038124397 -0.008760566 0.0033498397 0.0058084847
-0.0016471333 -0.002842774 -0.027747486 0.004892463 0.003213596 -0.011550413 -0.012020924 -0.00046409038
-2.0178712e-05 -0.0030910983 0.01091183 0.006509028 -0.0050914767 -0.006793059 0.015394106 -0.020043857
-0.011407193 0.015766622 -0.01449272 0.0061435727 -0.010996331 0.008579235 -0.0030418928 -0.030005472
-0.02897744 -0.03283029 0.005204688 -0.014945926 -0.00914913 -0.024822578 0.010494213 -0.017136406
0.016754294 0.015319511 0.010979044 -0.0034802658 -0.0012181 0.0047889785 0.021357946 0.0065228483
0.006693452 -0.020452475 -0.03093094 -0.029097527 -0.019900506 -0.007790954 -0.0004143736 -0.0023084118
0.061634738 -0.0026813715 0.018801339 0.021914987 0.003933791 0.034902226 0.015439589 0.0124217495
-0.0029447065 -0.047085572 0.012104189 -0.008511176 0.00075416174 -0.000546164 0.009286692 0.0047903094
00000000: 1075 373c 3ba1 f93b ddcc 00bc fd87 cfbc
00000010: a705 28bc d642 833c 8c03 82bb 115a 2b3d
00000020: ce33 273c e9b2 72bc c632 4cbc 596a d13c
00000030: 3332 0c3c f436 593c 8130 48bc e1ad 10bc
00000040: 8a2e c2bb cd52 38bc 0aef 1cbc 6f82 913c
00000050: f8ae f0ba f6fe ffbb a239 dc3a 6f92 28bb
00000060: 3848 e93c 4f5a 09bc 918f f83c 2318 ab3c
00000070: bc46 a1ba f77b 5cbb 5074 363c 9ec3 1fbb
00000080: 134e 283c 43fc 11bc 08ac 94bc 3816 c43b
00000090: 0019 ed3b 844e b93c 61b5 89bb 59fe 183d
000000a0: d810 e33a e6d2 233d e4bb 7bbc 4e68 953c
000000b0: 6f61 a33b ce8d d9bc 9f2a b23c 1c0a 6bbc
000000c0: e728 633c d212 623a 6cb0 94bc 9913 cabc
000000d0: 26dc 09bd 7fce 53bd 345e 07bd 5e8c 65bd
000000e0: 2998 f0bb c20e 1b3d 69b4 243d 33e7 993c
000000f0: 2d85 533c b80b 4c3b 0386 b43c fd5c e53c
00000100: aaa0 7b3b 5dec 6cbb 7ae3 763a 4833 d13b
00000110: 6f74 2d3d 512c 8e3c bfcb 183c 6759 f73b
00000120: bcf9 cfbc aade 3cbc 2e79 13bc 9f49 13bb
00000130: face cbbc ee07 8ebc 09be d7bc a9e0 1fbc
00000140: 5bbb 613c a784 813c 0540 12bb 40a2 9bbc
00000150: d094 303c ff40 f43c b26e b7bb 850e bdbb
00000160: 629f 30bc f50a c7bc 0b84 26bd a7bd aebb
00000170: 4288 a13c dce0 dc3c f0c3 633c baaa 22bc
00000180: 5601 d9bc 95ad c93c 9f76 863b c206 18bd
00000190: 02bf ebbb 6372 f13b 3675 263c 00f9 a7ba
000001a0: 8cb2 063d 408c 81ba 00d9 e43c 7f0a 773b
000001b0: 3ac7 69bc c0e5 bbbb 6d6d a43c 2070 853c
000001c0: 7b0d fdbc 5c0a 24bc 82c9 a33c 8e58 9c3c
000001d0: deaf fbb9 505b 2d3d eb0f 543a 5d7b 043b
000001e0: 49b5 343b 827a 4b3d 611d 093b 8fb6 a83b
000001f0: 4053 b73a 807c 06ba b488 b13c e8db a53a
00000200: c680 b4bb bcac 87bd 011b 73bc fe6f 1bbd
00000210: e6a3 1d3c 0325 3dbc b093 07bc 0b4a 8ebb
00000220: d9db cc3c 309f 4ebc 5a4b 333c bc77 d43c
00000230: 1ef7 04bc 3c0d 8c3c b409 b03b faf8 fc3b
00000240: 9677 7f3c a8ae eaba 2057 f93a 477b 7a3c
00000250: 6439 b43b e227 8bbb 267d 1f3c e260 edbb
00000260: da04 8dbc 79ec 1cbd ccf5 4a3c 1484 ad3c
00000270: cf70 873c 175f 873b a43f 46bc c6d6 67bb
00000280: 300d f2bc bbe8 09bc 9c4f 02bd 5bfd c23a
00000290: 1fd3 86ba 9ebc efbb edee 82bc 8c6d 13bc
000002a0: 9a3d 32bc dba9 023c ee7b d2ba efbc 203a
000002b0: aa1a 6bbc 80f4 843c 9857 8a3c 6053 653c
000002c0: d366 da3c ec5d b4bc e27d 353c 8b5b 0cbc
000002d0: 7ddc 72bc 0730 81bb d7d6 45bc cd71 70bc
000002e0: 3f11 3b3c f35b 773c f1ed 073d 2025 913b
000002f0: 20da 79bb 7a88 0fbc fc88 5b3b 1a55 be3b
00000300: 9fe4 d7ba d54d 3abb b24e e3bc f450 a03b
00000310: 329b 523b f23d 3dbc 69f3 44bc 2851 f3b9
00000320: 7445 a9b7 0694 4abb 88c7 323c af49 d53b
00000330: 67d6 a6bb 4f98 debb 8f37 7c3c 0433 a4bc
00000340: 3ce5 3abc 0129 813c e072 6dbc 0650 c93b
00000350: f529 34bc eb8f 0c3c 7e5a 47bb 09ce f5bc
00000360: 1962 edbc 0e79 06bd 168c aa3b c2df 74bc
00000370: 3ce6 15bc b858 cbbc ebef 2b3c a661 8cbc
00000380: 4d40 893c b0fe 7a3c 73e1 333c 2c15 64bb
00000390: a7a8 9fba ddec 9c3b dcf6 ae3c 9ebd d53b
000003a0: bf54 db3b f38b a7bc e262 fdbc f05d eebc
000003b0: 6306 a3bc 424b ffbb 4840 d9b9 b948 17bb
000003c0: b574 7c3d f3b9 2fbb 4405 9a3c 0f87 b33c
000003d0: 08e7 803b a3f5 0e3d 54f6 7c3c 9884 4b3c
000003e0: fafb 40bb cddc 40bd a650 463c 7672 0bbc
000003f0: f0b2 453a 722c 0fba 3627 183c 07f8 9c3b

encoder.transformer_encoder.layers.0.linear2.bias f4 [16]
-0.014491453 0.01295706 0.041006472 0.029582322 -0.0629809 -0.039474845 0.023431256 0.041540667
0.0034556303 -0.012642318 0.008970947 -0.0027915053 -0.029986523 -0.006852732 -0.055897262 -0.022096585
00000000: 8f6d 6dbc d949 543c 67f6 273d a056 f23c
00000010: 21fc 80bd 60b0 21bd e8f2 bf3c 8c26 2a3d
00000020: db77 623b ba21 4fbc e1fa 123c b0f1 36bb
00000030: 4ca6 f5bc e28c e0bb 87f4 64bd e603 b5bc

encoder.transformer_encoder.layers.0.norm1.weight f4 [16]
0.94527507 0.980321 0.9273194 0.9555508 1.0431128 1.0480667 0.93593705 1.0021455
0.96724004 1.0170025 1.0006037 0.9839291 0.9849618 1.0144286 0.98421556 1.1684576
00000000: 8cfd 713f 51f6 7a3f ce64 6d3f fa9e 743f
00000010: b884 853f 0d27 863f 9299 6f3f 4e46 803f
00000020: 0b9d 773f 232d 823f c813 803f c7e2 7b3f
00000030: 7526 7c3f ccd8 813f 8df5 7b3f 0590 953f

encoder.transformer_encoder.layers.0.norm1.bias f4 [16]
0.0020418742 0.046080824 0.026170278 -0.028541125 0.016947724 -0.019824667 0.014271713 -0.05195419
-0.011967241 0.0021749968 0.04282232 -0.016131295 0.011760446 -0.06643347 0.021689449 -0.011079446
00000000: f7d0 053b 3fbf 3c3d 0d63 d63c 14cf e9bc
00000010: f4d5 8a3c 5767 a2bc e7d3 693c ebcd 54bd
00000020: 3f12 44bc 648a 0e3b 7566 2f3d c725 84bc
00000030: e3ae 403c 450e 88bd 12ae b13c 9186 35bc

encoder.transformer_encoder.layers.0.norm2.weight f4 [16]
0.9161831 0.9855729 0.94438356 0.97866714 1.033763 1.0281832 0.95568204 0.9768819
0.95041937 0.99220085 1.0112895 0.96515644 0.94744813 0.99929935 0.99352294 1.1121737
00000000: fa8a 6a3f 814e 7c3f 1fc3 713f ee89 7a3f
00000010: 5952 843f 829b 833f 94a7 743f ef14 7a3f
00000020: af4e 733f e000 7e3f ef71 813f 7e14 773f
00000030: f68b 723f 15d2 7f3f 8557 7e3f b55b 8e3f

encoder.transformer_encoder.layers.0.norm2.bias f4 [16]
0.0070733754 0.05801591 0.020208837 -0.023837205 0.03728608 -0.012175558 0.007832934 -0.054047477
-0.010821488 0.00075018755 0.047028832 -0.01105632 0.015314908 -0.06129358 0.029778104 -0.009498949
00000000: c6c7 e73b 17a2 6d3d 018d a53c 3e46 c3bc
00000010: 4ab9 183d fe7b 47bc b555 003c e360 5dbd
00000020: 9c4c 31bc 3ca8 443a 4ea1 403d 9125 35bc
00000030: 61eb 7a3c fa0e 7bbd 36f1 f33c 7ba1 1bbc

encoder.transformer_encoder.layers.1.self_attn.in_proj_weight f4 [48, 16]
0.1485459 -0.026192836 -0.18360497 0.023176108 0.03896812 -0.14862041 0.22011806 0.10295288
-0.037322305 -0.04407623 -0.018574473 0.09314181 0.011568954 -0.19495744 0.16934794 0.26319423
-0.0821697 0.22175704 0.025674712 -0.13614476 0.073124446 0.1578213 0.035610706 -0.035624783
0.014889756 0.1879386 0.000868736 0.050126683 0.099215284 -0.10610372 -0.22469479 -0.01717643
-0.11576848 0.08639457 -0.0583725 -0.07389637 -0.1538325 0.073322035 -0.06786304 -0.14111683
0.089232735 -0.082158625 -0.07583512 0.088410586 -0.1018694 0.09870531 -0.003786232 0.059472527
0.16511719 -0.22505148 -0.04652759 0.032680098 0.03852807 -0.21530318 0.097367376 0.029027505
-0.1752657 -0.13435504 0.060353283 -0.20321852 -0.013603795 -0.16313367 0.010888929 0.034931164
0.11279144 -0.19182102 0.17028767 -0.04426482 0.11447017 0.14661092 -0.049128585 0.10406862
-0.15417175 0.044271927 0.18674454 -0.16335064 0.2162732 -0.009070951 0.07573614 0.034952406
-0.109894894 -0.0933975 -0.0368761 -0.0028013047 -0.08283844 0.0026835145 -0.115363434 -0.04555056
-0.15397795 0.08306918 -0.095421195 -0.022740679 0.13862163 0.139217 -0.15613851 -0.087221056
-0.053182773 -0.019796118 -0.19094035 0.024008602 -0.099105105 -0.08751312 0.08203314 0.2523089
-0.10687551 -0.02802403 -0.08396021 0.0028282867 -0.0014106143 -0.09336909 0.043723084 0.10559128
0.15158257 -0.09673488 0.32982424 0.074609965 -0.07538265 0.012597483 -0.07706527 0.15085696
0.10642411 -0.012017846 0.22336473 0.050978534 0.17787516 0.01933359 0.14647773 -0.24140042
-0.0277827 0.2148806 -0.09484468 0.16394351 0.07467031 -0.070430055 0.18093237 -0.098709956
-0.0008847463 0.14149994 -0.04648385 0.027157754 0.005500465 -0.020772342 -0.05487571 0.2637044
0.03630228 -0.009593793 -0.112725295 -0.0695497 0.16059527 -0.12119926 0.04817198 0.051743504
0.07765672 0.1626802 -0.2443694 0.052062698 0.100430205 0.0221295 -0.1716891 0.0072506308
0.11499814 0.15621652 0.053177245 0.098588996 0.051105034 -0.13468 -0.093446285 -0.10382997
-0.0070335865 -0.004397902 0.017896071 -0.08356719 0.11049857 -0.058628004 0.01934145 0.06675479
-0.1491272 -0.12692824 -0.040502254 -0.17320316 -0.18992554 -0.073365726 -0.20396535 -0.033387575
-0.12521188 -0.21240728 -0.10083436 -0.010484608 -0.03104126 -0.06954282 0.065875374 -0.17893697
-0.09038613 0.26809847 -0.119482405 -0.026647728 0.02431686 -0.056631647 -0.02682316 0.010469517
-0.033202074 -0.0040175347 0.060693026 0.121276565 -0.03728719 0.21725398 0.1284226 0.14655408
-0.025907064 0.12640384 0.28570232 -0.14453232 0.25895897 0.21775775 0.11373739 0.096408
0.032532282 0.15777688 0.030920465 0.2872857 0.15453447 0.12779795 0.13347863 0.13562526
0.011319164 0.08816268 -0.051163517 -0.043041337 0.03559584 -0.046884704 -0.0060283807 -0.009637831
-0.06082015 -0.1077523 0.041537814 -0.033843942 0.042931676 -0.034676097 0.016367385 0.064168416
-0.087846324 0.06744582 0.20703082 0.06840269 0.11379558 0.12330299 -0.22351545 -0.20485397
0.10818035 0.092633665 0.17499332 -0.19756417 -0.0851448 0.28992575 -0.019547123 -0.13966794
00000000: 6b1c 183e 5c92 d6bc f102 3cbe d2db bd3c
00000010: 099d 1f3d f32f 18be a166 613e f6d8 d23d
00000020: 46df 18bd 4789 34bd 7e29 98bc 22c1 be3d
00000030: b68b 3d3c eca2 47be 8c69 2d3e 65c1 863e
00000040: 9648 a8bd 4714 633e c653 d23c 8869 0bbe
00000050: 45c2 953d e89b 213e 88dc 113d 4beb 11bd
00000060: 2af4 733c fa72 403e e3bb 633a a351 4d3d
00000070: 6231 cb3d e84c d9bd 6416 66be 96b5 8cbc
00000080: 0618 edbd a3ef b03d 0118 6fbd fb56 97bd
00000090: 4486 1dbe dd29 963d c7fb 8abd ee80 10be
000000a0: a7bf b63d c842 a8bd 724f 9bbd 9c10 b53d
000000b0: e7a0 d0bd 0226 ca3d 6f22 78bb 7799 733d
000000c0: 7b14 293e e573 66be b793 3ebd 91db 053d
000000d0: 9ccf 1d3d 7078 5cbe 8c68 c73d 17cb ed3c
000000e0: da78 33be 5e94 09be 0135 773d 8418 50be
000000f0: 74e2 5ebc 830c 27be 7a67 323c fb13 0f3d
00000100: 33ff e63d bb6c 44be e45f 2e3e 074f 35bd
00000110: 566f ea3d 2c21 163e 0e3b 49bd ee21 d53d
00000120: 33df 1dbe 7b56 353d f639 3f3e 6445 27be
00000130: b976 5d3e 539e 14bc 8d1b 9b3d 412a 0f3d
00000140: 9310 e1bd 3047 bfbd 650b 17bd 1896 37bb
00000150: 33a7 a9bd e7dd 2f3b aa43 ecbd 3993 3abd
00000160: 65ac 1dbe 2d20 aa3d 306c c3bd a94a babc
00000170: d4f2 0d3e e78e 0e3e c6e2 1fbe f4a0 b2bd
00000180: 2ed6 59bd 782b a2bc de85 43be b0ad c43c
00000190: 9ef7 cabd 143a b3bd fe00 a83d a22e 813e
000001a0: 8ce1 dabd a792 e5bc 55f3 abbd c75a 393b
000001b0: 5de4 b8ba 4b38 bfbd fa16 333d 3e40 d83d
000001c0: 7638 1b3e f01c c6bd b9de a83e 1ccd 983d
000001d0: 3862 9abd ac65 4e3c 65d4 9dbd 3f7a 1a3e
000001e0: e2f4 d93d 80e6 44bc b9b9 643e dece 503d
000001f0: e824 363e 7a61 9e3c 42fe 153e ac31 77be
00000200: 8b98 e3bc a909 5c3e ed3d c2bd cfe0 273e
00000210: bfec 983d a23d 90bd 5646 393e 7228 cabd
00000220: 52ee 67ba 5ce5 103e d965 3ebd f079 de3c
00000230: 3f3d b43b c22a aabc 5ac5 60bd 4304 873e
00000240: b3b1 143d 492f 1dbc 85dc e6bd 1370 8ebd
00000250: 1673 243e 5137 f8bd fb4f 453d fff0 533d
00000260: 7d0a 9f3d a395 263e f93b 7abe b23f 553d
00000270: 5aae cd3d ed48 b53c 44cf 2fbe b396 ed3b
00000280: 2584 eb3d 39f7 1f3e 62d0 593d 07e9 c93d
00000290: 8353 513d 8ee9 09be c460 bfbd cfa4 d4bd
000002a0: 007a e6bb 471c 90bb c89a 923c 4625 abbd
000002b0: 134d e23d eb23 70bd f671 9e3c bcb6 883d
000002c0: cdb4 18be 7af9 01be b1e5 25bd 2b5c 31be
000002d0: d77b 42be c540 96bd 4bdc 50be 69c1 08bd
000002e0: 8b37 00be 4b81 59be 3f82 cebd a2c7 2bbc
000002f0: 3e4a febc 776c 8ebd abe9 863d 413b 37be
00000300: 5d1c b9bd 3444 893e 31b3 f4bd 564c dabc
00000310: 2734 c73c 96f6 67bd 3ebc dbbc 5688 2b3c
00000320: e6fe 07bd 86a5 83bb 4099 783d d95f f83d
00000330: 74ba 18bd d477 5e3e 3781 033e 4612 163e
00000340: 0d3b d4bc 0270 013e 9347 923e 4800 14be
00000350: 4596 843e e3fb 5e3e 26ef e83d 8f71 c53d
00000360: 9240 053d 4390 213e ea4c fd3c 1c17 933e
00000370: 493e 1e3e 77dd 023e 9fae 083e 59e1 0a3e
00000380: 0474 393c a38e b43d d690 51bd 1d4c 30bd
00000390: f2cc 113d 2d0a 40bd b989 c5bb fee7 1dbc
000003a0: 8d1e 79bd 3dad dcbd 8e23 2a3d f29f 0abd
000003b0: 20d9 2f3d 8608 0ebd e514 863c bb6a 833d
000003c0: c6e8 b3bd 0921 8a3d e3ff 533e b616 8c3d
000003d0: a80d e93d 4786 fc3d 3ce1 64be 3dc5 51be
000003e0: a98d dd3d b8b6 bd3d 7331 333e 434e 4abe
000003f0: 6660 aebd 2671 943e 4a21 a0bc 1d05 0fbe

encoder.transformer_encoder.layers.1.self_attn.in_proj_bias f4 [48]
-0.05338352 -0.0038129562 0.009853414 -0.08831789 -0.062670566 -0.012000136 0.090673655 0.036374662
0.06734445 -0.009972148 0.009809722 -0.0029062233 0.025504021 -0.019207085 -0.03146997 -0.049560152
1.0129665e-05 3.210939e-06 7.355833e-06 1.5588976e-05 -2.2314967e-05 2.3957027e-05 -2.9276262e-06 -5.746344e-06
1.649087e-05 1.7679808e-05 -1.6472526e-05 -1.7917619e-05 -6.3872517e-06 1.6098355e-05 8.484188e-06 1.5667381e-05
-0.01603478 -0.04800774 -0.023530116 0.017409245 -0.03178455 -0.022550212 0.0103227515 0.03206484
0.024785062 0.032852054 0.021587718 -0.00091214105 -0.029576637 -0.0142776705 0.022682825 0.0014817342
00000000: aea8 5abd cae2 79bb 3770 213c 03e0 b4bd
00000010: 6d59 80bd 389c 44bc 1cb3 b93d 99fd 143d
00000020: e3eb 893d 3862 23bc f5b8 203c 5676 3ebb
00000030: cfed d03c 2d58 9dbc a8e6 00bd 96ff 4abd
00000040: 94f2 2937 837b 5736 20d2 f636 12c5 8237
00000050: 0731 bbb7 53f7 c837 3c78 44b6 b8d0 c0b6
00000060: e055 8a37 194f 9437 7b2e 8ab7 cb4d 96b7
00000070: 1352 d6b6 f40a 8737 4f57 0e37 726d 8337
00000080: 5f5b 83bc c4a3 44bd 3bc2 c0bc d59d 8e3c
00000090: 8430 02bd 39bb b8bc c220 293c 6c56 033d
000000a0: 0b0a cb3c e08f 063d bad8 b03c c01c 6fba
000000b0: b44a f2bc e4ec 69bc 55d1 b93c c036 c23a
