embedding_autoencoder_transformer/transformer_classifier_samples_2000.pt (torch, 239392 bytes, 41 tensors)

embedding.weight f4 [16, 16]
000000 35 59 d6 3d a5 ce 68 3e b6 bd 2a bb f4 0f fc bc
       0.10466234 0.22735079 -0.0026053018 -0.030769326
000010 fb 55 ea 3c ae 02 7f 3d d9 bc bc 3c fb 0f 20 be
       0.028605452 0.062258415 0.023039268 -0.15631096
000020 db ec d2 bd 18 04 a8 be 58 ba 4b 3d 67 c7 59 be
       -0.10299083 -0.32815623 0.049738258 -0.21267472
000030 22 9b 47 be de 25 d9 bd 85 8b e8 3b 46 4f 74 3c
       -0.19492772 -0.10602926 0.00709671 0.014911478
000040 a8 fc 13 3e a0 57 67 3e 26 cc 8d be df e6 89 3e
       0.1445185 0.2259202 -0.27694815 0.26933953
000050 1f f6 8d 3c eb cc 03 bb 95 af ef 3c 8b 72 f4 3d
       0.017329274 -0.0020111154 0.029258529 0.1193591
000060 9a 1e 89 3e 2d 89 1a be 30 0c 85 be c7 83 82 3d
       0.2678116 -0.15091391 -0.2598586 0.06372791
000070 85 ec 25 3e de 14 46 be c1 43 d3 3c 46 5a e0 bd
       0.16203506 -0.19343898 0.025789144 -0.10954718
000080 62 56 2f 3e 51 13 25 3d 59 6b e7 3c e1 6e 2a be
       0.17122796 0.040301625 0.02824943 -0.1664386
000090 b2 8e 11 be bf 45 0c be 91 ef 2a be 2d 6e 9e bc
       -0.1421459 -0.13698481 -0.1669295 -0.019339645
0000a0 fb a9 57 3e 34 20 9c 3e 1f 52 82 3e 9c 86 9a 3c
       0.21060936 0.3049332 0.25453278 0.018863015
0000b0 ea 9f 1a 3d b0 3b e2 3d ef ad e6 3d a4 e2 07 be
       0.037750162 0.11046541 0.11263644 -0.1327005
0000c0 27 b3 48 be c7 0b 46 3c d3 8f 51 3c 1a 1f 02 be
       -0.19599591 0.012087769 0.012790638 -0.12707177
0000d0 55 32 0e be 96 4a 0e be e3 36 39 3e ff 76 7f 3e
       -0.13886388 -0.1389564 0.18087344 0.24947737
0000e0 0d 3e 70 3e 56 84 ee bd dd c4 16 be d2 58 c9 be
       0.2346117 -0.11646335 -0.14723535 -0.39325577
0000f0 f1 76 d1 3c 26 4a 8c bd 1c 0a 35 3d c4 71 a3 be
       0.025569411 -0.0685008 0.044199094 -0.31922734
000100 f5 e1 32 3e 88 5d 2a be 1d 04 99 3d 26 61 a9 3c
       0.17469008 -0.16637242 0.07471488 0.020676207
000110 35 7b 1b be 8b 22 d7 3b c5 0d 0f 3e ae e0 c4 39
       -0.15183719 0.006565397 0.13970096 0.00037551433
000120 f9 df 95 3e 6a d8 e6 3c 79 33 a4 3c 84 e3 41 3e
       0.2927244 0.028179366 0.020044075 0.18934447
000130 74 7d 25 3c fc fc 3f 3e 78 82 70 be 6d 7e 0a 3d
       0.010100711 0.1874885 -0.2348727 0.033811975
000140 2e fb 9c bd a1 90 07 be 2a 30 1b 3c 20 cb 2b 3c
       -0.07665096 -0.13238765 0.009471932 0.0104854405
000150 8a 66 12 3e 80 0a 28 be 86 19 50 bd f1 1b bb 3d
       0.14296928 -0.16410255 -0.05080559 0.09136189
000160 0a 5d 93 be 0d 46 7e 3e 17 af 97 be ad df c3 bd
       -0.2878192 0.2483141 -0.2962577 -0.09564147
000170 bc 3b 83 3e 28 a2 45 3e 41 53 36 be b4 f3 bb 3d
       0.2563151 0.19300139 -0.17805196 0.09177342
000180 2a 8f bc 3e 7b 1f 20 3c 42 b7 92 3d c4 24 da 3d
       0.36827976 0.0097731305 0.0716386 0.10651544
000190 98 d1 88 3d 9a b5 18 3e 8c fc de 3d dc 34 5c 3c
       0.06680602 0.14913025 0.10888013 0.013440337
0001a0 09 a9 2d 3c 95 43 10 3e 7a f3 1d be 4c 5e b4 3d
       0.010599383 0.1408828 -0.1542491 0.08807048
0001b0 c7 b5 91 bc 33 6f 50 be 6f 3a 6e be 40 1f af bd
       -0.017786874 -0.20354919 -0.23264478 -0.08550882
0001c0 8f 54 3c be 3e 3e a7 3d aa 87 aa 3c 12 12 e8 3d
       -0.18391632 0.08166169 0.020816643 0.11331572
0001d0 83 69 cb 3d c7 59 0e 3e 96 aa 27 be 19 7c a2 be
       0.09932234 0.13901435 -0.16373667 -0.31735304
0001e0 d2 b4 41 3e 74 f7 bc bd 84 66 9e 3d ad 00 24 3c
       0.18916634 -0.092268854 0.07734397 0.010009927
0001f0 38 05 5c 3e 29 35 53 3e 2a 7e ba bd ed 4d 75 3e
       0.21486366 0.20625748 -0.09106095 0.23955508
000200 af 60 57 3e 2f 7c 09 be 0f b0 90 be d0 52 65 3e
       0.21032976 -0.13426279 -0.28259322 0.22394872
000210 15 97 5c 3e 35 05 46 be e7 91 d6 bd d7 55 1d be
       0.21542008 -0.19337924 -0.104770474 -0.15364777
000220 4d f4 31 3e 08 8e 74 3e e7 dd 39 3e 13 aa 54 3e
       0.1737835 0.23882306 0.18151055 0.20768003
000230 f7 36 45 3e a2 84 db 3d 66 fa c1 3d a3 a6 d9 3d
       0.19259249 0.10718657 0.09471588 0.106274866
000240 1c e3 c8 bc 2b 93 4e 3e 27 37 3b be d1 50 02 bd
       -0.024522357 0.20173328 -0.18282758 -0.031815354
000250 15 32 ba 3e 2b 3a 6c be 33 f3 24 3e 1e cc 99 be
       0.36366335 -0.23069064 0.16108398 -0.30038542
000260 09 98 82 3e f5 b2 1a 3d 88 69 a5 bd cd cb 66 3d
       0.2550662 0.037768323 -0.08076769 0.056346703
000270 15 27 7e 3e 49 38 42 bb f1 52 de 3d c1 4b 55 be
       0.24819596 -0.00296356 0.108556636 -0.20829679
000280 2a b6 a1 be e5 93 36 3e 29 cc 04 be 8e 5f b8 bc
       -0.31584293 0.17829855 -0.12968506 -0.022506502
000290 d5 03 83 be 88 73 7e bc 7e 28 79 3e 71 50 08 bd
       -0.2558886 -0.0155304745 0.24331853 -0.03327984
0002a0 e1 68 a3 3d a9 50 6f be e7 55 d4 3d 75 59 40 3d
       0.079789884 -0.23370613 0.10367947 0.046960313
0002b0 0f 8d 4c 3d 27 f9 1a 3d 54 d3 06 3e 93 c6 a0 3e
       0.04993921 0.037835266 0.13166553 0.314015
0002c0 03 60 fa 3d 41 70 47 be d5 b8 b3 3d 6a 37 31 3e
       0.12225344 -0.19476415 0.08775488 0.17306295
0002d0 1f 02 4a 3e ca 87 67 3d d3 a5 ec 3d 49 6a e4 bc
       0.19727372 0.056525983 0.11555066 -0.027882712
0002e0 57 96 2d be 95 20 46 bd 5a 47 49 bc 22 03 9d be
       -0.16951881 -0.048370916 -0.012285078 -0.30666453
0002f0 d6 62 17 bc 17 58 70 bd ca be ec 3d bd a6 5e 3e
       -0.009239873 -0.05867776 0.115598276 0.21743293
000300 e6 af 78 be 6d ba 27 bd 24 83 f2 3d 19 4a 09 bd
       -0.2428585 -0.040949274 0.11841419 -0.03351793
000310 94 9b 2c 3e 96 56 c0 bd 69 1a 25 3c 69 81 ae 3e
       0.16856223 -0.09391515 0.010077097 0.34083107
000320 2a aa c2 3d a9 41 6a be 44 28 95 3e 1b a5 b1 3d
       0.095051125 -0.2287661 0.29132283 0.086740695
000330 7a fb cc 3c da 00 1a be 3b 36 31 be ed d5 0f bc
       0.025022257 -0.15039387 -0.17305844 -0.008779031
000340 e6 a5 46 be 96 cd b3 3d c9 19 a3 3e 35 86 eb b9
       -0.19399223 0.08779447 0.3185561 -0.00044922685
000350 8e 83 20 3e 68 64 3b 3e 92 97 a6 3d f4 cc 31 be
       0.15675184 0.1830002 0.081343785 -0.1736334
000360 d1 d4 58 3e 76 76 45 be fe 50 6d bd 3d 76 91 3d
       0.21174933 -0.1928347 -0.05793857 0.0710263
000370 a1 c3 4d be a1 3e a4 bc 83 d6 a6 3d 73 a4 25 bd
       -0.20094158 -0.020049395 0.081463836 -0.040440034
000380 92 fb 22 be cd 32 0c 3e 08 c5 df 3d 01 25 c2 bd
       -0.15916279 0.13691254 0.109262526 -0.09479714
000390 4d e5 4e bd cb db 82 3e a0 d0 04 3e ed 2c 33 3d
       -0.050511647 0.25558314 0.12970209 0.043744016
0003a0 e2 92 c5 3d 49 8a a5 3e f8 bb ae 3c 44 59 74 be
       0.09647156 0.32332066 0.021329865 -0.23862177
0003b0 76 30 c5 3e 17 ce c2 be ff 95 43 bc 82 56 e3 3d
       0.38513535 -0.3804786 -0.011937617 0.111004844
0003c0 af 2a 87 ba b6 5a 82 be 92 21 94 3e 35 6c 45 be
       -0.0010312403 -0.25459832 0.28931862 -0.19279559
0003d0 9e 10 f2 3c f9 69 12 3e 7b eb 34 bd e0 ea 43 3e
       0.02954894 0.14298238 -0.044169884 0.19132566
0003e0 ca 42 ae 3e 1a b1 d4 3c 73 65 80 bd aa e3 8d bd
       0.3403533 0.025963355 -0.0626935 -0.06928189
0003f0 09 8e 74 3e 46 22 92 3d 5e bc 1c be c0 1c 41 3e
       0.23882307 0.071354434 -0.15306231 0.18858624

embedding.bias f4 [16]
000000 5e 69 a8 bc 5a c6 d5 3d 13 fc 0f be b7 fc bd bd
       -0.020558055 0.10438223 -0.14061002 -0.09276717
000010 7d d6 0a 3e cd b3 1f 3e ab 5a e3 bc fc 78 a1 bd
       0.13558383 0.15595932 -0.027753195 -0.07884404
000020 e2 0c 0e 3e 22 ff e0 3d b2 b0 71 3d a7 b7 f2 bd
       0.13872102 0.10986163 0.0590064 -0.11851435
000030 49 6c b4 3d 70 b1 43 3e 0a 87 34 be 41 3b a8 bd
       0.08809716 0.19110656 -0.17629638 -0.08214427

transformer_encoder.layers.0.self_attn.in_proj_weight f4 [48, 16]
000000 b1 ed 36 bd ee e5 b7 3d 9d 4c 91 bd 96 c9 2e be
       -0.044660274 0.089794025 -0.07094691 -0.17069086
000010 84 c0 ad 3d 73 67 36 be a5 96 92 3d d2 46 94 3e
       0.08483985 -0.178129 0.071576394 0.28960282
000020 68 ce 85 be 96 aa df 3d 06 0e 26 3e 04 f2 64 be
       -0.26134038 0.109212086 0.16216287 -0.22357947
000030 36 db 85 3e 65 f4 a9 3d cf 93 81 be b4 bb 97 3b
       0.26143807 0.08298568 -0.25308082 0.0046305303
000040 fc fb 97 bd 6f 9e dd bd f6 bb ab bd 05 fb 51 3e
       -0.07421109 -0.108212344 -0.0838546 0.20505913
000050 7c 3a 33 be af 43 20 be 67 62 13 3e 64 dc 7b bc
       -0.17502779 -0.15650819 0.14393006 -0.015372369
000060 28 ea 3f be 8a e6 41 be 86 8a 95 3e e2 b5 6e 3e
       -0.18741667 -0.189356 0.29207247 0.2331157
000070 6e d2 81 bd 27 df 5e be a2 6e 30 be 70 48 8b 3d
       -0.063389644 -0.21764813 -0.17229703 0.06800926
000080 c7 de 42 3e 8d fb a7 bc 92 f4 4f be c7 6b 11 3e
       0.19030295 -0.020505691 -0.2030814 0.1420127
000090 58 ff 78 3e b3 91 f7 bd 81 42 fc 3d 7d f3 fb 3d
       0.24316156 -0.12088337 0.12317372 0.12302301
0000a0 f9 84 03 be e7 2c 42 be 39 4b 21 3e 4a 45 d1 bd
       -0.12843694 -0.18962441 0.15751351 -0.10218294
0000b0 2a 44 6e 3d fa ae 95 be 0d f1 4d be 11 0e 17 3e
       0.058170475 -0.2923506 -0.20111485 0.1475146
0000c0 4e d6 9b bc 04 85 3a bd 9c 9b 0f 3e fa d2 88 3e
       -0.019023087 -0.04553701 0.14024204 0.26723462
0000d0 2a d4 55 bd 2c d2 4a be 03 16 4a be b6 cf 2f be
       -0.05220429 -0.19806737 -0.1973496 -0.17169079
0000e0 61 c7 7e 3e a0 b9 8d be 2e 63 01 be 7e 36 a8 3c
       0.24880745 -0.27680683 -0.1263549 0.020533796
0000f0 61 50 22 3e 0f 53 20 be ae df b0 bd 7e 41 54 3c
       0.15850975 -0.15656684 -0.086364135 0.012955068
000100 75 92 09 3c e7 1e a3 3a e8 83 70 bc aa 00 99 be
       0.0083967345 0.0012445123 -0.014679886 -0.2988332
000110 e4 e2 87 3e 22 5d 38 be 77 31 54 be 05 d8 6a be
       0.2654029 -0.18004277 -0.20721994 -0.22933967
000120 dd dc 99 3e 58 ab 1c 3e d3 ff 85 3d 05 ec 73 be
       0.30051318 0.15299737 0.06542935 -0.23820503
000130 23 10 e3 3d f8 c5 df 3d 24 03 89 3e 8e a8 29 3d
       0.11087062 0.109264314 0.2676021 0.041420512
000140 00 a4 3c bd 7b 7f 5f 3e 7c 47 5e 3e 3f 14 3d 3e
       -0.04605484 0.21825974 0.21706957 0.18464755
000150 32 4f d6 bd ef 50 35 be 78 9d 16 3e 01 c7 ab 3d
       -0.10464324 -0.17706655 0.14708507 0.08387566
000160 ee ca 35 be 98 af 1d b8 23 07 71 be f1 31 67 3e
       -0.17753193 -3.759525e-05 -0.23537879 0.22577645
000170 62 02 97 3d 70 f1 13 3e d0 91 98 be 6b 43 8d 3e
       0.07373501 0.1444757 -0.29798746 0.27590498
000180 55 2b 98 be c0 58 b0 bd cd fd 73 bd d6 24 ba 3d
       -0.2972056 -0.08610678 -0.059568215 0.09089057
000190 86 01 79 bd 8a 09 9b 3e e9 76 4f bd 65 63 10 3e
       -0.06079247 0.30280715 -0.05065051 0.14100416
0001a0 8b 75 8c be 2e 8d c5 bd 50 b6 bc 3d ba ed fb bd
       -0.27433428 -0.096460685 0.09214461 -0.12301202
0001b0 c6 f2 8c be 30 4d c1 3d be 35 eb bd 22 b5 7e 3e
       -0.2752897 0.094385505 -0.1148486 0.24873784
0001c0 29 c6 73 be c4 9c 3a 3e fa bc 94 bd 95 e5 44 3e
       -0.23806061 0.18223864 -0.07262607 0.19228204
0001d0 40 1e a1 3d 18 fd 9b 3d 6e b4 c1 bd 7b 89 04 3e
       0.07867098 0.07616633 -0.09458242 0.1294307
0001e0 f2 7d 95 be 43 64 ce 3c 8f 79 e7 bd 1d 73 d6 bc
       -0.2919765 0.025194293 -0.11302482 -0.026177937
0001f0 7b a0 98 3e 01 f9 3d be 2c dd 70 3e bb ea 5b 3e
       0.29809937 -0.18552019 0.2352187 0.21476261
000200 e4 c6 fc bd 95 ad 99 3e 9d cd 6f bd 35 5c 8b 3e
       -0.12342623 0.30015245 -0.058545697 0.27218786
000210 b1 c9 73 be 09 94 82 be b1 52 78 3e 1d 84 63 be
       -0.23807408 -0.25503567 0.24250294 -0.22218366
000220 d5 1e 91 3e 00 7e 87 bc 9c 39 73 be 06 9c 7c bd
       0.28343835 -0.016539574 -0.23752445 -0.061672233
000230 50 73 34 bd 6d 9d 70 3e a2 ba 1d 3e e6 24 32 be
       -0.044055283 0.23497553 0.15403226 -0.17396888
000240 64 78 e3 bd ac 10 e9 3b 91 81 77 3b 74 db 1d 3e
       -0.11106947 0.007112583 0.0037766437 0.15415746
000250 73 65 20 be e1 8c 64 3e 2d 5a 87 3b 5a fe 6d 3e
       -0.156637 0.22319366 0.004130623 0.23241559
000260 e9 ed 7e 3d 80 6b 97 3e 70 b0 0c 3e d0 be 01 3d
       0.062238608 0.29574203 0.1373918 0.031676114
000270 86 2f 9c be a7 d9 34 3d 4d e1 65 3d b0 54 97 3e
       -0.30505008 0.044152882 0.056123067 0.295568
000280 97 76 df bd b9 f0 1e be ae 9b 81 3d da 3b e4 bd
       -0.10911291 -0.15521516 0.06328522 -0.11144228
000290 ac f9 d1 bc 3e 8e ad bd 65 c9 5d be d8 5e 17 be
       -0.025631748 -0.08474396 -0.21658857 -0.14782274
0002a0 a7 99 63 3e 17 f9 39 3d d8 e8 3d be 11 36 3b be
       0.22226582 0.045403566 -0.18545854 -0.18282343
0002b0 74 ae 7a be 17 4b 6d be 25 f5 03 be 65 54 1a 3d
       -0.24480611 -0.23173176 -0.12886484 0.03767814
0002c0 e6 48 41 3e ed 0e 15 be 00 f0 52 bd 27 b1 cc 3d
       0.18875465 -0.14556475 -0.051498413 0.09994727
0002d0 85 87 4e 3e 47 f9 81 bd 6c 14 05 be 7f 2a 7e 3e
       0.20168884 -0.06346374 -0.12996072 0.24820898
0002e0 2f b0 75 3e 79 85 37 be 93 90 a5 bd 65 27 f5 3d
       0.2399299 -0.1792201 -0.08084216 0.119704045
0002f0 12 5a 64 be f6 16 26 3e 04 e6 fd 3d 9b 59 6b be
       -0.22299984 0.16219696 0.123973876 -0.229834
000300 ef 42 34 3d df a3 67 be ad 0f 65 bd 8f fe 8c be
       0.044009145 -0.22621106 -0.055923153 -0.27537963
000310 59 41 08 3e a5 c6 55 3e 04 15 b1 bb db 7e 92 3e
       0.13306178 0.20876558 -0.0054041166 0.28612408
000320 c3 20 f6 bd 9e 23 8f 3e 47 9c 26 be fa 82 cc bd
       -0.120179676 0.2795686 -0.16270553 -0.09985919
000330 65 f7 3c 3d 0d eb 52 3e 28 99 25 3e 46 91 10 3e
       0.04613437 0.20597477 0.16171706 0.14117917
000340 b0 cd d8 3d ac 04 fe 3c ff 63 11 3d 74 9c 19 bd
       0.10586107 0.031008087 0.035495754 -0.03750272
000350 95 ed 92 be b6 09 5c 3e 24 1b 6c be 34 8e 10 bd
       -0.28696886 0.2148808 -0.23057228 -0.035291865
000360 bb ef 88 be 54 4e 01 3d b1 65 72 be e2 16 53 3e
       -0.267454 0.03156884 -0.23671605 0.20614198
000370 28 0e 09 3e c4 af 86 bd 3c e4 88 3e 09 ec 1a be
       0.13384306 -0.065764934 0.2673663 -0.15129103
000380 89 5f 87 bd 21 fb 28 3e 1b 7a 87 3e 1b 85 95 3e
       -0.06610019 0.16502048 0.26460347 0.29203114
000390 f1 28 bb 3c 73 53 4d 3c 3a 5c 3f be 8b 9d 87 be
       0.02284667 0.012532103 -0.18687525 -0.26487383
0003a0 fe 4f 81 be bf 5c 93 3d 97 8c 77 3b 3d 51 96 3d
       -0.25256342 0.07195424 0.0037773007 0.07339714
0003b0 d9 43 da bd 0e 07 1e be ad d9 98 be 5a 7c 98 be
       -0.10657472 -0.15432379 -0.29853573 -0.29782373
0003c0 7a d5 26 3e 25 0c b2 3d a0 7e 83 be 2e c3 b5 bd
       0.16292372 0.08693723 -0.25682545 -0.08875118
0003d0 27 ef 63 3e 95 23 9c be 65 32 71 3d 6c 8e a0 bd
       0.22259198 -0.30495897 0.05888595 -0.07839665
0003e0 2a 04 c9 bd df 60 2f be 70 c9 03 bc 2e 24 8c 3e
       -0.09815247 -0.17126797 -0.008043632 0.27371353
0003f0 dd 15 6f bc 76 c2 8c 3e 98 0b 80 3e 0e e8 cc 3d
       -0.014592615 0.27492112 0.25008845 0.100051984

transformer_encoder.layers.0.self_attn.in_proj_bias f4 [48]
000000 00 00 00 00 00 00 00 00 00 00 00 00 00 00 00 00
       0.0 0.0 0.0 0.0
000010 00 00 00 00 00 00 00 00 00 00 00 00 00 00 00 00
       0.0 0.0 0.0 0.0
000020 00 00 00 00 00 00 00 00 00 00 00 00 00 00 00 00
       0.0 0.0 0.0 0.0
000030 00 00 00 00 00 00 00 00 00 00 00 00 00 00 00 00
       0.0 0.0 0.0 0.0
000040 00 00 00 00 00 00 00 00 00 00 00 00 00 00 00 00
       0.0 0.0 0.0 0.0
000050 00 00 00 00 00 00 00 00 00 00 00 00 00 00 00 00
       0.0 0.0 0.0 0.0
000060 00 00 00 00 00 00 00 00 00 00 00 00 00 00 00 00
       0.0 0.0 0.0 0.0
000070 00 00 00 00 00 00 00 00 00 00 00 00 00 00 00 00
       0.0 0.0 0.0 0.0
000080 d1 fc e4 bd d8 5a 13 bd f2 8c 8c bc 0e 80 92 ba
       -0.111810334 -0.035975307 -0.017157052 -0.0011177079
000090 90 51 90 3c 66 1b 2d 3d 9e 0c 77 3c 28 6a e4 3c
       0.017617017 0.042262457 0.015078692 0.02788265
0000a0 78 99 80 bd 86 c1 1a 3d 0a ff 66 bd 62 9d 67 3c
       -0.06279272 0.037782215 -0.056395568 0.014136644
0000b0 bc bd 35 3d 95 b0 b0 3c 33 32 07 3d 18 fe 08 3d
       0.044370398 0.021568576 0.033006858 0.033445448

transformer_encoder.layers.0.self_attn.out_proj.weight f4 [16, 16]
000000 8a 9f a6 3d 50 fc af bd e6 5e 0a be fe cd b5 3c
       0.081358984 -0.08593047 -0.13512763 0.022192951
000010 f6 e5 35 3e 25 6f 2c 3e bb 5c 56 3d c0 5d 07 be
       0.17763504 0.16839273 0.05233453 -0.13219357
000020 56 f5 43 3d f0 4e 42 be 6f 68 9e bd 17 ce f9 3d
       0.047841392 -0.18975425 -0.07734763 0.12197512
000030 58 57 ad bd 78 6d 27 3d af 6e 86 3e d9 61 eb 3d
       -0.08463925 0.040875882 0.2625632 0.11493272
000040 6e 18 81 bd 04 71 65 bd a4 09 00 3e 0d 32 1e 3d
       -0.06303488 -0.056015983 0.12503678 0.03862195
000050 8e 23 83 3d 4e 96 8e 3d 86 03 1d be 77 26 9c 3d
       0.06403266 0.06962262 -0.15333375 0.07624524
000060 6a bd 59 be 79 8e 70 bd 52 26 51 bc 89 06 f4 3c
       -0.21263662 -0.058729623 -0.012765484 0.029788272
000070 b7 bd db 3d 01 76 17 be d4 c9 fa bd 0e eb 29 3e
       0.107295446 -0.14791109 -0.12245527 0.16593572
000080 39 6f 45 be 0f fc fc 3d ef 22 07 3e d8 87 0d bd
       -0.1928071 0.12352764 0.1319692 -0.03455338
000090 56 ed e2 bd 64 3c 80 3c 1d 2c 05 be c0 c9 dc bd
       -0.110804245 0.015653796 -0.13005109 -0.10780668
0000a0 9e 7a 81 bc 66 0b 4e 3e ef 72 d4 3d 57 f5 c1 bd
       -0.015805539 0.20121536 0.10373484 -0.09470623
0000b0 78 a9 34 be 73 f8 a4 3d eb d4 2c 3e 02 d8 18 3b
       -0.17642772 0.080552004 0.16878097 0.002332211
0000c0 94 ce 5b bd 18 3b 35 bd c5 f1 c1 bd 1b b6 25 bc
       -0.053663805 -0.04424581 -0.09469942 -0.010114218
0000d0 89 5e dd 3c 1b c3 0b be 30 7d 3b bd a2 d6 f4 3d
       0.027022617 -0.13648646 -0.045773685 0.119550005
0000e0 39 47 82 3b 08 4d ed bd 1c 71 f2 3d 34 91 1f 3e
       0.0039757756 -0.11586958 0.1183798 0.15582734
0000f0 c3 88 91 3e 59 74 24 3d 4d 34 53 be 81 1c f4 bd
       0.28424653 0.04015002 -0.2062542 -0.11919499
000100 9e 3b a3 3d 03 f6 86 3d 0f 56 6d bd 66 cc f0 3d
       0.079703555 0.06589892 -0.0579434 0.11757736
000110 42 19 05 be 18 f5 05 3d 8c 53 80 3d 74 4a fe ba
       -0.12997916 0.032704443 0.06265935 -0.0019400851
000120 c5 c3 fe 3c d5 7d 1a 3e 51 c1 92 bd 0c 3a 27 bd
       0.03109921 0.15087064 -0.071657784 -0.040826842
000130 2d 7d 38 be a8 55 11 be 69 be 14 3e 9b 29 83 bd
       -0.18016501 -0.14192832 0.1452576 -0.0640442
000140 ab 43 42 bd 93 0c 0d bd d1 d7 c5 3d 38 56 08 be
       -0.047427814 -0.03443582 0.09660304 -0.1331414
000150 14 14 40 bd f4 d1 31 3e 72 21 d3 3c 0a 4c ed 3c
       -0.046894148 0.17365247 0.025772784 0.028966922
000160 2e 82 19 bd a0 72 1e 3e 31 9c 86 3d 99 95 8b bc
       -0.037477665 0.15473413 0.0657276 -0.017039107
000170 d5 34 a4 3d 7a 92 55 3c 5c 1d 65 3d 9f a3 fb 3d
       0.080178894 0.013035411 0.055936202 0.122870676
000180 4c 86 be 3d 99 f9 0a be d7 92 56 be af 1b d9 3d
       0.09302959 -0.13571776 -0.20954452 0.10600983
000190 86 32 1c be 70 99 16 bb 40 50 8f bd cb e6 4b 3e
       -0.15253648 -0.002297964 -0.06997728 0.1991226
0001a0 67 79 cd 3d a2 d2 ba bc ec ca d1 bc 6f 27 b9 3d
       0.10032921 -0.022805516 -0.025609456 0.090407245
0001b0 72 a5 36 3e a6 d1 3f be d7 8e 80 be 91 53 e6 3d
       0.1783655 -0.18732318 -0.25108978 0.11246408
0001c0 1f 9d 0c bd 73 fb 3c 3d fb bf 07 3c a1 9d 05 be
       -0.03432953 0.04613824 0.008285518 -0.13048412
0001d0 36 d5 15 be bc 61 10 3e 13 41 85 3b c9 67 39 bd
       -0.14632115 0.14099783 0.0040665953 -0.045264993
0001e0 e5 55 d7 bb 4a e7 8d bd 2b d7 09 be 18 fc 11 be
       -0.0065715187 -0.069288805 -0.13460986 -0.14256322
0001f0 ce 30 90 3b af dc 52 bd 35 ce 5a be 36 14 04 be
       0.004400349 -0.05147999 -0.21367724 -0.12898335
000200 17 d6 2f 3e 90 2b a0 bd 3d 33 93 bc ea 98 01 3d
       0.17171513 -0.07820809 -0.017968768 0.03163997
000210 36 a4 b3 3d bf a0 5b bc 48 26 74 3d 30 3f c5 bd
       0.08771555 -0.013405024 0.05960682 -0.09631193
000220 48 86 b6 3d b6 d8 41 bd c2 85 f2 bc 35 e7 f4 bb
       0.08912331 -0.047325812 -0.029604796 -0.007473851
000230 06 38 05 3e 3b 0b 2b 3e 6e 40 b4 bc bf 9a 83 3c
       0.13009652 0.16703503 -0.022003379 0.016065
000240 d8 cd 6b 3e e7 70 86 bd 34 a1 f5 3d 9a 57 2a 3d
       0.23027742 -0.06564503 0.11993638 0.04158745
000250 d4 60 d6 3c 94 6b 36 be 66 cf b4 bd f7 a4 59 be
       0.026169218 -0.17814475 -0.088286206 -0.21254335
000260 cb 54 d6 bd a6 c0 d4 3a c3 f5 20 3e 20 3a e1 3c
       -0.10465392 0.001623173 0.1571875 0.027493536
000270 a7 a0 87 bd 56 04 03 3e 17 dc 54 bd 97 74 f3 bd
       -0.06622439 0.12794623 -0.051967707 -0.11887472
000280 d1 d1 9a 3c ef dd 58 be 10 c2 1c 3e db 88 48 3e
       0.018898876 -0.21178411 0.15308404 0.19583456
000290 76 9f 06 3e 35 54 95 3c cb 12 c7 bd a0 c0 f1 3d
       0.13146767 0.01822863 -0.09720381 0.118043184
0002a0 6a 66 93 3d 17 4a c9 bb 95 1c cd 3d 5c 24 0d be
       0.07197268 -0.0061428654 0.10015217 -0.13783401
0002b0 76 6b 5e 3d 67 6e 2a 3e 6b 14 2c be 7d d1 0f 3e
       0.0543017 0.16643678 -0.16804664 0.14044757
0002c0 bc 23 27 be d7 12 32 bc d6 e6 94 bd a8 04 90 bd
       -0.16322225 -0.01086875 -0.07270591 -0.07032138
0002d0 33 a7 36 3d 8c 41 af 3c 94 d7 9b 3c ad 0e c9 3d
       0.044593047 0.02139356 0.019023694 0.09817252
0002e0 32 a8 06 be dc cc 2e bb 26 02 c4 3d 43 fb 09 3e
       -0.13150099 -0.0026672399 0.09570722 0.13474755
0002f0 f1 40 18 be 7b 30 9d bd f8 c1 02 be 91 a5 d9 bd
       -0.14868523 -0.076752625 -0.12769306 -0.106272824
000300 42 3e 41 3e f6 6f 33 3d dc a7 56 bd 31 a6 51 bc
       0.18871406 0.043807946 -0.052406177 -0.012795971
000310 9d 4e b7 3d 1b b3 4a be d4 46 1a 3d ed a2 75 bd
       0.08950541 -0.19794886 0.037665203 -0.05996983
000320 17 ff 49 bd 04 97 bb 3d 7e 13 29 3e fe c7 a0 bd
       -0.04931554 0.09159663 0.16511342 -0.078506455
000330 9b 7b 11 be 48 21 90 bd 3f 1c af bd ce 93 6f 3d
       -0.14207308 -0.07037598 -0.085503094 0.058490567
000340 c8 c4 05 3e 28 f6 17 b9 d9 67 3f 3e 2b 90 38 3d
       0.13063347 -0.00014492183 0.18691958 0.045059364
000350 15 0b 06 be dd 8d d0 3d a4 19 ca 3d 29 bb 51 3e
       -0.13090165 0.10183308 0.09868172 0.20481552
000360 76 bc 22 3e 10 57 b6 bc 78 b9 86 bd 80 db 0a bd
       0.15892205 -0.022258312 -0.06578344 -0.033900738
000370 87 9b e6 bd 7f 13 de 3d ec 6a a1 bd 06 4a df 3d
       -0.11260133 0.10843562 -0.07881722 0.10902791
000380 8b 2a 16 3e b7 6b 7c bd b4 d5 31 3e 53 7a 4a bd
       0.14664666 -0.061626162 0.17366678 -0.049433064
000390 10 40 a9 bd c8 d2 54 bd ba 56 8e bd a8 25 24 3e
       -0.08264172 -0.05195883 -0.069501355 0.1602999
0003a0 56 a1 e0 bc d8 57 54 3d 0f b2 d7 bc 49 fb 89 3d
       -0.027420681 0.051841587 -0.026330022 0.06737382
0003b0 a1 2d d2 bd 99 70 1c be 96 e7 18 3e 4b 11 9b 3d
       -0.10262609 -0.15277328 0.14932093 0.07571658
0003c0 0f ce b0 bd a2 45 0c 3d bc 9d 0a 3e 30 f1 06 be
       -0.086330526 0.034246095 0.13536733 -0.13177943
0003d0 6c a2 4b 3e 41 80 42 be 94 2f 9a bd 0d 09 f1 3d
       0.19886178 -0.18994237 -0.07528606 0.117693044
0003e0 f8 54 85 bd 2e 88 d4 bd c7 02 2e be 00 0a e9 bd
       -0.06510347 -0.10377537 -0.16993247 -0.113788605
0003f0 81 23 17 3d ba 52 2d 3e 7c 4d 58 bd 4b 38 55 3e
       0.036899094 0.16926089 -0.05280827 0.20822255

transformer_encoder.layers.0.self_attn.out_proj.bias f4 [16]
000000 11 b7 15 3d e2 ca 93 3c c8 d1 17 bc 50 db f5 b8
       0.03655154 0.018041078 -0.009266324 -0.000117233605
000010 54 a2 6b 3a e5 cd ba 3c 4b 5a 48 3a c6 9f 98 bc
       0.00089887273 0.022803256 0.0007642849 -0.018630873
000020 a1 78 ee 3a ec 12 b9 bc 85 58 a2 bb 98 32 a7 39
       0.0018193909 -0.02259203 -0.0049544 0.00031890417
000030 3f ad cb bc 4d 4b 6a bc 19 f5 38 3c 0c 56 db 3c
       -0.024862884 -0.01430018 0.011288905 0.026774429

transformer_encoder.layers.0.linear1.weight f4 [512, 16]
000000 f4 05 1e 3e fb 46 56 3d de 3c 9b be ae f3 18 bd
       0.15431958 0.052313786 -0.30319875 -0.037341766
000010 58 d9 aa 3a fe 39 19 3e 5c 8f 2d 3e e2 9c 43 3c
       0.0013034744 0.14963529 0.16949219 0.011939259
000020 8d 57 8a be 2e 2d e7 bd 04 d1 25 3c 85 03 f8 bd
       -0.2701992 -0.11287914 0.010120634 -0.12110046
000030 d3 33 e8 3d 33 cc 09 3e 05 0f 23 3d fa 81 bc 3d
       0.1133801 0.13456802 0.039809246 0.092044786
000040 96 56 69 be fd f6 f7 3d 43 b0 87 3e 79 dd 62 3e
       -0.22786936 0.12107656 0.26501665 0.22154798
000050 78 96 60 bd b9 7e 8d be ac aa de 3d 20 50 20 3e
       -0.054831 -0.27635744 0.10872397 0.15655565
000060 da 10 2b be 4b b3 12 3e db 11 85 3e 63 ff 26 bc
       -0.16705647 0.14326207 0.25990185 -0.010192725
000070 71 40 a0 bd 88 1f a5 bd c7 09 6e 3e 85 7c e8 3d
       -0.07824791 -0.08062655 0.23245917 0.11351875
000080 d4 48 0f be 41 bf ce 3d bc a6 c7 bd be 2d 0c be
       -0.13992625 0.100950725 -0.09748599 -0.13689324
000090 47 84 52 3d bb 9a 01 3d 58 8a 02 be 4b ea 9b bd
       0.05139568 0.031641703 -0.12748086 -0.07613047
0000a0 f3 75 f6 3c b8 c8 bf 3c 90 ef 94 bd df 24 8b be
       0.03008554 0.02341114 -0.072722554 -0.27176568
0000b0 28 d1 80 be 6b 83 8d be e2 b4 03 3e d8 f2 b6 bd
       -0.25159574 -0.27639326 0.1286197 -0.089330375
0000c0 1a 4d 1e be e7 d7 91 bd 22 f2 8e be 88 79 a2 bd
       -0.154591 -0.07121258 -0.27919108 -0.079333365
0000d0 11 92 a9 3d 28 2c 85 3e 34 01 3a be 86 30 4d 3c
       0.08279813 0.2601025 -0.18164521 0.012523776
0000e0 3c dd a2 be d1 2d 0d bd 87 b8 2a be 1a c3 36 be
       -0.31809413 -0.034467522 -0.16671954 -0.17847863
0000f0 7b 7c cf 3d 6f 22 1c be 35 4d 64 bd 96 9c ac bc
       0.10131165 -0.1524751 -0.055737693 -0.02107076
000100 0a 3f 47 be 2f cf ae 3d 14 51 bc 3d 82 69 33 be
       -0.19457641 0.08535611 0.09195152 -0.17520717
000110 58 20 2d bc ce d5 bd bd 59 81 a1 3d e0 92 c2 3d
       -0.010566793 -0.09269296 0.07885999 0.095006704
000120 03 03 86 3e 3a be c8 3d fa 04 db bd d8 fd 93 3d
       0.26174173 0.09801908 -0.106943086 0.07226151
000130 6e a6 b9 bd bd 49 e4 bd 9c 01 8f bc 6e fb 21 be
       -0.09064947 -0.11146877 -0.017456822 -0.15818569
000140 d1 99 45 be 12 03 69 be d7 73 5b be ea 77 43 be
       -0.19296958 -0.22755077 -0.21430908 -0.19088712
000150 0c 52 2e 3e cf 7d 26 bd 6c 99 1b be 02 2e ba bc
       0.17023486 -0.040647324 -0.15195245 -0.022727016
000160 4a e4 3b be e8 44 1c 3e 3d f9 68 3d fb dd 48 3e
       -0.18348804 0.1526066 0.056878317 0.19615929
000170 f8 24 c1 bc 23 f9 0a bc 53 1e b5 3d 05 41 af be
       -0.023577198 -0.00848225 0.088436745 -0.34229293
000180 c7 53 73 bd 09 9f 92 bd c7 d9 dd 3c fd 3d 4b bd
       -0.05940607 -0.0715924 0.027081383 -0.049619664
000190 6a cf a0 bc af bc a6 bd 96 9f 1b 3d 53 ef 58 be
       -0.019630153 -0.08141457 0.03799399 -0.21185045
0001a0 8b 78 14 3e 44 d8 9e bd 54 5f 75 be ae 00 c5 bd
       0.14499108 -0.07756093 -0.23962146 -0.0961927
0001b0 5e 3d 45 bd bb 2d a3 39 90 72 39 bd 13 8e 25 3e
       -0.048154227 0.00031123855 -0.04527527 0.16167478
0001c0 56 2c 55 3b d3 69 52 3e 91 32 63 3d 4c 21 77 be
       0.0032527647 0.20548181 0.055468146 -0.24133795
0001d0 bc 08 73 3e 8c 86 2e 3e f3 52 68 3d f0 73 1d be
       0.237338 0.17043513 0.05671973 -0.15376258
0001e0 a1 99 4b 3e ce 7a 80 3b da ef 40 be 12 f3 28 3d
       0.19882824 0.0039208895 -0.18841496 0.041247435
0001f0 df b5 05 3e 60 b6 07 3d 7d 24 d5 3c d7 55 c5 bd
       0.1305766 0.03313291 0.026018376 -0.09635513
000200 82 5c 38 3e ae ab bd bd 65 be 3d 3e c7 dd 52 be
       0.18004039 -0.09261261 0.18529661 -0.20592414
000210 c4 a5 1d be e6 8d 95 3c c3 53 92 3c 45 6a 4b bc
       -0.15395266 0.018256139 0.017862206 -0.012415473
000220 a4 c8 ac bd a5 b7 f8 bd 0c b2 9b bd 37 81 f4 bd
       -0.08436707 -0.121444024 -0.07602319 -0.11938708
000230 dd 30 90 bb aa 72 89 be f8 24 7f bd 18 d7 b5 bd
       -0.004400356 -0.26845294 -0.062291116 -0.088789165
000240 cf 07 9f 3d 48 04 da 3d ed fe 0f bd 99 c4 b5 bd
       0.07765161 0.10645348 -0.035155226 -0.08875389
000250 ba c2 32 bd d0 10 35 3e 36 3b b3 bc e2 ab c5 bd
       -0.043642737 0.17682195 -0.02187882 -0.09651925
000260 2e fd bf 3d 4e f8 b8 bb 4c e3 5e be aa 35 9c 3d
       0.09374462 -0.0056448346 -0.21766394 0.07627423
000270 50 73 a9 3c 6d 3d 18 be 83 aa 9e bd 85 02 0d 3d
       0.020684868 -0.14867182 -0.07747366 0.03442623
000280 fa 51 6d 3e 0d 1d 54 be 41 36 47 3e 01 cc 25 3d
       0.23175803 -0.20714207 0.1945429 0.040477756
000290 f0 5a 5d 3e d3 f6 3a bc 16 84 84 bd a9 5f 42 3e
       0.21616721 -0.011411387 -0.06470506 0.18981804
0002a0 ec 8b 98 3e 5f 2f c6 3d 09 4f 1d be 15 5f 67 be
       0.29794252 0.09677004 -0.15362181 -0.22594865
0002b0 9f 5b 04 3d 6d c4 a3 bd 34 9d 1e 3e 67 94 2a be
       0.03231394 -0.079964496 0.15489656 -0.16658174
0002c0 b8 e0 1a bd e8 88 c4 bd 58 e8 ad 3e cd 92 44 3e
       -0.037811965 -0.09596425 0.33966327 0.19196625
0002d0 03 0b 1c be b7 4e c1 bd e2 b1 d0 bd 2d bd b6 bb
       -0.15238576 -0.09438842 -0.101901785 -0.0055767507
0002e0 47 4f 25 be e5 23 a6 bd b5 74 81 be 5b 50 02 3d
       -0.16143523 -0.08112315 -0.25284353 0.031814914
0002f0 f4 fd 17 be be 88 f2 bd 5a f2 8f 3b 12 f8 e5 bc
       -0.14842969 -0.11842488 0.004392904 -0.02807239
000300 6c 17 f8 3d 4d 8e ca bc 31 04 06 be 78 d8 f9 bc
       0.12113842 -0.024726057 -0.13087536 -0.030498728
000310 9c 07 03 be db 0f 3e be 72 06 91 3e c6 cd 20 be
       -0.12795871 -0.18560736 0.2832523 -0.15703496
000320 aa 8f 75 3e db 29 7e 3e 92 3d b8 bd 96 e9 b7 3d
       0.23980585 0.24820654 -0.089961186 0.089801
000330 8c ff 86 be 65 2c 05 3e 89 0b 1d 3d 6b 58 37 be
       -0.26366842 0.13005216 0.03834108 -0.17904823
000340 b4 6b 7c bd 7c ab 80 be f1 87 10 be 20 cd 4f 3e
       -0.06162615 -0.25130832 -0.14114358 0.20293093
000350 27 6c fe 3b fb 78 2f 3e b1 43 65 3d 79 93 45 be
       0.0077643576 0.17135994 0.05597276 -0.19294538
000360 b2 9f 5e be 7c a5 e2 3d 59 dd 00 bc 6e 5b 02 3e
       -0.21740606 0.1106672 -0.007865273 0.1273019
000370 fe 07 d2 3d 42 e4 ee 3d b4 60 dc bc cb 3a 64 bd
       0.10255431 0.116646305 -0.02690158 -0.05572013
000380 93 9e 26 be 62 4f 91 3d 80 ff 8c 3d 4a ce 5a bd
       -0.16271429 0.07095219 0.0688467 -0.05341939
000390 bc aa 43 3d e9 80 8d 3e 61 7d 81 3d 9d e9 23 3d
       0.047770247 0.27637413 0.06322742 0.040017713
0003a0 f4 17 58 3c ab 46 34 3e 22 dd 3f be 02 55 d8 bd
       0.013189305 0.17605083 -0.18736699 -0.10563089
0003b0 c9 41 83 be 4c 08 27 3d 56 89 91 bd f1 e8 e4 3d
       -0.25636128 0.040779397 -0.07106273 0.111772425
0003c0 57 36 82 3d 80 ae af be ac 79 85 3e b9 2e 94 bc
       0.06358021 -0.3431282 0.2606939 -0.018088685
0003d0 e6 e4 4b 3e c6 08 2c 3e 8c 05 30 3e dd 14 71 3e
       0.19911537 0.16800222 0.17189616 0.23543115
0003e0 84 45 6b 3e 99 55 04 ba 0f 94 38 3e e8 1b 8e 3d
       0.22975737 -0.00050481554 0.1802523 0.069389164
0003f0 9a 48 bf be 40 7e c0 bd 36 fd d8 39 4a ce 1a bd
       -0.37360078 -0.0939908 0.00041387387 -0.03779439

transformer_encoder.layers.0.linear1.bias f4 [512]
000000 07 1c e3 bc 95 55 50 be 2b 1c 87 3c 52 25 6c 3c
       -0.027723325 -0.20345147 0.016492924 0.014413195
000010 bb b5 2b be 1d cb e2 bd 49 91 c7 3d 14 e9 3c be
       -0.16768543 -0.11073897 0.09744508 -0.18448287
000020 95 cb 76 be 33 4a 9e be 8b 30 52 bc 1e aa 4f be
       -0.24101098 -0.30915985 -0.012828956 -0.20279738
000030 fb 39 a1 3c 64 ce e1 bd 07 63 95 3d 78 2b 1c 3e
       0.019680968 -0.11025694 0.072942786 0.15250957
000040 1c ba 89 be 7e 1c 1d bd f4 84 28 3e 85 5b 9a 3d
       -0.26899803 -0.03835725 0.16456968 0.07536987
000050 49 e3 36 3d 36 3e eb 3d b9 e5 20 bd 16 6c de bd
       0.04465035 0.11486475 -0.03928158 -0.108604595
000060 a7 c3 73 bd cd 5e 74 3b 42 4f d1 bd 2e 17 2a be
       -0.05951276 0.003728795 -0.10220195 -0.16610405
000070 e5 bf 63 be e0 79 3b be d0 35 0a be d7 84 f4 3d
       -0.2224117 -0.1830821 -0.1349709 0.119394
000080 94 45 5f 3d 55 39 db bd 23 24 02 3e 5c 8a 44 be
       0.054509714 -0.107042946 0.12709098 -0.19193405
000090 cf cd 6e bd b5 74 09 be 48 5d d8 3d 5d e9 92 be
       -0.058301743 -0.13423426 0.10564667 -0.28693667
0000a0 73 ea f6 3d 51 28 a6 bd bc 39 18 3d 94 4e c1 bd
       0.120564364 -0.081131585 0.037164435 -0.09438816
0000b0 58 67 50 be fc 5f a9 bd 2e d2 9c be 10 82 37 be
       -0.20351923 -0.08270261 -0.30629104 -0.17920709
0000c0 b2 ee aa 3d 89 8c 33 3e 6c 86 82 be 86 88 67 be
       0.08346309 0.17534079 -0.2549318 -0.22610673
0000d0 8f 67 88 3d 6e d1 98 3d 1d 02 e8 bd 07 ea e9 3d
       0.06660377 0.074618205 -0.11328528 0.1142159
0000e0 76 9f 5f 3c 35 e3 82 be 1c 3d e8 3b d3 b8 56 be
       0.013648858 -0.2556397 0.007087363 -0.20968942
0000f0 88 ea 0e 3e 5a 31 28 be 5f ee 82 be 57 a1 2e 3e
       0.13956654 -0.16425076 -0.25572488 0.17053734
000100 14 28 0d be 28 33 f9 3d 1c 43 db bd 39 c0 5a bc
       -0.1378482 0.121679604 -0.107061595 -0.0133514935
000110 1c 19 6e be ed ba 92 bd fe 8e 07 3c 08 7c fe bd
       -0.23251766 -0.071645595 0.008273838 -0.12426001
000120 a0 df 47 3d 02 a2 f7 3d bb ef 25 3e 70 ba 1c be
       0.04879725 0.120914474 0.16204731 -0.15305495
000130 b3 aa ed bc b0 15 52 3d 9e c5 bc 3d e6 dc e2 3d
       -0.02901206 0.051290214 0.0921738 0.11077289
000140 40 f0 56 3c f5 47 f8 bd 80 69 b9 bd 49 ce 5d be
       0.0131188035 -0.121231 -0.09053326 -0.21660723
000150 0d 79 db bc 03 ac 82 be 4a dd ba bd 07 f9 f8 3d
       -0.02679112 -0.2552186 -0.09124239 0.12156873
000160 fa 5c f9 3c ed 1c 8e be 13 57 bd bc 1a 45 90 be
       0.030439842 -0.27756444 -0.02311281 -0.2817772
000170 78 eb 95 be ee 29 42 bd 2a 2c a4 3d f6 f1 8d be
       -0.2928121 -0.04740327 0.08016236 -0.27723664
000180 08 11 b5 3d 98 12 35 be 46 cc 68 be 86 29 89 3d
       0.08841139 -0.17682874 -0.22734174 0.06697373
000190 4c 19 22 bd 4d 2d 47 bc c0 04 93 3d 89 4e 63 be
       -0.039574906 -0.012156797 0.0717864 -0.22197928
0001a0 8a e8 81 bd 2d db 45 be cc 02 21 be a3 b5 dd 3d
       -0.063431814 -0.1932189 -0.15723723 0.1082566
0001b0 a9 b1 61 be 0d a0 d8 bd 86 a8 ba bd 3b bc 48 be
       -0.22040428 -0.10577402 -0.091141745 -0.19603054
0001c0 4a dc 94 be 63 df 85 3d f7 4f 11 be ab 79 1a be
       -0.29074317 0.06536748 -0.1419066 -0.15085475
0001d0 2b f2 d0 3d 96 27 80 bd 78 dd af be 5a b3 8b be
       0.1020244 -0.062575504 -0.34348655 -0.27285272
0001e0 e7 2a 2a be a9 90 21 3e b3 d6 23 bd 12 d8 28 bd
       -0.16617928 0.1577784 -0.039999675 -0.041221686
0001f0 34 68 35 be 43 72 e8 bc dc 30 29 3e 55 79 9d be
       -0.17715532 -0.028374797 0.16522545 -0.30756631
000200 9c 04 b1 bd a4 c2 c8 bd 4e cb a4 3c 8a 6e f2 bd
       -0.08643457 -0.0980275 0.020116474 -0.1183749
000210 e5 42 fa 3c bd 27 af be d9 7a 59 3e ee 54 80 3d
       0.030549476 -0.34210005 0.21238269 0.06266199
000220 c5 f6 c6 bd 6e f8 b3 be d7 f4 8d 3d d0 04 4d be
       -0.09715036 -0.35150474 0.06931465 -0.20021367
000230 74 c9 96 bd cb 2b 66 3b b5 0b 53 be 68 81 64 bd
       -0.07362643 0.0035121317 -0.20609935 -0.055787474
000240 44 fe b1 3d 6d 00 ac be 58 dc fc 3c 9a b2 8e bd
       0.086910754 -0.33594075 0.030866787 -0.06967659
000250 09 82 a2 3c 0b 2c 44 be e5 5e 61 be 36 5b 85 be
       0.019837396 -0.19157426 -0.22008856 -0.2604615
000260 60 07 87 3d 6d 7a 3f bd 78 9e 75 3d 8f d0 e5 bd
       0.065932035 -0.046747614 0.05996558 -0.1122142
000270 36 28 45 be 66 e6 00 3e 9b 2b 09 3e 2b da 1f be
       -0.1925362 0.1258789 0.1339554 -0.15610568
000280 51 94 8e be c4 3f 40 be 11 77 9d be 2e 42 22 be
       -0.2784753 -0.18774325 -0.30754903 -0.15845558
000290 68 b0 54 3d 50 29 33 be 3d 6d 42 3d 30 0a a3 3d
       0.051926047 -0.17496228 0.04746746 0.079609275
0002a0 ea 42 e0 3c bb fd e9 bd ea c8 8f 3d c9 43 47 be
       0.027375657 -0.11425348 0.07020743 -0.19459452
0002b0 ec bc 46 be 00 03 45 3d e0 37 8a be bf 61 87 3d
       -0.19408005 0.048098564 -0.26995754 0.066104405
0002c0 05 6d a3 be 05 6c 17 be a4 3b 84 bd e4 e1 4d be
       -0.31919113 -0.147873 -0.06456688 -0.20105702
0002d0 a1 2d 1b 3c a1 fe 07 3d b9 3e f7 3d 9f de ee 3c
       0.009471328 0.033201817 0.1207251 0.029158888
0002e0 bb c3 23 be 23 d3 87 3b 01 0f 00 3c 20 15 17 3e
       -0.15992634 0.0041450425 0.007816077 0.14754152
0002f0 bf 75 4a be be 86 45 3e 4f 4d 16 be 57 a5 8a be
       -0.19771479 0.19289681 -0.14677928 -0.2707927
000300 09 cf 7a be 99 93 7c be 87 ea 17 bd a7 2d b3 be
       -0.2449304 -0.24665679 -0.037088897 -0.34995767
000310 80 da 9f 3d 20 43 83 3d e6 1c 8a bd b4 91 4c 3e
       0.078053474 0.064092875 -0.06743793 0.19977456
000320 ea 5b 10 3e cf be 81 be 8c 7f 59 be 8b 98 15 bc
       0.14097562 -0.25340888 -0.21240062 -0.009130607
000330 14 fc 59 be 6b 19 ee bd fa a1 0b be 97 b4 10 be
       -0.21287566 -0.11625942 -0.13636008 -0.1413139
000340 47 da 02 be 00 e9 63 bd f1 08 9d bd b6 d6 2a be
       -0.12778579 -0.055642128 -0.07667721 -0.16683468
000350 90 a0 d4 bd 83 54 06 be c3 ab 5e bd cb b6 4d bd
       -0.10382187 -0.13118176 -0.054363023 -0.050223153
000360 5a cc 3e 3e 74 69 b8 bb 3a aa c3 bd 5a e7 fb 3d
       0.18632641 -0.0056278054 -0.095539525 0.12299986
000370 75 fe b8 bc c1 30 a7 bd 0b 05 c9 be 51 81 99 be
       -0.022582272 -0.08163596 -0.3926166 -0.29981473
000380 ce 5c c8 bc 90 f4 60 bc 2d 86 18 3d 39 4d d7 3d
       -0.024458315 -0.013730183 0.037237335 0.10512776
000390 06 ed 5c 3d 81 51 94 3d 1d 22 27 bd 9e 27 22 be
       0.05393698 0.07242108 -0.040804017 -0.15835425
0003a0 ed 69 02 bc 98 eb 1e bd 71 2c 81 be f8 80 1b be
       -0.007959825 -0.0387989 -0.2522922 -0.15185916
0003b0 fc b2 ca bd 0d ac b5 bd db b8 bf 3d a9 94 49 be
       -0.0989742 -0.08870707 0.0936143 -0.19685616
0003c0 e9 75 c0 bd 0a 21 13 3d df b6 10 be e2 5c 61 be
       -0.093974896 0.03592018 -0.1413226 -0.22008088
0003d0 54 48 28 bd cb 1e ff bd d0 55 8a be 14 5f f9 3d
       -0.041084602 -0.12457045 -0.27018595 0.12176338
0003e0 67 1a a6 be a2 f6 14 3e ec a4 a6 bd 61 87 66 be
       -0.32442018 0.14547208 -0.08136925 -0.2251258
0003f0 4a 50 21 be ec f0 db bd 1e f6 8e bd 40 b3 50 3c
       -0.15753284 -0.107393116 -0.06980537 0.012738049

transformer_encoder.layers.0.linear2.weight f4 [16, 512]
000000 6e 31 bc ba 0f ec 9f bc 94 47 31 3d 53 50 e0 bc
       -0.0014357993 -0.019521741 0.043281153 -0.027382052
000010 45 f1 ed 3c 04 d6 b9 3d 46 ec 85 bd 97 8c 8d 3c
       0.02904571 0.09074023 -0.06539206 0.017278953
000020 c2 53 d1 3d 8b 39 55 bc 89 b9 d2 bb 6a 5e f1 bd
       0.10221054 -0.013014208 -0.006430809 -0.11785586
000030 30 37 96 bd 5b 7d 74 3d 15 e9 93 3c 21 6a 63 3d
       -0.07334745 0.05968986 0.018055478 0.055521134
000040 b3 82 01 bd 59 cb 6f 3e d7 26 d6 3c ae ac 49 3d
       -0.031618785 0.23417415 0.026141567 0.049236946
000050 9c b9 ba bc 34 15 f3 3d d5 b2 e0 bc a3 82 3f 3e
       -0.022793584 0.118692786 -0.027429024 0.18702178
000060 cd e8 c5 3c 57 cc 6e 3e ce 91 16 bd 9b 97 e0 bb
       0.02415886 0.23320137 -0.036760144 -0.0068540103
000070 04 17 9f 3d ae 06 e1 3d 48 f9 c5 3b 27 8e 9d 3d
       0.07768062 0.10987602 0.0060416795 0.07693129
000080 82 49 f5 3d 62 27 20 3e 01 c5 6a 3d 82 8e b6 3c
       0.11976911 0.15640023 0.057316784 0.02228475
000090 a8 dd 45 bc f4 89 10 bd c5 a8 f6 bb 25 4a 1c 3d
       -0.012076773 -0.035287812 -0.007527443 0.038156647
0000a0 1d e1 97 3d 48 d0 60 3d 11 d0 84 bd 21 a0 f7 bc
       0.07415984 0.054886132 -0.06484998 -0.030227723
0000b0 c3 a0 c6 bd 72 7a 7f 3d 46 77 80 bd aa d6 78 bc
       -0.096986316 0.062372632 -0.062727496 -0.015187899
0000c0 38 b9 56 3b c6 b3 39 3c d3 ce 8b 3d a9 c6 e7 3a
       0.0032764208 0.011334365 0.06826558 0.0017683107
0000d0 b6 f2 94 3d c9 88 94 3c c6 7d 8b bd 74 a2 5d bd
       0.07272856 0.01813163 -0.06811099 -0.054110005
0000e0 e3 df 20 3d 11 40 03 bc a5 d2 32 bc 05 d1 0d 3d
       0.039276015 -0.00801088 -0.010914479 0.034623165
0000f0 75 28 4a bd 43 d0 5f 3d 08 56 c5 bc 24 ea 21 3e
       -0.04935499 0.054641973 -0.024088874 0.15811974
000100 84 67 9e 3d 4e dc 23 3e 59 98 20 bc 61 31 34 bd
       0.07734588 0.16002008 -0.0098019475 -0.043992404
000110 32 db 1a bd 4d 49 0a bd 9f bc ef bd 2c 9b 59 3e
       -0.037806697 -0.03376131 -0.117058985 0.212506
000120 6a b2 22 3d 68 73 8b bd 39 57 59 3d bd 73 7a 3d
       0.03972093 -0.06809121 0.053061698 0.061145533
000130 e6 f1 ee 3d ac ab c7 bd 97 a2 e6 3d d5 2d 77 3c
       0.11667232 -0.09749541 0.1126148 0.015086611
000140 e9 09 e5 3c a0 64 13 3d eb 92 ec bc 52 af fb 3c
       0.027958827 0.035984635 -0.02887865 0.030723248
000150 77 9e 6a 3c 54 5f 0e bd 74 0c 38 3e 1b 66 c6 3d
       0.0143200075 -0.03475888 0.179735 0.09687444
000160 9b 9e 43 bc 46 58 10 3d b9 5a 0d be b2 8c 80 3d
       -0.01193967 0.035240434 -0.13804139 0.062768355
000170 08 29 23 3e 70 2c fd 3c a8 0b 50 3e 82 b7 ad bb
       0.15933621 0.030904979 0.20316947 -0.005301417
000180 60 25 63 bd 57 03 e6 bd ea f6 0a 3e 56 7c 5d bd
       -0.055455565 -0.11231106 0.13570753 -0.054073654
000190 86 ae 12 3c 17 2a a0 3d a9 7b d3 3c 77 bd 4b 3d
       0.008952742 0.07820528 0.025815802 0.049741235
0001a0 c2 98 54 3d 93 4f 13 3e 7d 45 90 bd 23 2c a1 3d
       0.051903494 0.14385824 -0.07044504 0.078697465
0001b0 15 ce 4d bd 20 ad 00 be 25 12 fd bd ad 5b da 3d
       -0.050245363 -0.12566042 -0.123569764 0.10662017
0001c0 45 be 32 be 0d 92 a4 3c e2 1a 10 be c0 02 09 bd
       -0.17455395 0.020089174 -0.14072755 -0.03344989
0001d0 e3 dd ed 3c 1d 80 15 bd 31 77 bc bd 10 66 9d 3d
       0.029036468 -0.03649913 -0.092024215 0.076854825
0001e0 18 fa c1 3d e2 6a 2e bd 02 c3 85 3d 69 82 8b bd
       0.0947153 -0.0425824 0.065313354 -0.06811983
0001f0 07 84 ae 3c 9c 1d 2e 3e 78 bd df bb 80 50 07 bd
       0.02130319 0.17003483 -0.0068280064 -0.033035755
000200 ed e4 97 be e2 bf d3 3c 69 8d ab 3d 4f f1 f0 3b
       -0.29666844 0.025848333 0.08376581 0.007352985
000210 e7 32 21 3c 6b a5 0d 3d 05 0e ef 3b ac f2 c4 3c
       0.009838796 0.034581583 0.0072953724 0.024041496
000220 96 27 36 3c ef 89 0d 3e 11 32 b2 bc 57 d3 14 3d
       0.011117836 0.13822149 -0.02175239 0.036334362
000230 39 78 b5 3d fd 13 c7 bd 20 d5 a6 3e e5 65 f9 bb
       0.08860821 -0.09720609 0.32584476 -0.0076110237
000240 29 61 87 bd 46 de 34 bd bb 27 7f 3b b9 e6 6d bd
       -0.06610329 -0.04415729 0.0038933593 -0.058081362
000250 d9 9e 4f bb 6e cc 06 3d de 5b b7 3c e0 d3 5d 3d
       -0.0031680374 0.032909803 0.022382673 0.054157138
000260 13 37 ba bc ee bc 2e 3b fc 69 56 bd 07 6b 80 3d
       -0.02273134 0.0026662904 -0.05234717 0.06270414
000270 fe 17 16 3e ec ea 16 3e 6e c7 16 bd d9 83 33 bd
       0.1465759 0.14738053 -0.036811285 -0.04382691
000280 3d cf e3 bc de 02 ea bd 93 07 e0 3d c2 8d 4c 3d
       -0.02780878 -0.11426328 0.10938945 0.04993988
000290 59 18 a9 3d be a6 6a bd 30 06 48 3d 3c 3a 93 3c
       0.08256597 -0.057287924 0.048834026 0.017972104
0002a0 40 ac 8e 3d 88 c3 8f 3d 34 8f 74 bd e0 1a fa 3b
       0.06966448 0.070197165 -0.05970688 0.0076325983
0002b0 76 16 01 bb 8f f5 5d bd 44 50 69 3d 63 14 a4 bb
       -0.0019697226 -0.05418926 0.056961313 -0.005007313
0002c0 cf 9f 0e 3d 89 fa 1c bd f9 0c e7 bd 80 0f 04 be
       0.034820374 -0.038324866 -0.11281771 -0.12896538
0002d0 4f 1f b3 bd f7 a0 4b bd 6c 01 74 3d a0 8f b1 3d
       -0.08746206 -0.049714055 0.05957167 0.086699724
0002e0 ab fa e9 bd dd 63 f3 3d 3a a1 e7 3d 55 99 14 bd
       -0.11424764 0.11884282 0.113100484 -0.03627904
0002f0 bb 15 4c 3d 26 07 88 3c 95 dd 60 3d ba 5a d3 3a
       0.04982541 0.016604971 0.054898817 0.0016125061
000300 3c e0 bc bd 0f 2e b7 3c fb 23 24 3d b3 09 e5 bd
       -0.09222457 0.02236083 0.040073376 -0.111834906
000310 82 93 a0 3c e4 b9 59 bd ef ae 1f bd 02 b1 2d bd
       0.019601587 -0.053155795 -0.03898519 -0.042405136
000320 1f 99 00 3e 74 96 5c 3d af 4f 3c 3d 23 d6 2a 3c
       0.12558411 0.05385442 0.04597443 0.010427031
000330 04 a3 83 3d 12 32 d7 bc 5f 46 9a 3c f4 78 06 3d
       0.06427577 -0.026268993 0.018832384 0.032830194
000340 63 2a a0 3c f7 91 34 3d b4 a9 ce 3c 48 69 5b bd
       0.019551462 0.044084515 0.025227405 -0.0535672
000350 9f be 89 bd 83 27 9d 3d 54 ea 05 bb ed 1c 7e 3d
       -0.06725811 0.07673552 -0.002043386 0.062039305
000360 af 1e 36 3b 7f 4f 8c bd c5 2c a4 3c b9 bc 64 be
       0.0027789285 -0.068511 0.020040879 -0.22337617
000370 1d 73 3e 3d 7c 7b 64 bd e3 f0 d1 bc bd 31 8d bd
       0.0464965 -0.055781826 -0.025627559 -0.068942524
000380 38 6a 81 bc e4 c2 09 3d 88 62 91 3c 5a ad 3a 3d
       -0.01579772 0.033633128 0.017747179 0.045575477
000390 de c1 50 3d 1b 12 45 bd 5f 21 72 bd 6d 4e 9b bd
       0.050966136 -0.04811297 -0.059113856 -0.07583318
0003a0 f6 52 55 3a 30 c0 d6 bc 6b 9f a7 3d c4 81 50 3d
       0.00081376673 -0.026214689 0.081847034 0.050905004
0003b0 d1 db 1d bd ef c9 ee 3d 96 5f 8b 3d 7b 12 bb bc
       -0.03853971 0.116596095 0.06805341 -0.02283596
0003c0 1b 8e 0d 3c 80 96 cd 3d 33 df 0a be 48 f4 d1 3c
       0.008639838 0.10038471 -0.13561706 0.025629178
0003d0 8b ae 04 3d ed ef 63 3c d9 9c 56 bd fd 15 8e bd
       0.03239302 0.013912183 -0.052395675 -0.06937788
0003e0 5d 43 1b 3e 09 3f 76 bc f9 30 a8 3c cb 9b 79 3d
       0.15162416 -0.015029677 0.020531164 0.06093959
0003f0 89 18 04 bd 79 b3 3a bc 56 57 fb bd dd ba 34 bc
       -0.03224996 -0.011395329 -0.122725174 -0.01103088

transformer_encoder.layers.0.linear2.bias f4 [16]
000000 14 cc 3c bd 9f f7 e3 3c 25 6d 01 3d f9 ef 4a bd
       -0.04609306 0.027828036 0.03159823 -0.049545262
000010 a5 3f 34 bc 22 aa 8c bc a6 33 97 3b cc 25 e3 bc
       -0.011001502 -0.01717097 0.0046143113 -0.027727984
000020 84 0f 08 3d f6 db fa bc 6b 0d a1 bc b3 76 2d 3d
       0.03321792 -0.030622464 -0.019659718 0.04234953
000030 1f 83 14 bd 28 96 17 bd 2d 55 a5 bc 65 17 9c 3c
       -0.03625786 -0.037008435 -0.020182217 0.019054124

transformer_encoder.layers.0.norm1.weight f4 [16]
000000 1f aa 7f 3f 0d 6f 7c 3f 22 bc 84 3f 30 b1 82 3f
       0.9986896 0.9860695 1.0369914 1.0210323
000010 98 a0 7f 3f 3f ec 82 3f 17 d1 73 3f 5e f6 6e 3f
       0.9985442 1.0228347 0.9524092 0.93344676
000020 90 7b 81 3f 0d e6 85 3f f0 e5 81 3f e6 b7 80 3f
       1.0115833 1.0460831 1.0148296 1.0056121
000030 8f e0 85 3f dd 88 80 3f 7b 8e 77 3f 80 e9 87 3f
       1.0459155 1.0041767 0.9670178 1.0618134

transformer_encoder.layers.0.norm1.bias f4 [16]
000000 e7 0d e0 b9 a5 4b dc 3c e6 53 82 bb 63 07 1b 3d
       -0.00042734967 0.026891539 -0.0039772866 0.03784884
000010 da 72 bd bb 13 5a 46 39 85 0d 87 3d c2 e7 9c bc
       -0.0057815136 0.00018916307 0.065943755 -0.01915348
000020 1c 29 bb 3c 97 35 0e 3d 26 6b da bc 25 fa 8d bc
       0.02284675 0.034719076 -0.02666242 -0.017331192
000030 6f d5 5c bc e9 fd 7c 3c de 75 5b 3d 45 57 20 3c
       -0.013478621 0.015441396 0.053579204 0.009786432

transformer_encoder.layers.0.norm2.weight f4 [16]
000000 6d 37 81 3f 27 be 78 3f 22 20 81 3f 50 e4 59 3f
       1.009504 0.9716515 1.0087931 0.85114
000010 ab 39 7f 3f 9a 10 85 3f 24 8f 82 3f a9 8e 69 3f
       0.9969737 1.0395691 1.0199933 0.9123331
000020 9f 18 71 3f e2 54 7e 3f e3 87 87 3f c8 62 7c 3f
       0.94178194 0.9934827 1.0588344 0.9858823
000030 0d 17 87 3f e5 dd 88 3f 2c a0 77 3f c3 ca 71 3f
       1.055391 1.0692717 0.9672878 0.94450015

transformer_encoder.layers.0.norm2.bias f4 [16]
000000 67 c7 a4 bc ee 67 3f 3c cb 8a 87 3c 80 7c 64 bb
       -0.020114614 0.011682494 0.016545674 -0.0034864247
000010 c3 b0 7b bc db 37 5b bc a9 8f 58 3d a9 61 aa bb
       -0.0153619675 -0.013380016 0.05287138 -0.0051996303
000020 38 40 3b bc c6 1f 0e 3d 5a df 17 bd cc 46 ce bc
       -0.011428885 0.03469827 -0.03707824 -0.025180243
000030 0e 3d 89 bc a2 d7 84 bc 25 d8 40 3c 9d 0d ce 3a
       -0.016752746 -0.016216103 0.011770283 0.001572061
