embedding_autoencoder_transformer/transformer_classifier_samples_100.pt (torch, 239346 bytes, 41 tensors)

embedding.weight f4 [16, 16]
000000 0c c8 33 3e 33 cf 58 3e fe b9 87 bd 6c 22 6a 3e
       0.1755678 0.2117279 -0.06627272 0.22864693
000010 ca a0 18 bd c8 0d 3f 3d 23 32 de bd f9 2f 00 3e
       -0.037262715 0.046644002 -0.108494066 0.125183
000020 91 ac 55 3e ad e3 38 be 9f 2d 82 3e 69 9b 75 3d
       0.2086661 -0.18055601 0.2542543 0.059962664
000030 0c 8c 46 3e 15 23 12 3d 4d 46 d7 3d e5 2c 2b bd
       0.19389361 0.035677988 0.10511456 -0.04179086
000040 2f d5 60 3e 46 54 0a 3d 24 74 ee bd f7 7b 5b 3d
       0.21956323 0.033771776 -0.11643246 0.05358502
000050 8a 3f ca bd 51 5e 30 bd 8d 59 cb bd c4 0f 2f 3e
       -0.098754 -0.043058697 -0.0992919 0.17095858
000060 25 85 4b be 1c 37 fe bd 11 0b 2e bd 4e 76 48 be
       -0.1987501 -0.12412855 -0.042491022 -0.1957638
000070 80 fb 2c 3d f5 40 74 be 94 00 7e 3e f1 c1 6b be
       0.042232037 -0.23852904 0.24804908 -0.23023202
000080 67 1f 64 3e 94 c4 d2 3d 7c c4 0a be 3f 3a 1b 3e
       0.22277604 0.102914006 -0.13551515 0.15158938
000090 9d cd 72 3c fb cd 38 3e 61 6b 2e 3d 9a 5f ce bd
       0.01481953 0.18047325 0.042582873 -0.10076828
0000a0 43 a9 76 3d b0 c9 fc bc 52 f4 ea 3d c6 89 5f 3e
       0.060220014 -0.03085789 0.11472382 0.218299
0000b0 b6 bc 10 3e dc 56 e8 bd 2b 0b 06 3e 08 1e 44 3d
       0.14134488 -0.11344692 0.13090198 0.047880203
0000c0 13 f2 22 3e 50 27 be bd 13 e8 99 be 4c 5f c3 bd
       0.15912656 -0.09284842 -0.3005987 -0.09539661
0000d0 b8 62 52 be b3 8c 4e 3e 71 ce ae 3d b0 c8 9e 3d
       -0.2054547 0.2017086 0.08535469 0.07753122
0000e0 19 2c 95 3d 2f 7d ed 3c 15 ea 40 3e 5f 27 26 be
       0.072838016 0.028990356 0.18839295 -0.16225956
0000f0 a7 94 7e 3c a5 6e 3a be 1a 05 50 3d 85 98 b2 bd
       0.015538371 -0.1820627 0.050786115 -0.08720497
000100 1d 04 49 3d 4b 1a dd bd ba 7b 89 3e c9 e9 0a be
       0.04907619 -0.107960306 0.26852208 -0.13565744
000110 e8 a9 15 be 42 de 07 be 10 dc 66 3e e1 d1 a8 3d
       -0.14615595 -0.13268378 0.22544885 0.08243156
000120 3c 02 6d 3e 0e 31 63 be 3e e7 85 be 12 d4 44 be
       0.23145384 -0.22186682 -0.26152986 -0.19221523
000130 b6 5b 35 be f8 9b e9 3d b2 04 cc 3d 68 84 4a 3e
       -0.17710766 0.11406702 0.09961833 0.19777071
000140 02 28 0e be 1b 8e 27 be 47 91 ac 3d cf d6 f2 bd
       -0.1388245 -0.16362803 0.08426147 -0.11857378
000150 23 fa 20 3e 68 0a a2 bd 57 dc d5 3d 4a a6 29 be
       0.1572042 -0.07912141 0.10442417 -0.1656734
000160 5e 73 c9 bd cc c7 7f 3d f5 4e 06 3d 22 09 72 bd
       -0.09836458 0.0624464 0.032790143 -0.05909074
000170 b4 8f 13 3e da e4 13 3e 02 86 26 be 71 7b b5 bd
       0.14410287 0.14442769 -0.16262057 -0.08861435
000180 d5 84 40 3e 15 f0 2d bd 55 de aa bd 54 a8 81 be
       0.18800671 -0.04246529 -0.08343188 -0.25323737
000190 b8 5a 2b be 88 4f 89 3d 43 f0 cd 3b 25 bb 74 be
       -0.16733825 0.067046225 0.006284745 -0.23899515
0001a0 58 d0 78 bc af 04 00 be 27 d9 85 be 38 ee f3 bd
       -0.015186392 -0.12501787 -0.26142237 -0.11910671
0001b0 8f c3 61 be 7e de 13 be 33 22 66 3e f8 69 82 3d
       -0.22047256 -0.14440343 0.22473983 0.06367868
0001c0 cb 08 55 3d 5b ea 92 be 71 44 f7 bd a1 82 9e bd
       0.05201034 -0.28694424 -0.12073601 -0.07739759
0001d0 3d 32 80 3d 78 c0 5a be 3c 88 07 be 76 32 d4 bd
       0.06259582 -0.21362484 -0.13235563 -0.10361187
0001e0 00 ed ee 3b e0 79 01 be 9e 58 68 bc 2c d3 35 be
       0.007291436 -0.12644148 -0.014181284 -0.17756337
0001f0 ce 19 36 be ca 96 0e be 66 40 8e bd d0 b9 49 be
       -0.17783281 -0.13924709 -0.06945877 -0.19699788
000200 90 49 37 3e 1d cf e2 bd 21 7f 8f 3e 20 ae b8 3d
       0.17899156 -0.1107466 0.2802668 0.09017587
000210 d4 f3 59 be 34 66 3e 3e 15 f7 9e bd 19 5e 8f bd
       -0.2128442 0.18593675 -0.07761971 -0.070003696
000220 d2 3c 42 be 59 92 93 be 83 b7 8a 3d 9f f2 24 bd
       -0.18968514 -0.28822592 0.06773283 -0.040270444
000230 84 5b a9 3d a0 5d 52 be af c7 4b 3e df 64 46 be
       0.08269408 -0.20543528 0.19900392 -0.19374417
000240 00 a6 7a bd c2 98 a4 3c 0d c4 2b 3e 43 89 51 3e
       -0.061193466 0.020092372 0.16774006 0.20462517
000250 b1 f2 73 3e c7 d9 33 be e7 25 4d 3d dd 65 a5 bd
       0.23823048 -0.17563544 0.050084975 -0.080760695
000260 bc 32 55 bc 18 8b 44 be 7c 9c 51 3e 96 e9 3a be
       -0.013012584 -0.19193685 0.2046985 -0.18253168
000270 1f 71 ff 3d 6a 8f bd 3d e5 eb a2 3d 39 be 19 be
       0.12472748 0.0925587 0.079551496 -0.1501397
000280 dd e4 86 3e cb ef eb 3d 37 5a c2 bc fd 9c 67 be
       0.26346484 0.11520346 -0.023724658 -0.2261848
000290 b1 8e bc 3d c0 95 76 bd 71 f8 dc bd cc 5c 52 3e
       0.09206904 -0.060201406 -0.10789574 0.20543212
0002a0 3a 9f 46 3d fc bb df bd cf 3d ee bd 94 2b e4 bc
       0.048491694 -0.10924527 -0.11632883 -0.02785281
0002b0 ee f2 15 3e ca 6a 83 bd 48 aa 1a be 55 bb a3 bd
       0.14643452 -0.06416853 -0.1510402 -0.07994715
0002c0 02 a2 37 be 67 84 e5 3d e8 0c 18 3e 60 c8 7f be
       -0.17932895 0.11206894 0.14848673 -0.24978781
0002d0 1b f6 36 3d d0 8e f0 3d 2a 70 94 3d b6 78 fc bd
       0.0446683 0.11745989 0.07247956 -0.12327711
0002e0 11 3d 09 3e 96 2c 20 3e 0d 1f b3 3d 9b 09 15 bd
       0.13402201 0.15642008 0.08746157 -0.036386114
0002f0 d8 35 51 bd 9b 58 a3 3c 9d 45 68 bd 83 0c 6c bd
       -0.05107674 0.019939711 -0.056707013 -0.05762912
000300 90 c5 14 3e 99 e1 77 3e ce 85 9c bd 65 54 dc bd
       0.14528489 0.24207152 -0.07642709 -0.107582845
000310 ac f5 de 3c 36 a5 7d bd 7c 4e 86 3d fe 57 6c 3d
       0.027216755 -0.061925136 0.065579385 0.057701103
000320 b0 af 6c be a5 4e b6 bd a3 92 78 3e e3 d8 70 3d
       -0.23113894 -0.08901719 0.24274687 0.05880059
000330 0b cd b4 3c eb f0 0c be 85 99 e3 bd 34 d4 3d be
       0.022070428 -0.13763778 -0.11113266 -0.1853798
000340 f8 00 51 bd 33 94 c0 3d 1a 50 04 3e d5 70 eb 3d
       -0.051026314 0.09403267 0.12921181 0.114961304
000350 0b b9 45 be c1 f7 0f be 12 89 63 bd 76 23 85 3e
       -0.1930887 -0.14059354 -0.055550642 0.26003617
000360 0a 68 41 3d 16 77 92 bd 15 f8 f1 3d bc e7 d8 bd
       0.04721836 -0.0715162 0.11814896 -0.10591075
000370 0d 42 0f be cc b4 2c 3e 63 00 f5 bd e9 21 78 bd
       -0.1399004 0.16865844 -0.119629644 -0.060579214
000380 5a cc 8a be 90 48 de 3d 25 86 7d 3e b2 b4 d9 3d
       -0.27109033 0.10853684 0.24758203 0.10630168
000390 43 37 2e be 4a dd 6e be df 80 4e be f1 ec 47 3e
       -0.17013268 -0.23326603 -0.20166348 0.1952398
0003a0 f6 a7 f3 3d 12 99 28 3e 36 e9 0e 3e cf dc 87 3d
       0.118972704 0.16464642 0.1395615 0.06633913
0003b0 31 57 e6 bb db c1 37 be d7 8c 47 be 00 62 7e be
       -0.007029437 -0.17945044 -0.1948732 -0.24842072
0003c0 28 cf e9 3d b3 47 b4 bd ac d7 be bd 3b b0 1c be
       0.11416465 -0.08802738 -0.0931848 -0.15301602
0003d0 aa 44 5d bd 8b 22 4a be 65 0d 30 be bb b3 b0 3d
       -0.05402056 -0.1973974 -0.1719261 0.08628031
0003e0 9e ac 93 bd 48 09 28 3e f0 a3 93 bd a6 6b 39 be
       -0.072106585 0.1640979 -0.07209003 -0.18107471
0003f0 13 8c 1f bd 92 a1 0e be 96 87 b5 bd f0 2a 5c be
       -0.038951945 -0.13928822 -0.088637516 -0.21500754

embedding.bias f4 [16]
000000 c9 c8 09 3e fc 58 30 be b7 8a 06 3e c3 87 e9 3d
       0.134555 -0.17221445 0.13138853 0.114028476
000010 28 c6 29 3e 11 d7 1c be 07 0d 1e 3e 48 99 e8 bd
       0.16579497 -0.15316416 0.15434657 -0.11357361
000020 05 6c b2 3d a3 51 62 3e 15 7b db bc fe f6 2e 3b
       0.08712009 0.22101454 -0.026792089 0.0026697512
000030 2c 33 1f bd b1 17 50 be 1f b0 e2 3d 42 ca 6a be
       -0.03886716 -0.20321538 0.11068749 -0.22928718

transformer_encoder.layers.0.self_attn.in_proj_weight f4 [48, 16]
000000 bd 85 93 3e a7 55 ee 3c 88 96 35 3e 57 5f 73 3e
       0.28812972 0.029093577 0.17733204 0.23766838
000010 bd 1e 7d 3e 30 8f d8 bd 8d 3f 8c bd ae 1a 17 3e
       0.24718757 -0.10574186 -0.06848059 0.14756271
000020 62 1b ab bd 27 d1 12 3e 92 fe 88 bd d8 a7 54 be
       -0.08354832 0.14337598 -0.066891804 -0.20767152
000030 92 3e ff 3d 38 48 40 3d f7 c9 0b 3e 05 bf 9b 3e
       0.12463106 0.046943873 0.13651262 0.30419174
000040 7b 0f 56 3e cc 9c 94 3e 07 40 86 3c 6e da 86 be
       0.20904343 0.29025877 0.016387952 -0.26338524
000050 00 f4 5b be 70 c2 42 be a6 26 8a be 93 28 1d be
       -0.21479797 -0.19019485 -0.2698261 -0.15347509
000060 a2 50 90 be ce a2 90 be a6 5a 3b be ec 8b 9a be
       -0.28186518 -0.2824921 -0.18296298 -0.30184877
000070 96 73 40 be 64 1b ef 3d 93 c0 82 3e a3 87 ba bd
       -0.18794093 0.11675146 0.25537547 -0.09107902
000080 b4 66 b6 bd b3 69 27 3e 5b b0 1a be da 3f 14 be
       -0.08906308 0.16348915 -0.15106337 -0.14477482
000090 90 2d 41 3e 76 97 88 be 7a 59 19 3d 46 7c 8a 3e
       0.18865037 -0.26678056 0.037438847 0.27047938
0000a0 60 11 57 3d 13 87 aa 3d 8f 99 36 be 28 6c 8a bb
       0.052506804 0.083265446 -0.17832015 -0.004224319
0000b0 90 ea 89 3c 82 e7 99 3d 32 a5 f3 3d 32 38 88 3e
       0.01683548 0.0751486 0.11896743 0.26605374
0000c0 24 52 6f be 6b 5f 16 3c 40 a7 1c be a7 06 78 be
       -0.23371178 0.009178023 -0.15298176 -0.24221288
0000d0 62 db c8 bc 0e fe 89 be cd d0 5a 3e 72 3f 11 3d
       -0.024518672 -0.2695164 0.21368714 0.035460897
0000e0 68 fb 28 be c0 d8 23 3e 77 5e 94 be ca 8c f2 bd
       -0.16502154 0.16000652 -0.2897832 -0.1184326
0000f0 69 54 74 bd 8e 36 85 be 81 5f 47 be e5 b2 4c bd
       -0.059650812 -0.26018184 -0.19470026 -0.049975295
000100 27 e6 6d 3e 10 62 97 3e 87 7d 47 3e 16 38 3b be
       0.23232327 0.29567003 0.19481479 -0.18283114
000110 fc 1e 4d be 4f cf 88 3e 2e ce dd 3d 40 47 05 3c
       -0.20031351 0.26720664 0.10830341 0.008134663
000120 aa b9 29 3d a0 fc 7b be 8d 5e d1 bd 37 e8 96 3e
       0.04143683 -0.24608088 -0.10223112 0.2947404
000130 d0 a7 9a bd a7 a6 7b bc 37 2b 82 be bf 64 2f be
       -0.07551539 -0.015359557 -0.25423595 -0.17128275
000140 40 df cc bb 4a c1 42 be 78 86 1b bd 10 31 ff 3d
       -0.0062521994 -0.19019046 -0.037970036 0.1246053
000150 a5 58 99 be 48 3f ba 3d cb 4f 4f be 5c 05 19 be
       -0.29950443 0.09094101 -0.20245282 -0.1494345
000160 ef bc f0 3d 3c 4c 79 3e 2c 62 ab bd 47 ba 00 be
       0.11754786 0.24345487 -0.08368334 -0.12571059
000170 31 c1 8d be 34 ad 21 be 73 45 89 be 88 84 8f bd
       -0.27686456 -0.15788728 -0.26810798 -0.070077
000180 f1 e9 7f 3d 1c df 92 be 2d e0 88 3e 74 b5 44 3e
       0.062478963 -0.28685844 0.26733533 0.19209844
000190 7d 77 99 be 28 c1 15 be 9e 85 cc 3d 61 d6 80 bd
       -0.29973975 -0.14624465 0.09986423 -0.062908895
0001a0 f0 ab 08 bd da 90 0d be 53 d6 7b 3e ed 43 2f be
       -0.033367097 -0.13824788 0.24593477 -0.17115755
0001b0 e7 00 82 3e fa d6 a1 3c f6 1b 7c 3d 30 99 74 3e
       0.25391313 0.01975583 0.061550103 0.23886561
0001c0 91 a3 4e bd 47 82 32 be 50 d6 4a bd 1b 4b 7e 3e
       -0.050448958 -0.1743251 -0.04952079 0.24833338
0001d0 87 a3 68 be 1e 55 8e 3d d2 11 9a be 0c 63 24 3e
       -0.2271863 0.069498286 -0.3009172 0.16053408
0001e0 92 ae e7 3d c0 a9 54 3c 23 91 06 3e e0 8d b4 39
       0.113125935 0.012979925 0.13141303 0.0003443798
0001f0 cd 7e 2d 3e 53 33 78 be 65 2c 38 bd ad 16 0b 3e
       0.16942902 -0.24238329 -0.044964213 0.13582869
000200 8f 1c 9c 3e 3e b6 1f 3e 91 fe 63 be 78 23 71 3e
       0.30490538 0.15596864 -0.22265078 0.23548687
000210 dc d5 8b bd 6d e3 85 bd c4 7c 8e be 5e 6b 45 bd
       -0.068279 -0.06537519 -0.27829564 -0.048198096
000220 80 c5 5d 3e 17 e2 2e 3d 99 9e 36 be 01 05 c1 3d
       0.21657372 0.042696085 -0.17833938 0.094247825
000230 f8 10 c9 bd ae 20 8f 3e 23 11 88 be 6d 13 c6 bd
       -0.0981769 0.2795462 -0.26575574 -0.09671674
000240 d3 5e 97 be 77 f5 f6 bd a2 ae c5 3d 14 e8 96 3e
       -0.29564533 -0.120585375 0.09652449 0.29473937
000250 c6 a0 52 3d 2e b0 99 3e fb 5f 75 3d dc 13 35 3e
       0.051422857 0.30017227 0.059905987 0.17683357
000260 53 59 7b 3e a5 0b 83 3e 29 7e 2f be 5d 21 90 3e
       0.24545793 0.25594822 -0.1713797 0.28150454
000270 b2 ed 3d 3e 2d 9a 12 be ac 9e 15 be ef 7c 83 be
       0.18547705 -0.14316626 -0.1461131 -0.25681254
000280 01 7b 9d 3d a4 22 7e be de 71 04 3e ee 06 c6 3d
       0.07689477 -0.24817902 0.12934062 0.096692905
000290 27 33 88 be 80 e0 aa 3d e4 ff cb bc 6c 3a 0f 3e
       -0.26601526 0.08343601 -0.024902292 0.1398713
0002a0 28 e7 33 3e 78 d9 9b be 6b c5 8f 3e c0 78 83 3e
       0.17568648 -0.30439353 0.28080305 0.25678062
0002b0 2b 80 f9 3d 7d 47 8f be 91 00 e0 bd f3 ba b5 bd
       0.12182649 -0.2798423 -0.10937608 -0.08873548
0002c0 d2 27 a1 bd 39 cf 30 3e e6 fb e3 3d 2a 60 78 3e
       -0.07868923 0.17266549 0.1113203 0.24255434
0002d0 1e da ea bd a5 08 d3 3d b6 1b df 3d e7 85 82 be
       -0.11467384 0.10304383 0.10893957 -0.25492784
0002e0 43 11 98 be 92 b0 22 be 23 a1 56 3e 13 97 93 be
       -0.2970067 -0.15887669 0.20959906 -0.28826198
0002f0 a2 74 88 be 6f a4 2f 3e 3b 29 29 3e a0 ec 80 3e
       -0.26651484 0.1715257 0.16519634 0.2518053
000300 11 b3 6c be d9 79 65 be d0 d6 20 3e 62 54 88 3e
       -0.23115183 -0.22409762 0.15706944 0.2662688
000310 99 99 3b 3e a6 76 44 3d 8d aa ce 3d c6 ca 94 3e
       0.18320312 0.047964714 0.10091124 0.29060954
000320 3f 4b 4a be 34 59 0e be a2 4e 5b 3e 6a 88 56 be
       -0.19755267 -0.13901216 0.21416715 -0.20950475
000330 11 e3 2c be a6 e0 64 3e af da c5 3d 5c 96 ca 3d
       -0.16883494 0.22351322 0.09660851 0.0989196
000340 80 e3 04 be 43 76 8a bb 87 7a 8f 3e 98 30 3c be
       -0.1297741 -0.0042255237 0.28023168 -0.18377912
000350 cd c3 1d 3b f1 1d 15 3e 5d 73 58 be b3 3f 98 3e
       0.0024073005 0.14562203 -0.21137758 0.297361
000360 2f a5 1c be fb 94 96 bd 95 aa a9 bd 53 51 4c be
       -0.15297388 -0.073526345 -0.08284489 -0.19952898
000370 8b d4 99 be 7b c9 30 3e 9a 98 a6 3d 14 d4 92 be
       -0.3004497 0.17264359 0.08134575 -0.28677428
000380 a1 cc 49 be 9f f1 9a 3e 1a b0 ef 3d b5 9b fb 3d
       -0.19706966 0.30262467 0.117035106 0.12285558
000390 53 96 3b be d0 73 09 be 43 51 3d bd 58 5b 65 bd
       -0.18319063 -0.13423085 -0.046220075 -0.055995315
0003a0 61 d9 56 be f1 a4 ce 3c ee 4a f9 3c e2 cc 1e bd
       -0.20981361 0.025225135 0.030431237 -0.03876961
0003b0 11 dd 2d 3d 13 8a f8 bd 2c 32 a3 3d 43 7e ec 3d
       0.042447153 -0.121357106 0.07968554 0.1154752
0003c0 a5 26 25 be 7d 72 9b be 67 1d 24 3e 3e 94 95 3d
       -0.16128023 -0.30360785 0.16026841 0.073036656
0003d0 c1 75 1f be b6 13 97 3e a2 cb 0d be bd de 53 3e
       -0.15572263 0.29507226 -0.13847211 0.20690437
0003e0 aa 10 1f 3e 5d 6f 83 be 24 36 4a 3e b2 24 90 be
       0.155337 -0.256709 0.19747216 -0.28152996
0003f0 ec b3 2d be 69 15 51 bd 44 56 53 be c7 25 99 3e
       -0.16963166 -0.05104581 -0.20638376 0.29911634

transformer_encoder.layers.0.self_attn.in_proj_bias f4 [48]
000000 00 00 00 00 00 00 00 00 00 00 00 00 00 00 00 00
       0.0 0.0 0.0 0.0
000010 00 00 00 00 00 00 00 00 00 00 00 00 00 00 00 00
       0.0 0.0 0.0 0.0
000020 00 00 00 00 00 00 00 00 00 00 00 00 00 00 00 00
       0.0 0.0 0.0 0.0
000030 00 00 00 00 00 00 00 00 00 00 00 00 00 00 00 00
       0.0 0.0 0.0 0.0
000040 00 00 00 00 00 00 00 00 00 00 00 00 00 00 00 00
       0.0 0.0 0.0 0.0
000050 00 00 00 00 00 00 00 00 00 00 00 00 00 00 00 00
       0.0 0.0 0.0 0.0
000060 00 00 00 00 00 00 00 00 00 00 00 00 00 00 00 00
       0.0 0.0 0.0 0.0
000070 00 00 00 00 00 00 00 00 00 00 00 00 00 00 00 00
       0.0 0.0 0.0 0.0
000080 b8 3b 2c 3c 1b d1 0d bc 38 94 85 bb eb 63 0d 3c
       0.010512285 -0.008655812 -0.004076507 0.008629779
000090 cb f4 84 bb 22 6b a2 bb b3 aa 1c 3c 2b d0 5b bc
       -0.004057502 -0.004956619 0.009562182 -0.01341633
0000a0 71 37 f8 bb 41 a8 a0 3c b8 cf bb 3b cb 55 86 3c
       -0.0075749685 0.01961148 0.005731549 0.016398331
0000b0 25 94 05 bb 93 49 21 bb e3 57 33 3b 72 82 68 bb
       -0.002038249 -0.0024610504 0.0027365617 -0.0035478142

transformer_encoder.layers.0.self_attn.out_proj.weight f4 [16, 16]
000000 d5 10 2d 3e 31 bb 4a 3e f2 ad 74 3e 3e 53 68 bd
       0.16900952 0.1979797 0.2389448 -0.05672001
000010 e1 74 50 be 21 9b 2a 3d 24 3a ed 3d 54 e3 82 be
       -0.20357086 0.04165185 0.11583355 -0.25564063
000020 d5 b7 73 bd b1 ef 18 be 49 6e 6d bc e2 70 c0 bd
       -0.059501488 -0.14935185 -0.014491626 -0.09396531
000030 c1 e3 99 bd 0f 93 d3 bd 64 71 58 be 65 d3 6a 3e
       -0.07514144 -0.103307836 -0.21137005 0.22932203
000040 8c e0 48 3e 03 a6 49 bd 13 34 01 bd 05 b5 d7 bd
       0.19616908 -0.049230587 -0.031543802 -0.105325736
000050 b1 f3 60 be 9f 2d 81 be ce 8f ec 3d a2 85 06 be
       -0.21967961 -0.2523012 0.11550866 -0.13136914
000060 a7 ed 44 be 7d bb fe 3c c9 1c b8 bd 41 1f b0 bd
       -0.19231282 0.03109526 -0.08989865 -0.08599711
000070 32 20 bf 3c bc 1c 16 bd 57 1d 87 bd 64 e3 df bd
       0.023330782 -0.036648497 -0.06597393 -0.10932043
000080 4b e5 36 be 5a e8 6b 3e 68 a4 b4 bd 24 72 a9 3d
       -0.17860906 0.23037854 -0.088204205 0.08273724
000090 12 53 bc bd 64 d8 e2 3c 11 61 4a 3e 2a 9d cc 3d
       -0.09195532 0.027691074 0.1976359 0.09990914
0000a0 b9 f7 76 be e3 c6 b4 3d f9 3a 6c 3e f6 b9 b2 3d
       -0.24117936 0.08826997 0.23069371 0.087268755
0000b0 01 9d 40 3e 71 6d 80 3e 89 7b ea bb e2 3c a1 3d
       0.18809892 0.25083497 -0.00715584 0.078729406
0000c0 fb 48 30 be 8a b4 21 bd cb d6 3c 3e b2 53 e9 3d
       -0.1721534 -0.039478816 0.18441312 0.11392917
0000d0 58 bf 27 be fa 98 53 be 5a 20 4e be 34 00 83 be
       -0.16381586 -0.20663825 -0.20129529 -0.25586092
0000e0 d6 dc 5a be 33 1d 42 bd b7 3d 2c 3e 90 81 9f 3d
       -0.21373305 -0.047391128 0.16820417 0.07788384
0000f0 52 da 48 be 8e 44 3e be c7 48 0a 3e d8 0c 2f be
       -0.19614533 -0.18580839 0.13504325 -0.17094743
000100 b4 c6 0e bd 23 57 e3 3d ba ba eb bd 07 cc 98 bc
       -0.034857467 0.111006044 -0.11510225 -0.018651975
000110 21 e4 13 bc 91 28 3f bd 9d 4a c8 bd 66 70 4f be
       -0.009026558 -0.046669547 -0.09779856 -0.2025772
000120 b0 49 1c be e1 22 2e be 3a b5 6c 3e cd 69 1a be
       -0.15262485 -0.17005493 0.23116007 -0.15079422
000130 8d d9 25 be e8 7a 03 3d 53 54 61 3d 04 32 f2 3d
       -0.1619627 0.032099634 0.05501206 0.11825946
000140 2f c9 28 3e d2 fe 02 3e 63 22 88 be c1 d0 51 bb
       0.16482995 0.12792519 -0.26588735 -0.0032015296
000150 b5 e0 2c 3e 25 aa c4 bc f1 c9 1d be 93 21 6b 3e
       0.16882594 -0.024006912 -0.15409066 0.22962026
000160 be 10 9b bd 26 47 25 be 13 a7 6a be 5f 5e 0d bb
       -0.07571553 -0.16140422 -0.22915296 -0.0021571142
000170 77 fc a4 3d b9 b3 60 3d 9b ad 70 3c 35 22 59 be
       0.08055966 0.054858897 0.014689828 -0.21204455
000180 b0 31 55 be 99 5a 0a 3c 80 04 7d 3e d9 d2 29 3e
       -0.20819736 0.008444452 0.24708748 0.16584338
000190 7c 80 08 be 86 a6 32 bc 3a c2 48 be 79 5b 01 be
       -0.13330263 -0.01090396 -0.19605342 -0.1263255
0001a0 94 4e 97 3d 98 26 94 3d 83 b4 3e 3e 80 38 6d be
       0.073880345 0.07233924 0.18623547 -0.23166084
0001b0 1d a9 31 3e b7 82 59 be 79 ad ef 3d dc b7 63 3e
       0.17349668 -0.2124127 0.11703009 0.22238106
0001c0 f4 1f 3f bc fa f8 57 3e a5 d1 64 be 75 69 c1 bd
       -0.011665333 0.21091071 -0.22345598 -0.094439425
0001d0 9f a6 1e 3e ca f8 88 bd 29 7e 9c bc 73 4d b5 bd
       0.15493248 -0.06688078 -0.019103127 -0.08852663
0001e0 4c 8b 3f 3e 87 d3 00 3e a8 62 8e 3d de 61 25 be
       0.18705481 0.12580691 0.06952411 -0.16150615
0001f0 d1 f2 44 be ee e6 a2 3c 6b 8a 5e 3d 1e 00 07 be
       -0.19233252 0.019885506 0.054331224 -0.13183638
000200 bd 2d 92 bd 80 7f 29 3e ec 08 22 3c 44 d8 ce 3c
       -0.0713763 0.16552544 0.009889822 0.025249608
000210 39 d0 4c bd d4 d6 7b be 02 c4 57 be 7c 3b e5 bd
       -0.050003264 -0.24593669 -0.21070865 -0.11192986
000220 e6 6d 9f bd 62 ec 49 3d d2 b9 7b bd 98 64 08 be
       -0.07784633 0.049297698 -0.06145651 -0.13319623
000230 bc 6f 79 3e bd 62 7f 3d 2a 06 30 3e 77 ba 09 be
       0.2435903 0.062350024 0.17189851 -0.13450037
000240 ff 6f be bd 40 d9 c5 3d 1e 77 22 be 49 11 15 be
       -0.09298705 0.09660578 -0.15865752 -0.14557375
000250 9e 84 48 bc 1b 9e b9 bd 38 3f 22 be 10 74 17 3e
       -0.01223865 -0.09063359 -0.15844429 0.14790368
000260 49 02 67 3e 5f 65 0d 3d f5 1a 07 bd 2c 7f 80 be
       0.22559465 0.034520503 -0.032984693 -0.25097024
000270 f3 92 ab bd 06 12 47 3d 5a ec f2 3d 5b df 07 bd
       -0.08377638 0.048601173 0.11861487 -0.033171993
000280 11 b4 cd bd e1 3c 10 3e c0 d7 47 be 89 b4 1d 3e
       -0.100441106 0.14085723 -0.19515896 0.154009
000290 71 d2 c6 bd 92 6a 32 3a 98 c7 88 bd 54 e0 f0 3c
       -0.09708107 0.00068060413 -0.066786945 0.029403843
0002a0 a4 82 02 be 5e 42 58 3e cf 27 7b bc d4 6f 51 3e
       -0.12745148 0.21119067 -0.015329315 0.20452815
0002b0 95 ac 75 3e 49 e7 c1 bd 18 03 36 be 77 40 57 3e
       0.23991616 -0.09467942 -0.17774618 0.21020685
0002c0 98 c4 49 3e e5 51 45 be 79 3f 29 bc c9 51 87 be
       0.19703901 -0.19269522 -0.0103300745 -0.26429585
0002d0 d8 9e 52 be 47 05 73 3d 64 7e 14 3d e7 5f 5f 3d
       -0.20568407 0.059331205 0.036253348 0.05453482
0002e0 37 e9 6d bd dd c5 4d 3e a8 09 f4 3c be 9c f6 bd
       -0.05808374 0.2009501 0.02978976 -0.12041615
0002f0 4d 49 74 bc 11 33 37 3d 41 0c bf 3d 77 5a 26 be
       -0.014910054 0.044726435 0.09328509 -0.16245447
000300 3b f2 c1 3d 28 4d 24 be a4 4f 3d be bb 26 1c be
       0.0947003 -0.16045058 -0.18487412 -0.1524915
000310 da 71 7a 3e 89 df 71 3e 67 8e 63 3e cc 33 36 3e
       0.24457493 0.23620428 0.22222291 0.17793196
000320 46 04 38 3e ed bb 26 bd cb 0b 2a be 1c 9f 15 3e
       0.1797038 -0.040706564 -0.16606061 0.14611477
000330 74 9e 09 be c9 a1 28 be 0a 55 9a bd ca 13 5e 3d
       -0.13439351 -0.16467966 -0.07535751 0.05421809
000340 96 e2 df 3d 89 f9 af bd 03 f0 26 be 72 12 06 3c
       0.1093189 -0.08592517 -0.16302495 0.008183109
000350 70 5b 1c be 0a 7e 42 be 58 6e ea 3d 7e fc 8e bd
       -0.15269256 -0.18993393 0.11446828 -0.06981753
000360 d8 47 54 3e ff 93 94 3e 73 e7 cf 3d 0a 7d b7 3d
       0.20730531 0.29019162 0.10151567 0.08959396
000370 7f d3 ca 3c ab f6 24 3d 9f 78 3f bd fa 1b ca bb
       0.024759052 0.040274303 -0.046745893 -0.006167886
000380 6e 5e c3 3d 39 97 68 3e ff 00 9a bd f2 60 c0 bd
       0.095394954 0.22713937 -0.07519721 -0.09393491
000390 a0 d7 8e bd 8f 5c e7 bd f6 6d 83 3d 76 14 51 3e
       -0.06974721 -0.11296951 0.06417458 0.20417961
0003a0 80 07 70 3e 9b a8 e4 3d 16 c8 37 be 60 98 0c be
       0.23440361 0.111649714 -0.1794742 -0.13730001
0003b0 c2 e8 f4 bc f8 d0 6a bd 21 ec 88 3c 91 c5 73 be
       -0.029896144 -0.057328194 0.016714158 -0.23805834
0003c0 bd c1 8e 3d 73 59 30 be 70 bd 2c be 79 96 54 be
       0.069705464 -0.17221622 -0.1686914 -0.20760526
0003d0 fa e2 4b 3e 10 66 75 be 64 ca 35 3e 83 f2 d2 bc
       0.19910803 -0.23964715 0.17752987 -0.025750404
0003e0 65 d2 4b bd f8 7a 2f 3e 7c 47 5d 39 60 e6 1d 3e
       -0.049761195 0.17136753 0.00021102832 0.15419912
0003f0 3f 6d 2c 3e fa 1e 55 be 9d 04 ab 3d d4 84 38 3d
       0.16838549 -0.20812598 0.08350489 0.04504855

transformer_encoder.layers.0.self_attn.out_proj.bias f4 [16]
000000 d6 83 bf bb 02 5a 13 3c 20 45 1d bb 71 f1 fa 3b
       -0.0058445735 0.0089936275 -0.00239975 0.0076581766
000010 ed 20 2e bc 1f 17 af 3c e1 b0 f1 bc c2 44 f4 3b
       -0.010627967 0.02137333 -0.029503288 0.0074544856
000020 8f a7 52 bc 1a 1f 8c bc 0d a9 ae 3c c3 56 9d bb
       -0.012857332 -0.017104674 0.021320844 -0.0048016026
000030 1c d6 d2 3a 2f 9d 9d 3c bd 95 a3 bc dc cd 8c 3c
       0.0016085538 0.01923999 -0.019968862 0.017188005

transformer_encoder.layers.0.linear1.weight f4 [512, 16]
000000 3c e9 80 3d c4 d4 9d bd 5e 01 6a 3e 10 36 b2 bd
       0.06294486 -0.077065974 0.22852084 -0.08701718
000010 89 cb 78 bd 8c c1 bd 3c 61 ba 3e be 3b 13 00 3d
       -0.06074098 0.02316358 -0.18625785 0.03126834
000020 57 f1 28 be b6 b7 bc bb 9a 73 8b 3c 48 77 17 3d
       -0.16498314 -0.0057592047 0.017022897 0.03697899
000030 68 98 62 be d5 c9 72 be d7 16 01 3e f7 d5 66 3e
       -0.22128451 -0.23709805 0.12606369 0.22542559
000040 66 e6 6f be ff fc 8d 3d e2 e8 32 be e5 d9 ae bb
       -0.23427734 0.06933021 -0.1747165 -0.0053360336
000050 bd 91 6a 3e a1 f4 52 3e f4 7d 3d be ac 58 08 3e
       0.22907157 0.20601131 -0.18505079 0.13315076
000060 69 31 17 3e 90 83 5f bc 35 82 66 3e 32 62 b7 bd
       0.14764942 -0.013642207 0.22510608 -0.08954276
000070 09 6a 25 bd 0d 7a db bd 7c ca 20 3d 6f fb 01 3d
       -0.040384326 -0.10716639 0.039255604 0.031733926
000080 70 34 36 3d a6 fd 9d bd 99 04 d0 bd c6 24 cb 3d
       0.044483602 -0.07714395 -0.10157127 0.09919123
000090 e8 46 83 be 58 6b 62 bd 05 c9 2c bd ce 34 9b bd
       -0.25640035 -0.055278152 -0.042183895 -0.07578431
0000a0 af 83 d9 3d 4b 3e 02 3d 15 e0 65 3e 9f ab 3e bd
       0.1062082 0.03179769 0.22448762 -0.04655039
0000b0 85 75 4a be 0f 3d 3b 3e 93 29 b7 3b e9 91 88 bd
       -0.19771393 0.18285011 0.005589673 -0.06668455
0000c0 b6 7a 1d be 8b d7 a5 3c 0d e3 65 be 1e 03 a2 3d
       -0.15378842 0.02024438 -0.22449894 0.07910751
0000d0 ee b2 0b 3e 4e cb 6d be b3 02 25 be 4c ec 35 be
       0.13642475 -0.23222086 -0.16114311 -0.17765921
0000e0 5c 2b 68 3e 45 a2 38 3e 5f 63 f9 3c 4c 73 60 3e
       0.2267279 0.18030651 0.030442892 0.21918982
0000f0 91 36 d8 bd f3 28 6c be 3d 6e fb 3d c1 63 ad 3d
       -0.10557283 -0.23062496 0.12276886 0.08466292
000100 46 e6 7c 3e e5 4b a8 3c 7d 7e 4f 3e f5 f8 27 3e
       0.24697217 0.020544002 0.20263095 0.16403563
000110 36 5f 29 3e a1 ef 7d be 56 64 60 3e 84 8d 6f be
       0.16540226 -0.24798442 0.21913275 -0.23393828
000120 72 48 44 3e e9 22 d0 bc 35 b8 43 be 6e 2a 97 3d
       0.1916826 -0.025407271 -0.19113238 0.0738114
000130 e3 26 90 bc e5 b6 69 be 32 98 d8 bd dc ba c2 3c
       -0.017596668 -0.22823675 -0.10575904 0.023770742
000140 f5 55 55 3e f7 aa 97 bd bf d8 27 3e 99 93 43 3d
       0.20833571 -0.07405656 0.16391276 0.047748182
000150 22 42 1d 3c 9b 88 08 3d 81 f8 02 be 2c 80 60 be
       0.009598287 0.033333402 -0.12790109 -0.21923894
000160 38 a6 b2 bd 21 eb 68 be 8c 72 cb bd 87 85 dd ba
       -0.0872311 -0.22745945 -0.099339575 -0.0016900756
000170 80 6b 1d be e6 3f 02 be e5 50 6e bd ee 3c 23 bd
       -0.15373039 -0.12719688 -0.058182616 -0.03985303
000180 13 90 2b be 4c f9 12 3c 55 51 85 bd f9 99 69 3d
       -0.16754179 0.00897057 -0.065096535 0.057031605
000190 7a a5 65 bb ca cf d9 bd d3 1d fe bd 21 10 82 3c
       -0.0035041259 -0.10635336 -0.12408032 0.015876831
0001a0 da 31 d7 bd 2f b3 3e 3d be 53 27 bd ac bf e7 3d
       -0.10507555 0.0465576 -0.040851347 0.113158554
0001b0 46 b0 48 3d 3a f2 43 3e 91 56 62 bc e8 6d 24 be
       0.048996232 0.19135371 -0.013814584 -0.16057551
0001c0 8e 27 d9 3d f2 fd 25 be 36 1c 0e bd 1e d7 9a bd
       0.106032476 -0.16210154 -0.034694873 -0.075605616
0001d0 6f 68 99 bd 0a 12 d3 bd 89 9e 70 3e 29 30 20 3e
       -0.07490622 -0.10306175 0.23497976 0.15643372
0001e0 b1 51 53 3d 2f 9f 64 3e bf d5 72 be 1b de 55 3d
       0.05159158 0.22326349 -0.2371435 0.05221377
0001f0 79 b4 29 3e 39 39 2d 3e 7e 20 50 be f2 ca b2 3d
       0.16572751 0.1691636 -0.20324895 0.08730115
000200 b1 3f 08 be 8d 4f 0c 3d 32 a3 6b bd ef e5 65 be
       -0.13305546 0.034255553 -0.057528682 -0.22450994
000210 7d 2f 86 be bd a7 24 be 2f 97 94 3d 24 1d 11 3e
       -0.26208106 -0.16079612 0.072553985 0.14171273
000220 1b 47 48 be bd 2a 90 bd da bd 16 3c 49 0f 6d be
       -0.19558375 -0.07039402 0.009200538 -0.23150362
000230 e3 4c f2 3d e6 5c 81 3e e1 36 3d 3d 5d 9b 2a be
       0.11831071 0.25266188 0.046194915 -0.16660829
000240 95 f3 0d 3e 98 64 26 3e e3 1d 87 3e d6 a7 00 be
       0.1386245 0.16249311 0.2638999 -0.12564024
000250 a5 5d 6d be 6a 7c 0b 3d 79 cd 37 bd 68 70 9c bd
       -0.23180254 0.034054197 -0.04487369 -0.07638627
000260 cf e7 4a bd 72 f0 09 be 88 ea 8a 3e 3d fc fa bd
       -0.049537476 -0.13470629 0.27132058 -0.12255142
000270 9a dc b6 3d 9c 34 95 3e 15 81 83 3d c9 e0 33 bb
       0.08928795 0.291417 0.06421105 -0.0027447215
000280 fb 22 1f bb c8 8c 4a 3e c1 38 41 be 28 01 e9 3d
       -0.0024282325 0.19780266 -0.18869306 0.11377174
000290 fb 0a 3f bd 0c 1c d6 3d 4d a9 bc ba b1 2f a7 bd
       -0.04664133 0.10454568 -0.0014393717 -0.08163393
0002a0 40 8b 02 bd 3d 12 30 3e 48 d7 55 be 0a 8a 29 be
       -0.03187108 0.17194457 -0.20882905 -0.16556564
0002b0 64 e1 3b bd ea ec c1 bd b5 41 98 3d 9c 9b 12 3e
       -0.045869246 -0.09469016 0.074344076 0.14317173
0002c0 d5 db 3f bd fa 03 8e 3e 13 cd 04 be ac 91 15 be
       -0.046840508 0.2773741 -0.12968855 -0.1460635
0002d0 ec 9b 16 be 2c 47 1b be 94 0c 6d be fa 66 37 be
       -0.14707917 -0.15163869 -0.2314933 -0.17910376
0002e0 52 21 4d be e8 78 9c 3d 78 d1 1d 3e 61 f5 72 3e
       -0.20032242 0.076402485 0.15411937 0.23726417
0002f0 16 84 5a 3e 09 49 8c bc 8c 36 da 3c 41 92 ed bd
       0.2133945 -0.01712467 0.026637338 -0.11600161
000300 0f 3b ce 3d 7b 95 7e be c9 e5 0e 3e e5 83 27 3c
       0.10069858 -0.2486171 0.13954844 0.010224317
000310 2a f2 5e 3d d5 e2 ba 3d f8 ea e3 bd 3c 13 3b 3e
       0.054430164 0.09125296 -0.11128801 0.18269056
000320 26 ce 18 3e 95 7f 14 3e ae da 88 bb 2e 47 23 3e
       0.1492239 0.14501794 -0.0041764593 0.15945122
000330 1a 63 4d 3e f1 55 19 3e 79 7c 68 3e 13 58 70 bd
       0.20057335 0.1497419 0.22703733 -0.058677744
000340 ec 17 1a 3e 29 3e 4e 3d f7 5a 21 3e 1e b6 7e 3e
       0.15048188 0.05035225 0.15757357 0.2487416
000350 1c bd fa 3c 04 43 a3 bd e5 b5 e4 bc 93 f8 6d 3d
       0.030607753 -0.079717666 -0.027918765 0.058098387
000360 5c 56 31 3d 71 44 a5 bd 1b 06 4b 3e 1d b9 22 3e
       0.04329525 -0.08069695 0.19826548 0.15890928
000370 21 49 fb bd 5b cb b6 bc 98 aa 33 bd a0 2d 16 be
       -0.122698076 -0.022313764 -0.043863863 -0.14665842
000380 14 06 a0 3d 23 3b 74 bd e8 f1 e7 bd af 1d 84 bd
       0.07813659 -0.05962671 -0.11325437 -0.06450974
000390 9a fe e8 bd 74 14 65 3e 6d ce 90 3d f7 a4 81 3e
       -0.113766864 0.22371083 0.070706226 0.2532117
0003a0 f2 3b 3b 3d 2a 18 26 3d e1 6c fb 3d d0 3b 11 3d
       0.045711465 0.04055039 0.122766264 0.035457432
0003b0 4d 9e 47 be 8f c0 f7 bd 40 eb 12 bd 53 20 b8 3c
       -0.1949398 -0.120972745 -0.035868883 0.02247635
0003c0 d2 69 b7 3d c6 d9 b7 3d f4 af 4e 3e 33 5f 74 3d
       0.089557305 0.08977084 0.20184308 0.0596611
0003d0 1d 75 bc bd 95 a7 3c be e1 7f 20 be 36 73 2b be
       -0.09202025 -0.18423302 -0.15673782 -0.16743168
0003e0 bc 5b ee 3c 26 4c f9 3d ab 97 6b 3e 4f 53 89 bd
       0.029096477 0.12172727 0.23007075 -0.06705343
0003f0 a2 3e 56 3c 30 e7 93 bd b2 e1 9c bc 70 d3 ac 3d
       0.013076456 -0.0722183 -0.019150589 0.08438766

transformer_encoder.layers.0.linear1.bias f4 [512]
000000 af 27 60 3e 51 55 93 3d 16 e9 c8 bd ed 44 94 3d
       0.21890138 0.07194007 -0.098100826 0.07239709
000010 64 5a 42 3c 99 2d 71 3e 11 b3 ae 3d 26 84 5f 3e
       0.011862371 0.2355255 0.08530248 0.21827754
000020 77 10 86 3c e3 b7 e9 bd b5 b7 1c be 3f a3 4f 3e
       0.016365273 -0.11412027 -0.15304454 0.20277117
000030 3c d8 5f 3e 00 bd 83 3d cf 93 4c be 4a 1d 37 3e
       0.2185983 0.06432533 -0.1997826 0.17882267
000040 c7 fd 97 3d 3a 6c 41 be d6 ac 9f 3d 5b ff 60 3e
       0.07421451 -0.18888941 0.07796638 0.2197241
000050 69 20 2f be ce a1 f0 3b 1b ca 32 3d 3f 39 d0 bd
       -0.17102207 0.0073435074 0.043649774 -0.10167169
000060 0c 34 40 3e 80 18 55 3e 79 1d 60 3e 13 c8 56 be
       0.18769854 0.20810127 0.21886243 -0.2097476
000070 45 7b a0 3c 33 b5 4f 3e 63 b2 50 3e 30 79 8f bd
       0.01959003 0.20283966 0.20380549 -0.070055366
000080 cc 89 20 3e 68 fc 3d 3e 1b 44 4d bd 63 37 4e 3e
       0.15677565 0.18553317 -0.05011378 0.20138316
000090 e1 2c 28 3e 2d de 11 bd 7e 37 c8 bd 04 18 15 be
       0.1642337 -0.035612274 -0.09776209 -0.14559942
0000a0 2b 34 48 be 3a 9f 16 be 11 9b 46 3d 4e e0 69 3d
       -0.1955115 -0.14709178 0.048487727 0.05709868
0000b0 a7 a3 8b bd 8d 54 05 bd b0 6d 31 3e 56 ae 2b 3d
       -0.068183236 -0.032551337 0.17326999 0.041914307
0000c0 11 5e 24 be 85 76 50 3e 90 bf 0e 3e 2f a8 f0 3c
       -0.16051508 0.20357712 0.13940263 0.029377071
0000d0 83 a7 d4 3d 62 30 4f be ad 65 19 3e 11 37 c7 3d
       0.10383513 -0.202333 0.14980192 0.097273
0000e0 a4 4b 02 bd b5 75 ac bd 71 08 4a 3e e1 30 36 3d
       -0.031810418 -0.08420888 0.19729783 0.04448021
0000f0 d2 32 12 be e0 50 e6 3d b2 97 94 3d f6 c0 ce bd
       -0.14277199 0.112458944 0.07255496 -0.10095398
000100 89 dc 4a 3e 19 7d 60 3e bd c0 8f bc c7 a1 d1 bd
       0.1981069 0.21922721 -0.01754796 -0.10235935
000110 05 48 1c be 80 91 03 be 36 ba e9 3d 39 88 21 3e
       -0.15261848 -0.12848473 0.1141247 0.15774621
000120 c3 5b 1d be 4e 5e 00 3e dd 38 83 ba b5 de 2b bc
       -0.15367036 0.12535974 -0.0010011453 -0.010490109
000130 08 f3 83 bd 9d 85 55 be b0 50 46 be 87 ec 42 3e
       -0.06442839 -0.2085175 -0.19366717 0.1903554
000140 07 90 3e bd aa b0 b7 bc 52 8f 19 be 88 1e 07 bd
       -0.046524074 -0.022423107 -0.14996079 -0.0329881
000150 62 7d ae bd 95 32 1a 3d f7 72 84 be 05 a1 68 3c
       -0.085200086 0.037645895 -0.2586896 0.014198546
000160 ba 10 5e be ac e0 2c be 50 7a 39 bc b4 26 2e bd
       -0.21686068 -0.1688258 -0.0113206655 -0.04251738
000170 b0 31 aa bd 08 74 03 3e 5a 47 99 ba c8 21 13 3d
       -0.083102584 0.12837231 -0.0011694238 0.03592089
000180 d5 b6 c7 3d 41 de 7f ba a0 8e 5f be c1 d2 78 bd
       0.09751669 -0.00097605964 -0.21831751 -0.060747866
000190 6d 9d 24 3e 98 d3 3f 3e 15 67 91 3d 9c 47 63 3e
       0.16075678 0.1873306 0.070997395 0.22195286
0001a0 26 3c 1b be fc 24 af bd 05 5b 02 bd 4b c4 3f bd
       -0.15159664 -0.08551976 -0.031825084 -0.04681806
0001b0 fd 29 5a 3e c8 3d 60 be ac 22 56 3d 06 e3 71 3e
       0.2130508 -0.21898568 0.05227916 0.23621759
0001c0 58 9e 16 be 05 10 3e 3e 4e 73 7d be 9e de 42 3d
       -0.14708841 0.18560798 -0.24751016 0.047575586
0001d0 d1 2e 0d be 8e 97 af 3d 52 20 72 3d ce 2f 87 3d
       -0.1378739 0.08573829 0.059112854 0.06600915
0001e0 c7 2b 7a bd 27 45 c5 bd 8e ce 64 be e9 70 35 3d
       -0.061076906 -0.096323304 -0.2234442 0.044297133
0001f0 d5 61 6b 3e de 36 27 be 0b 69 e1 bd c4 6e 83 3d
       0.22986539 -0.16329524 -0.110063635 0.06417611
000200 b1 8b dc 3d 22 e2 93 3d b1 7f 33 3e 6d dd 08 3d
       0.107688315 0.07220866 0.17529179 0.033414293
000210 06 e2 8b bd 5a 8d 63 be 36 c7 8f be 38 d4 41 be
       -0.0683022 -0.2222189 -0.28081673 -0.18928611
000220 27 7b da 3d 12 b1 70 3e a4 62 65 3e 16 d1 1f 3e
       0.10668021 0.23505047 0.2240091 0.15607104
000230 ac 32 ad 3c c2 52 1a 3e 50 c4 a9 3d 90 17 44 be
       0.021142326 0.15070632 0.08289397 -0.19149613
000240 71 c2 15 bd 9c 9c 7e be 68 3f 4e 3e a8 15 30 3d
       -0.036562387 -0.24864429 0.20141375 0.042989403
000250 d4 32 6c 3e 75 c8 09 bc 8f 00 47 3e 03 48 ff 3d
       0.23066264 -0.008409609 0.19433807 0.12464907
000260 ed fb 96 bd a5 ac 1d 3c 57 d8 28 3e 5c b8 8f bd
       -0.0737227 0.009623681 0.16488777 -0.07017586
000270 30 cf 35 3e c6 39 58 3d d8 08 a9 bd b9 4d 0e be
       0.17754817 0.052789472 -0.0825364 -0.13896836
000280 41 8c df bd c0 b8 1a 3e 40 86 35 3e 57 dd 08 be
       -0.10915423 0.15109539 0.17726994 -0.13365684
000290 c5 b0 6e be 7b bc 05 3e 4d 0a 45 bd a3 a2 75 be
       -0.2330962 0.13060181 -0.048105527 -0.23987822
0002a0 1a e4 50 3d 24 c3 87 bc 92 eb 2c 3e 4d 9e a4 3d
       0.050998785 -0.016572542 0.16886738 0.08038006
0002b0 29 5d 13 be df c3 a0 bd ba c3 17 be 92 de e4 3d
       -0.14391007 -0.078498594 -0.14820758 0.111752644
0002c0 67 d5 83 3d 2e f6 07 3e cf 0a 27 be 2f bb 01 be
       0.06437188 0.13277504 -0.16312717 -0.12669061
0002d0 91 7d 0d be 14 ac 48 be e0 ff 6c be b1 76 54 be
       -0.13817431 -0.19596893 -0.23144484 -0.20748402
0002e0 4d 4d 17 3e dd ab b1 bd 4b 0a 77 bd 9a 88 6d 3d
       0.14775582 -0.086753584 -0.06031255 0.0579916
0002f0 c9 17 82 3d 04 7a 15 3e ca 2f 2a be 0c 85 47 3e
       0.06352193 0.14597327 -0.16619793 0.19484347
000300 54 97 d0 3b c3 48 dd bd aa c9 34 3e 3c 89 6b be
       0.006365696 -0.10804894 0.17655054 -0.2300157
000310 96 71 13 be 37 82 0d 3e e1 a4 a9 3d fe 5d d5 bd
       -0.14398798 0.13819204 0.08283401 -0.10418318
000320 86 c3 7c bc 59 cc 9f bc e8 53 e7 3d e0 07 fc 3c
       -0.015427476 -0.01950662 0.11295301 0.030765474
000330 a1 95 d1 3d e1 2a 72 3e dd 65 43 be e5 be 51 be
       0.102336176 0.2364917 -0.19081827 -0.20482977
000340 6d a3 00 bd 59 c7 fb bd 59 b6 48 be 57 3d 69 3e
       -0.031405855 -0.12293882 -0.1960081 0.22777306
000350 2b 8d 4e 3e de 50 3a 3e 71 d5 1c be 82 b3 b5 bb
       0.20171039 0.18194911 -0.15315796 -0.0055450806
000360 b1 f8 3d be af df ad bd c4 83 46 3e 52 fd 11 3d
       -0.185519 -0.0848993 0.19386202 0.035641976
000370 c2 03 a9 3d a7 7a 68 be c1 ff bf 3d eb ff 12 3e
       0.0825267 -0.22703038 0.09374953 0.14355437
000380 bd 76 f2 bd a7 3f 38 3e 63 b3 d8 3d 8d f6 39 be
       -0.11839054 0.17993031 0.1058109 -0.18160458
000390 c5 98 3d be c1 6a b5 bc b1 04 8a be 25 c1 41 be
       -0.18515308 -0.02214563 -0.26956704 -0.18921335
0003a0 9d 2c bd 3d d6 10 cb bd 7f 00 43 3c a7 4b d4 bd
       0.09237025 -0.099153206 0.011901974 -0.10365992
0003b0 3b b3 22 3e 85 d7 4a 3e d1 01 26 3e 42 4f 76 be
       0.15888683 0.19808777 0.1621163 -0.24053672
0003c0 fd 7c a7 bd 7b 1e ed 3d 8d 10 1b 3e de 0c 5d bd
       -0.081781365 0.11578079 0.15143032 -0.05396735
0003d0 25 ac 0b 3e 41 51 0b 3d 39 99 e9 3c 79 30 15 3e
       0.13639887 0.034013037 0.028515445 0.14569272
0003e0 23 00 21 3e c6 4d 36 be 3a 56 1d be 07 9b c0 3d
       0.15722708 -0.17803106 -0.15364924 0.09404569
0003f0 39 4f 03 3e 8b fe 7e bd b3 96 6c 3e cc bb 34 bd
       0.1282319 -0.06225447 0.23104362 -0.04412441

transformer_encoder.layers.0.linear2.weight f4 [16, 512]
000000 38 40 10 3b 11 34 c1 bc 32 2a 83 bd 11 74 de 3c
       0.0022010934 -0.023584398 -0.064045325 0.027154954
000010 0c dc 8c bb b8 e8 f3 bb 4e 99 f5 3c e9 d0 28 3d
       -0.0042986926 -0.0074435137 0.029980328 0.041214857
000020 52 6d 2f bd 73 f0 47 bd 3a 12 1d bb 8c e4 17 3d
       -0.042828865 -0.048813295 -0.0023967163 0.037083194
000030 0a 67 be ba 90 90 b1 bc 37 36 72 bc 83 1d ce 3c
       -0.0014526558 -0.021675378 -0.014783434 0.025160557
000040 66 eb a0 3c 75 19 81 bc 6b a4 1d bc fa 21 b6 bc
       0.019643497 -0.01575921 -0.00962172 -0.022232998
000050 c9 3e 08 bd c2 cb 95 bc 2a f5 40 3c da 88 db 3b
       -0.033263 -0.018285636 0.011777202 0.0066996636
000060 3a bd 21 bc e2 ab 22 bd 42 57 88 bc 5b 1c 88 3a
       -0.009871775 -0.0397147 -0.01664317 0.0010384427
000070 e3 85 10 3d 35 e5 8f 3c 4b d8 77 bc b3 81 ac bc
       0.035283934 0.01756535 -0.015127252 -0.02105794
000080 a8 d4 3d bc 09 f0 55 bc 73 d0 3b bd 9e b1 56 3d
       -0.011586346 -0.013057717 -0.04585309 0.052415483
000090 96 9b 1f bc 4e 40 3a bc 50 91 26 bc 9b d1 ee bb
       -0.009741684 -0.0113678705 -0.010166481 -0.0072881705
0000a0 d2 dd 84 3c 69 cb 08 3d df d3 90 bd 0f 48 c3 3c
       0.016219053 0.033397112 -0.07071661 0.023838071
0000b0 6b 31 33 bc f5 1e bf 3c 4c c6 b8 bc 67 53 13 3b
       -0.010937075 0.023330191 -0.022555493 0.0022480132
0000c0 af cb d8 3c d2 42 33 3c 05 28 ea 3c 5a 36 d5 3c
       0.026464311 0.010941224 0.028583536 0.026026893
0000d0 cc 26 bb 3c 8a 01 65 bd 98 d7 0c bd 35 7e 5b bd
       0.022845648 -0.05590967 -0.034385294 -0.053587157
0000e0 f8 9a 0e bd fa ca 79 3d 59 73 b8 bc d6 b8 02 bd
       -0.03481576 0.06098459 -0.02251594 -0.031914555
0000f0 53 8b 7c bc 76 d4 af 3c bb a6 3c bd 7b 83 6c bd
       -0.015414077 0.021463614 -0.046057444 -0.057742577
000100 cd 19 3a bd af 22 ca bb d6 77 74 bb 0d c0 28 bd
       -0.04543476 -0.0061686854 -0.0037302873 -0.04119878
000110 dd 6e 20 bd 21 a5 1e bd d0 75 e6 3c d5 f7 a5 3c
       -0.039168227 -0.038731698 0.02813235 0.020259777
000120 83 f6 2c 3c b4 bc 1b bc 4b 97 c3 bc 05 23 bf ba
       0.01055682 -0.00950544 -0.023875853 -0.001458258
000130 da d4 c1 bb c9 ae b8 bc 2c 42 cf 3c 5b 6d 80 3c
       -0.0059152665 -0.022544282 0.025300108 0.015677145
000140 5e 00 56 3c 9d 9a 2c 3d c3 7e 4b 3d cf 4e 41 bb
       0.013061611 0.04213964 0.049681436 -0.0029496436
000150 31 37 22 3c 05 11 5c bd 6b 41 22 bc 10 0c 21 3d
       0.009900854 -0.05372717 -0.009903292 0.039318144
000160 e9 81 cf bb 44 1f 4e bd a5 0f 2d 3c 70 8d 33 3c
       -0.006332625 -0.050322786 0.010562812 0.010959014
000170 14 4c 7e 3c 4f 59 70 3c 5e 84 29 3c b7 a0 23 bd
       0.015521068 0.01466973 0.0103465 -0.03994819
000180 e0 f3 54 bd 3f f8 de 3c 98 9b 46 3d e6 5c b1 bd
       -0.05199039 0.027217982 0.04848823 -0.08660297
000190 bc 52 df 3c 98 bc 99 bd f1 a0 c1 3c d1 9e 4d 3d
       0.02726113 -0.075066745 0.023636313 0.050200287
0001a0 70 e6 0a 3d a5 f6 e2 3c 9c 89 0b bd b2 be d5 bb
       0.03391117 0.0277055 -0.03406678 -0.006522977
0001b0 b6 63 7b 3c eb 20 30 3d 82 50 57 3d af f8 42 bc
       0.015343597 0.043000143 0.052567013 -0.011900111
0001c0 ec ac ec 3a 4f c9 1a bd bc e4 13 bc 11 63 32 3c
       0.0018056906 -0.03778964 -0.0090267025 0.010887877
0001d0 74 e4 62 3b e0 31 b2 3c e1 66 b0 bc d0 dc 07 bd
       0.0034621032 0.021752298 -0.021533431 -0.033169568
0001e0 86 e5 fa 3c b6 93 cd ba 18 97 1d bd 61 37 54 3b
       0.030627023 -0.001568428 -0.038474172 0.0032381641
0001f0 85 c3 f6 bb 86 cf f1 b9 02 69 96 3c 20 a7 04 bd
       -0.007530632 -0.0004612172 0.018360619 -0.032385945
000200 74 0d b4 bc 96 95 08 bd 37 03 1b 3d 3e a1 ad bc
       -0.021979071 -0.03334578 0.037844863 -0.02119505
000210 1b 65 54 3d 1b 1f 0f bc 72 d0 83 3c b6 da 39 3d
       0.051854234 -0.008735443 0.016090605 0.045374595
000220 84 a9 29 bd 5f 3e 0f bd 0b d9 43 3c e2 ef 0d bd
       -0.04142143 -0.03497159 0.011953603 -0.0346526
000230 38 1f eb 3c d9 dd 72 3c b7 d9 08 3d 86 30 a2 bc
       0.02870141 0.0148234 0.033410754 -0.019798528
000240 1b 33 5b bd 82 43 55 bd 35 4a b4 bc ea d1 0f 3d
       -0.053515535 -0.052066334 -0.02200804 0.0351123
000250 10 62 82 bc 17 90 f2 3a 6e c4 42 bc d3 d0 d8 bc
       -0.0159159 0.0018506077 -0.011887653 -0.026466763
000260 f9 96 fc 3c 61 d2 15 bd c7 1b 0c bd 8a ca 09 3d
       0.030833708 -0.036577586 -0.034206178 0.033640422
000270 46 58 83 3c 6b 90 54 3c 7c 28 15 3d 83 72 18 bd
       0.016033303 0.012973885 0.036415562 -0.037218582
000280 5e d7 25 bb ed 46 4d bc e0 b1 f5 3b d6 0b 59 3c
       -0.002530537 -0.012529117 0.007498011 0.013247451
000290 08 07 ad bc 64 97 62 3d d6 f6 d3 3c 88 b3 30 3d
       -0.021121517 0.05532016 0.025874536 0.043139964
0002a0 50 c3 bc 3b 9b ad 26 bd 8b 3a 25 bd a0 73 15 bd
       0.0057605878 -0.040692907 -0.040339034 -0.03648722
0002b0 82 b6 91 3c d2 7d 02 bd 07 38 2e bd e3 5b f3 bb
       0.017787222 -0.031858273 -0.0425339 -0.0074267252
0002c0 09 cb 51 bc 0a 2b 92 bc 9d 3c 7e bd b1 76 52 3d
       -0.012804755 -0.017842788 -0.062069524 0.051382724
0002d0 2d 27 47 3d 87 0c 5c 3c 02 6b ad bc 06 93 f5 3c
       0.048621345 0.013430721 -0.02116919 0.029977333
0002e0 e9 ff da 3c b8 38 1f bd e5 ad f3 3c b0 23 c8 bb
       0.026733356 -0.03887245 0.029746005 -0.00610777
0002f0 5b 13 18 bd 48 77 f7 bc 70 11 35 3b 96 bc 12 3c
       -0.037127834 -0.030208245 0.0027628802 0.008956095
000300 39 17 1d 3d 3f ee 92 bd 53 26 f9 bc 3c 20 e7 ba
       0.038352225 -0.07174348 -0.030413782 -0.0017633508
000310 f4 00 58 3d b1 a4 de bc 39 b0 57 3c 1f 7f 59 bc
       0.052735284 -0.02717814 0.013164573 -0.013274937
000320 38 5b 31 bd 80 9d 4b bd fa a7 b6 b9 e9 11 37 bc
       -0.043299884 -0.04971075 -0.00034838897 -0.011173704
000330 25 b1 60 bc 6c c8 cd bc 52 5f 9a 3b 9c 62 5a bc
       -0.01371411 -0.025119983 0.00471107 -0.013329174
000340 1c 62 da bb 23 85 19 3d 09 74 97 bc d4 38 b4 bc
       -0.0066645276 0.037480485 -0.018487947 -0.021999754
000350 06 70 1c bd 3f 5f 9b bc 83 bd 91 bc ee 60 49 3c
       -0.03819277 -0.018966315 -0.017790562 0.012291176
000360 4d 3c a0 3c c9 1b 8d bc e2 5e ab bc 44 77 c6 bc
       0.019560004 -0.017225163 -0.020919267 -0.024226792
000370 ab 07 7e 3d 62 5d b9 3c 2e bc 11 bd 59 c2 3b ba
       0.06201903 0.022627536 -0.035579853 -0.0007162444
000380 4e 5e 72 bc 07 be a5 bc 0f 9c 9a 3c 50 a8 24 3c
       -0.014792992 -0.020232214 0.018873243 0.010049894
000390 af 9b 71 bc 5d 8e 16 bd ec e5 85 bc d2 a5 26 bc
       -0.0147465905 -0.036756862 -0.016344987 -0.010171371
0003a0 7a c9 26 bc 77 bc 49 bd 60 66 8f bc 5c de 62 bd
       -0.010179872 -0.049252 -0.01750487 -0.05538784
0003b0 60 01 03 3d e7 e5 7f bc 9e f0 0b 3d e3 30 23 bc
       0.031983733 -0.015618778 0.034165017 -0.009960386
0003c0 cc f0 80 3d ec c8 4f bc b7 7f 3a bd 71 9a 86 3d
       0.06295928 -0.012682181 -0.045531955 0.06572426
0003d0 95 ff 18 bc ba 8a 74 bd ee c4 0d 3d aa d0 a3 bb
       -0.009338279 -0.059702612 0.034611635 -0.00499924
0003e0 23 e9 13 3c da ef 03 3d 4b 4b 06 bd 3c df 95 bc
       0.009027752 0.032211162 -0.03278665 -0.018294923
0003f0 5c 93 20 3d 61 63 af 3c d8 46 c4 3b 6d b9 0d bc
       0.039203033 0.021409692 0.0059898905 -0.008650166

transformer_encoder.layers.0.linear2.bias f4 [16]
000000 2e 4e 82 3c c4 02 04 3d 67 16 66 3b c4 51 a1 bc
       0.01590642 0.0322292 0.0035108568 -0.01969231
000010 32 5f 13 bd 6b f9 cc 3c a8 45 41 3c 28 49 c7 3c
       -0.035979457 0.025021276 0.0117963925 0.024326876
000020 29 69 46 3d f6 05 ee bc 09 1d 4c 3c 43 1b 2b 3d
       0.048440132 -0.029055577 0.012458094 0.041774046
000030 c2 9a a1 bb 56 07 8c bc f2 65 ff bc c6 06 25 3c
       -0.0049317786 -0.017093342 -0.031176541 0.010072416

transformer_encoder.layers.0.norm1.weight f4 [16]
000000 4d 74 7b 3f 86 e8 86 3f 52 17 80 3f a9 86 82 3f
       0.98224336 1.053971 1.0007117 1.0197345
000010 61 42 80 3f c1 21 7a 3f ea a8 7f 3f 04 62 81 3f
       1.0020257 0.97707754 0.9986712 1.0108037
000020 fd 0f 84 3f 32 88 7c 3f bc b5 81 3f 73 ad 80 3f
       1.0317379 0.9864532 1.0133586 1.0052933
000030 05 b3 83 3f a6 13 78 3f 97 af 7e 3f e8 fc 7a 3f
       1.0289007 0.9690498 0.9948668 0.98042154

transformer_encoder.layers.0.norm1.bias f4 [16]
000000 29 cd 89 bc 5a 38 c1 bb f0 c1 46 bb 42 d9 17 b8
       -0.01682146 -0.00589661 -0.0030327998 -3.6203543e-05
000010 26 cc 1f bc de 32 ce 3c 99 f5 10 bd f6 12 8d 3b
       -0.009753263 0.02517074 -0.03539047 0.004305239
000020 40 3a 8c 3a 77 20 52 bc a4 cb 2f 3c 7a 7c 01 bc
       0.0010698512 -0.012825123 0.010729704 -0.007903213
000030 cc 28 90 ba ea 20 b3 3b 27 81 4f bc b2 e2 6c 3c
       -0.0010998487 0.00546657 -0.01266507 0.014458345

transformer_encoder.layers.0.norm2.weight f4 [16]
000000 d0 d2 7b 3f 1d b5 7c 3f 82 f1 80 3f 76 09 84 3f
       0.9836855 0.98713857 1.0073702 1.0315387
000010 4d ab 80 3f 9b 06 7e 3f 36 9f 80 3f 7d b5 82 3f
       1.0052277 0.9922883 1.0048587 1.0211636
000020 35 f2 84 3f ed 96 7b 3f e4 21 7d 3f 27 ac 80 3f
       1.0386416 0.9827717 0.9887984 1.0052537
000030 07 ca 7d 3f 75 99 7b 3f d4 3a 7d 3f 37 4b 7b 3f
       0.99136394 0.9828103 0.9891789 0.98161644

transformer_encoder.layers.0.norm2.bias f4 [16]
000000 83 aa 99 bb a4 8e 03 39 27 f4 1d bb cf b4 b2 ba
       -0.004689516 0.00012546271 -0.0024101825 -0.0013634207
000010 6d ce 61 bb f4 da de 3b 23 f3 30 bc 64 c9 97 3b
       -0.0034455315 0.0068010036 -0.010800156 0.004632162
000020 94 17 a3 bb 76 cf 07 bb 08 81 c3 3b f9 49 f9 bb
       -0.004977176 -0.0020723022 0.0059663095 -0.007607695
000030 b8 62 67 3b df 8c 5f ba db 0e 2d bc 11 42 c7 3b
       0.0035306644 -0.00085277663 -0.010562624 0.006080874
