embedding_autoencoder_transformer/transformer_classifier_samples_1000.pt (torch, 239392 bytes, 41 tensors)

embedding.weight f4 [16, 16]
0.013009517 -0.1283867 -0.30176765 0.12824044 -0.12980801 -0.13497512 -0.12037569 -0.08754725
-0.106683135 0.24206649 -0.15740989 0.1086839 0.17239787 0.005308558 0.04031927 -0.24975455
0.08865929 0.040704012 -0.15300186 -0.020717941 0.23801051 0.21344733 0.16412342 0.02662407
0.2366562 0.2554984 0.04074541 -0.017782573 -0.0048644007 0.18016773 0.14106716 0.13901323
-0.14167194 -0.033541687 0.3357115 0.18818268 -0.11547093 -0.13293885 -0.18388672 0.009713892
0.03886019 0.05405016 0.1134769 -0.112511456 -0.013121707 -0.13488734 0.10165875 -0.1559116
0.17495495 -0.17661949 0.1859051 -0.042578682 0.11814087 0.2601216 0.0806154 0.12163416
-0.13368814 -0.13842502 -0.061305854 0.13171953 -0.18363686 0.23764487 0.094855845 0.14257957
-0.1894361 -0.0017390547 0.14711589 -0.029413441 -0.20889525 -0.10466551 -0.1241479 -0.053887438
-0.18884975 -0.23880042 0.26310226 0.07555612 0.029394697 0.21136717 -0.23139045 -0.119961895
0.22950913 -0.09129073 -0.105384015 0.20516604 -0.0578033 -0.14879288 0.005157646 0.13146974
-0.013546612 -0.062307447 -0.02843372 -0.10185169 0.05794764 0.12415741 0.13681932 0.27527946
0.054716192 -0.21497968 0.058783352 -0.32658836 0.08019349 -0.14716534 0.08893478 0.061015695
-0.005551292 -0.21382415 -0.04358012 -0.07748848 -0.0072919014 -0.09944184 0.18604793 0.029441247
-0.11485771 0.2581682 0.065394364 0.07472429 -0.14004211 -0.13716912 -0.19200793 -0.26304454
-0.25279853 0.11774657 -0.061682124 -0.23007603 0.034534547 0.22283083 -0.118693255 -0.27590442
0.1584518 -0.08579374 0.055523805 -0.11247389 0.06922498 -0.18225762 0.0016198591 0.24125423
0.14113224 -0.18899782 -0.18673676 -0.24984235 0.059057772 0.052115425 -0.20611651 0.033468742
-0.12834999 -0.023454102 0.20909967 0.0527399 0.07444987 0.12180195 0.024338774 -0.09446179
0.020621447 0.05500731 -0.17791836 -0.04248237 -0.046974972 0.0018279076 0.18344946 0.25382444
-0.054333586 0.11710267 -0.2960634 0.047069255 -0.071889445 0.045984223 -0.007274882 -0.11575046
-0.06149636 -0.33124527 0.049879424 -0.028432444 0.10319025 -0.11432829 0.0025107514 0.23690553
-0.116544046 0.011024249 -0.0010719573 0.068174675 0.06591185 0.05937481 -0.2502647 0.048522882
-0.0014013501 0.07398586 0.0638515 0.066417046 0.34757403 -0.29886836 0.14290051 -0.30141127
-0.10907453 -0.1923838 -0.07949649 0.23946366 -0.21672317 -0.09128401 0.21613093 0.19925846
0.14090349 -0.14481674 -0.071631275 0.20396303 -0.25951234 -0.04723477 0.12681139 -0.1526221
-0.37829077 -0.06665576 -0.16271295 -0.16761647 0.27580115 -0.27754492 -0.061551284 -0.024734357
-0.10912627 -0.03187821 -0.27113682 0.009189861 0.0464042 -0.025341287 0.025822895 0.20983644
0.291399 0.24963185 -0.16582507 -0.2159362 -0.044046212 -0.13696228 0.11247702 -0.21594171
-0.12063978 -0.03278521 0.021386176 0.24688627 0.059130277 -0.2354009 0.1563664 0.06641097
0.034332216 0.27180716 -0.07935622 -0.110860124 -0.08651013 0.086210154 0.006909317 0.12080038
0.11045524 0.042519167 -0.25929406 -0.121184886 0.057370678 -0.12223938 -0.10999356 -0.24235466
00000000: df25 553c ce77 03be 4a81 9abe 7651 033e
00000010: 64ec 04be eb36 0abe 8887 f6bd f94b b3bd
00000020: b07c dabd 47e0 773e 0f30 21be aa95 de3d
00000030: 1189 303e 69f3 ad3b d225 253d a8bf 7fbe
00000040: 0093 b53d 40b9 263d 85ac 1cbe acb8 a9bc
00000050: 07b9 733e f091 5a3e f80f 283e b91a da3c
00000060: 0156 723e b0d0 823e a9e4 263d c2ac 91bc
00000070: 8d65 9fbb e47d 383e e973 103e 7c59 0e3e
00000080: 7312 11be 0263 09bd 61e2 ab3e f6b2 403e
00000090: 067c ecbd 1f21 08be cd4c 3cbe 0427 1f3c
000000a0: dd2b 1f3d b363 5d3d 9466 e83d 686c e6bd
000000b0: 6efc 56bc e81f 0abe 7632 d03d 4aa7 1fbe
000000c0: 6427 333e bddb 34be e85d 3e3e fc66 2ebd
000000d0: d7f3 f13d a92e 853e b019 a53d 551b f93d
000000e0: 8be5 08be 4abf 0dbe d91b 7bbd 7ce1 063e
000000f0: 4d0b 3cbe 2d59 733e c843 c23d 6100 123e
00000100: 89fb 41be fef0 e3ba 8ca5 163e 75f4 f0bc
00000110: a3e8 55be df5a d6bd 4141 febd 13b9 5cbd
00000120: d461 41be 1988 74be 57b5 863e 2bbd 9a3d
00000130: 26cd f03c a370 583e 9ef1 6cbe 95ae f5bd
00000140: 7104 6b3e a2f6 babd 93d3 d7bd 0c17 523e
00000150: 27c3 6cbd 295d 18be 7801 a93b 01a0 063e
00000160: 9cf2 5dbc 1836 7fbd d5ed e8bc 9e97 d0bd
00000170: 815a 6d3d 3d46 fe3d 5d1a 0c3e 6ef1 8c3e
00000180: 161e 603d a223 5cbe d0c6 703d 9736 a7be
00000190: 7c3c a43d 83b2 16be 7023 b63d 98eb 793d
000001a0: 9de7 b5bb b8f4 5abe 1181 32bd 48b2 9ebd
000001b0: e7f0 eebb 2aa8 cbbd 5983 3e3e c52e f13c
000001c0: 853a ebbd 9f2e 843e 7bed 853d 0c09 993d
000001d0: 3367 0fbe 1076 0cbe ba9d 44be c6ad 86be
000001e0: cf6e 81be 1d25 f13d 65a6 7cbd 0d99 6bbe
000001f0: 1974 0d3d c42d 643e 7315 f3bd 5843 8dbe
00000200: 3041 223e a1b4 afbd ee6c 633d b658 e6bd
00000210: d4c5 8d3d bea1 3abe 7451 d43a 590b 773e
00000220: f884 103e a588 41be ec37 3fbe acd6 7fbe
00000230: 90e6 713d fc76 553d 3510 53be 8516 093d
00000240: 2e6e 03be d122 c0bc 391e 563e cb05 583d
00000250: 2c79 983d 4d73 f93d 1c62 c73c 2f75 c1bd
00000260: 4fee a83c 584f 613d 3b30 36be fe01 2ebd
00000270: d468 40bd 6796 ef3a 2dda 3b3e 47f5 813e
00000280: e58c 5ebd 86d3 ef3d 9f95 97be b1cb 403d
00000290: c63a 93bd f459 3c3d 2262 eebb 940e edbd
000002a0: 9be3 7bbd fb98 a9be 5e4e 4c3d 28eb e8bc
000002b0: 6955 d33d f324 eabd 6b8b 243b 5d97 723e
000002c0: a5ae eebd 0d9f 343c eb80 8cba 2a9f 8b3d
000002d0: cbfc 863d 0033 733d b222 80be eebf 463d
000002e0: 82ad b7ba e685 973d 93c4 823d a905 883d
000002f0: 39f5 b13e 4605 99be 8354 123e 9452 9abe
00000300: 7862 dfbd 4200 45be 0ecf a2bd f635 753e
00000310: aeec 5dbe 1cf3 babd 6d51 5d3e 690a 4c3e
00000320: 0149 103e d74a 14be 6bb3 92bd afdb 503e
00000330: cdde 84be 3f79 41bd d8da 013e f848 1cbe
00000340: 54af c1be d182 88bd 399e 26be a7a3 2bbe
00000350: cf35 8d3e 5e1a 8ebe 331d 7cbd b59f cabc
00000360: 987d dfbd ba92 02bd 72d2 8abe 1291 163c
00000370: 5512 3e3d 8898 cfbc 898a d33c 5ddf 563e
00000380: 4032 953e 7e9f 7f3e 0cce 29be 611e 5dbe
00000390: cd69 34bd d73f 0cbe 5a5a e63d d31f 5dbe
000003a0: fd11 f7bd c949 06bd 1032 af3c c1cf 7c3e
000003b0: 9732 723d ef0c 71be 831e 203e 7a02 883d
000003c0: f09f 0c3d 4f2a 8b3e 8485 a2bd a20a e3bd
000003d0: 392c b1bd f38e b03d 8d67 e23b 3166 f73d
000003e0: 5b36 e23d 9428 2e3d 31c2 84be c82f f8bd
000003f0: 84fd 6a3d a458 fabd 4e44 e1bd d22b 78be

embedding.bias f4 [16]
-0.103000484 0.10446177 -0.20973761 -0.08566038 0.03769594 0.19045743 0.20898634 0.13120046
-0.12759034 0.12810658 0.030092388 0.075994514 0.1606111 0.18605022 -0.114635944 -0.09379765
00000000: ebf1 d2bd 0df0 d53d 75c5 56be b66e afbd
00000010: 0f67 1a3d 4607 433e 8400 563e 6a59 063e
00000020: 0ba7 02be 5f2e 033e 5084 f63c 03a3 9b3d
00000030: 3c77 243e f383 3e3e 40c6 eabd fb18 c0bd

transformer_encoder.layers.0.self_attn.in_proj_weight f4 [48, 16]
-0.25760418 0.192693 0.08430205 -0.1112676 0.23857526 -0.2868549 0.102149725 -0.09388651
-0.25595543 0.2906934 -0.023066364 -0.04602958 0.18455121 -0.22380233 0.30226153 -0.28152877
0.30510068 0.24657911 -0.21004558 -0.19433641 0.041832343 0.14071281 0.18556625 -0.28254366
-0.13294987 -0.2403794 -0.29786214 0.060502145 0.2178909 0.17794196 -0.0023651791 0.1980071
-0.05947565 0.20454656 0.083548725 -0.13337222 0.11432223 -0.18427731 -0.07434822 -0.07475622
0.2444779 0.11575585 -0.11402344 -0.07239152 0.065820776 -0.2895343 -0.30440652 0.11517265
-0.20270418 0.042015612 -0.13639538 -0.1064692 0.123795025 0.2885363 -0.2633885 0.07983202
0.004910122 0.1648467 -0.005034369 0.26258394 0.055851504 -0.12161359 0.035627414 -0.2651775
-0.06286616 0.27467734 -0.23246734 -0.039845746 -0.012365443 -0.0073851305 -0.24409388 0.2891576
0.08922565 0.032654285 -0.014288641 0.27519873 -0.16575132 -0.25194544 0.046067137 0.25312322
-0.09760285 -0.12793517 -0.08974964 -0.157523 0.071759224 0.2500314 -0.022448707 0.039108515
0.07487222 0.028727444 -0.12813352 -0.18115345 -0.0128796585 -0.19988595 -0.20426266 0.04991952
0.2997196 -0.060243797 -0.27663404 0.16239879 0.14685613 0.2639191 0.09951419 -0.0077325036
0.19563338 0.035973363 -0.039168045 -0.1441746 0.16156453 -0.15181364 0.21328475 -0.17535323
-0.25225887 0.097308554 0.16705428 -0.03857112 -0.26885888 -0.16272867 -0.030432442 0.02714293
0.028777193 0.060378775 0.24147269 0.064262435 0.21214455 -0.12727287 -0.16797993 0.07398957
-0.08455475 0.020345965 0.2914041 -0.1212795 0.12961338 -0.060973253 -0.24952333 -0.11136173
-0.03982516 0.16191946 0.08658018 -0.17009537 -0.3042362 0.09048213 0.14326309 -0.14477588
0.1029854 -0.013503666 -0.10637959 0.19187883 0.2134839 0.12708013 0.18806034 -0.27577657
-0.27788594 -0.27641025 -0.11153 -0.13137601 -0.071126565 -0.23352191 0.24197255 -0.03969219
0.25927868 -0.14098756 0.08292213 -0.1516715 0.21728799 -0.1018325 -0.14327605 0.14096153
-0.13152158 0.16581342 0.06480114 -0.0329868 0.24134168 -0.14677499 0.03935299 -0.17980954
-0.23860388 -0.14144403 -0.0850886 0.19841397 0.002409527 -0.23985101 0.24381243 0.013597654
-0.17142047 0.0630645 -0.028644333 0.01470102 0.27538747 -0.2813693 0.2886901 -0.18980521
0.024909336 -0.18090458 -0.2596706 -0.020003775 0.23427707 -0.052536298 0.010157142 0.19710003
0.17820174 -0.24301377 -0.021797288 0.016018424 0.056097806 0.24660762 0.22978906 0.009662344
0.2743279 0.03357789 -0.18328173 0.20891629 0.27184898 -0.07513272 -0.019106818 -0.18745923
-0.21981464 -0.06630707 -0.19135384 -0.14322367 0.069023855 0.22958174 0.1560273 -0.2915805
-0.21246178 0.23503 0.050718546 0.04151085 -0.25861153 0.22518358 0.2729136 0.08524939
0.053730585 -0.106458396 -0.05401127 0.26958466 0.02147061 -0.13900205 -0.22520073 -0.12238659
-0.066116646 0.026625102 -0.0635482 0.2664304 0.020289317 -0.16496946 -0.124138094 -0.16675049
0.019973919 -0.21433093 0.1574708 0.30301556 0.091905825 0.28023747 -0.016821977 -0.26063633
00000000: b2e4 83be 5051 453e 8ea6 ac3d 44e0 e3bd
00000010: 134d 743e a5de 92be e033 d13d 9247 c0bd
00000020: 970c 83be c4d5 943e acf5 bcbc 8389 3cbd
00000030: fefa 3c3e 702c 65be 06c2 9a3e 8a24 90be
00000040: 2836 9c3e 3c7f 7c3e 3016 57be 2000 47be
00000050: 6458 2b3d 0517 103e 1405 3e3e 90a9 90be
00000060: 0324 08be 0426 76be 6381 98be 19d1 773d
00000070: cb1e 5f3e 6b36 363e 1f01 1bbb 60c2 4a3e
00000080: bd9c 73bd a774 513e 981b ab3d ba92 08be
00000090: c621 ea3d 31b3 3cbe e143 98bd ca19 99bd
000000a0: 6a58 7a3e 6711 ed3d 1f85 e9bd 0142 94bd
000000b0: 0bcd 863d d73d 94be 2cdb 9bbe a3df eb3d
000000c0: af91 4fbe 9018 2c3d 3bab 0bbe 860c dabd
000000d0: 3f88 fd3d 08bb 933e dcda 86be f87e a33d
000000e0: 17e5 a03b 93cd 283e 59f7 a4bb 6771 863e
000000f0: 8cc4 643d 8c10 f9bd 0dee 113d 58c5 87be
00000100: f9bf 80bd 82a2 8c3e eb0b 6ebe 4b35 23bd
00000110: 6d98 4abc f7fe f1bb bff3 79be 770c 943e
00000120: f0bb b63d 80c0 053d e71a 6abc d9e6 8c3e
00000130: b7ba 29be fefe 80be e5b0 3c3d 5e99 813e
00000140: 01e4 c7bd 7001 03be a9ce b7bd b64d 21be
00000150: 80f6 923d 1e04 803e 5ae6 b7bc 4030 203d
00000160: 9b56 993d d155 eb3c 6f35 03be 4a80 39be
00000170: 3405 53bc e7ae 4cbe 3b2a 51be 6978 4c3d
00000180: d974 993e 33c2 76bd faa2 8dbe de4b 263e
00000190: 7461 163e 6720 873e 18ce cb3d f160 fdbb
000001a0: 1e54 483e ce58 133d ac6e 20bd 82a2 13be
000001b0: 2c71 253e 0975 1bbe 5167 5a3e cc8f 33be
000001c0: 1328 81be b549 c73d 4710 2b3e c0fc 1dbd
000001d0: dfa7 89be 58a2 26be 754d f9bc da5a de3c
000001e0: 26be eb3c bc4f 773d 9e44 773e 069c 833d
000001f0: 6c3c 593e d253 02be ee02 2cbe d887 973d
00000200: 0a2b adbd 95ac a63c eb32 953e 6361 f8bd
00000210: 5fb9 043e 17bf 79bd 0b83 7fbe 9e11 e4bd
00000220: b51f 23bd 37ce 253e f350 b13d 7b2d 2ebe
00000230: d9c4 9bbe b24e b93d 8fb3 123e 2140 14be
00000240: 02ea d23d 7b3e 5dbc 8bdd d9bd e27b 443e
00000250: 869b 5a3e 4b21 023e e492 403e 9632 8dbe
00000260: 1147 8ebe a585 8dbe d769 e4bd 6f87 06be
00000270: ceaa 91bd 5e20 6fbe a7c7 773e 4794 22bd
00000280: 2dc0 843e 0b5f 10be 14d3 a93d c64f 1bbe
00000290: be80 5e3e 8f8d d0bd f5b6 12be 3858 103e
000002a0: 98ad 06be feca 293e 76b6 843d 2b1d 07bd
000002b0: 4622 773e 2f4c 16be 9a30 213d fe1f 38be
000002c0: 9354 74be b4d6 10be ef42 aebd 082d 4b3e
000002d0: 28e9 1d3b 819b 75be f7a9 793e b2c8 5e3c
000002e0: d988 2fbe f627 813d 85a7 eabc 8cdc 703c
000002f0: 96ff 8c3e a30f 90be 30cf 933e 4c5c 42be
00000300: aa0e cc3c 0d3f 39be 8bf3 84be f5de a3bc
00000310: 54e6 6f3e 4d30 57bd 246a 263c 97d4 493e
00000320: 847a 363e 9ad8 78be 3a90 b2bc 1239 833c
00000330: d0c6 653d b586 7c3e d34d 6b3e cf4e 1e3c
00000340: b574 8c3e f888 093d 35ae 3bbe 27ee 553e
00000350: ca2f 8b3e 2fdf 99bd e785 9cbc 50f5 3fbe
00000360: 1717 61be 00cc 87bd 43f2 43be 3aa9 12be
00000370: 615c 8d3d 7a17 6b3e 9fc5 1f3e 0a4a 95be
00000380: 958f 59be b4ab 703e 40be 4f3d 4807 2a3d
00000390: bb68 84be 8696 663e 55bb 8b3e 3b97 ae3d
000003a0: 9a14 5c3d dc06 dabd ec3a 5dbd 0007 8a3e
000003b0: 22e3 af3c 8e56 0ebe 059b 66be d2a5 fabd
000003c0: 2a68 87bd e31c da3c 8f25 82bd 9169 883e
000003d0: c835 a63c c1ed 28be 1d3c febd a4c0 2abe
000003e0: 58a0 a33c 9179 5bbe 0740 213e db24 9b3e
000003f0: 1f39 bc3d 497b 8f3e 3ece 89bc 2072 85be

transformer_encoder.layers.0.self_attn.in_proj_bias f4 [48]
0.0 0.0 0.0 0.0 0.0 0.0 0.0 0.0
0.0 0.0 0.0 0.0 0.0 0.0 0.0 0.0
0.0 0.0 0.0 0.0 0.0 0.0 0.0 0.0
0.0 0.0 0.0 0.0 0.0 0.0 0.0 0.0
0.00064602226 0.043468013 -0.02618785 -0.00075806474 -0.020623157 -0.023446668 -0.06292026 -0.0646546
-0.014792613 0.039798193 -0.01646505 0.04098241 0.0056127636 0.011457271 0.009829112 0.0152981365
00000000: 0000 0000 0000 0000 0000 0000 0000 0000
00000010: 0000 0000 0000 0000 0000 0000 0000 0000
00000020: 0000 0000 0000 0000 0000 0000 0000 0000
00000030: 0000 0000 0000 0000 0000 0000 0000 0000
00000040: 0000 0000 0000 0000 0000 0000 0000 0000
00000050: 0000 0000 0000 0000 0000 0000 0000 0000
00000060: 0000 0000 0000 0000 0000 0000 0000 0000
00000070: 0000 0000 0000 0000 0000 0000 0000 0000
00000080: d259 293a 840b 323d e787 d6bc ddb8 46ba
00000090: e5f1 a8bc 3a13 c0bc 56dc 80bd a269 84bd
000000a0: b75c 72bc 6e03 233d b6e1 86bc 2cdd 273d
000000b0: 46eb b73b 47b7 3b3c 490a 213c 09a5 7a3c

transformer_encoder.layers.0.self_attn.out_proj.weight f4 [16, 16]
0.07845406 0.07315284 -0.17043628 0.09978191 0.08152706 0.025088612 0.18872826 0.12998408
-0.23383746 -0.16929144 0.07919288 -0.007961778 0.17902671 -0.05823818 0.04202967 -0.15253696
-0.0042430665 0.21473157 0.2360779 0.17978093 -0.030616729 0.07239726 0.010080895 0.06293761
-0.19059166 0.1308826 0.0861449 0.24086538 -0.14132573 0.14273722 -0.14658977 -0.12832944
0.08089553 0.17283902 0.1841106 -0.108107775 -0.23499909 0.22762762 -0.016733067 0.18808436
0.0019574629 0.031279862 0.02651116 -0.038549542 0.17376007 -0.13122979 -0.11224755 0.054278508
0.12752642 0.023232635 -0.14794165 -0.14527088 -0.19788493 -0.07952794 0.20276909 0.12564017
0.15988477 0.16658999 -0.14040402 -0.13491774 0.1351929 0.22345318 -0.106363624 -0.13136433
0.031810086 0.088036604 0.1439296 -0.019253368 0.058160998 -0.13576458 0.039192867 0.02794849
-0.18528165 -0.16154887 -0.1152079 0.2119115 -0.006981967 0.18139659 0.18988004 0.09314922
-0.17718047 0.019851198 -0.095396526 0.19187659 -0.10980444 -0.19684686 -0.14751133 -0.100687675
-0.18510011 0.033733364 0.002409598 0.09734864 0.16603903 -0.18624012 -0.1966421 -0.00021325133
0.07791863 0.021255337 0.13748868 -0.10467014 0.092252456 -0.010366337 -0.15593363 -0.24800822
-0.042410396 -0.08820128 -0.08467868 -0.15618996 -0.14615978 0.13776733 -0.03191911 0.06606579
-0.20340765 -0.17829295 -0.109340504 0.1779789 0.17936239 -0.20191424 0.119137354 -0.21138924
-0.003639517 0.21699582 -0.014044864 -0.108650595 -0.17868838 -0.0038035307 -0.13130826 0.14892718
0.17484404 -0.05215505 -0.077166595 -0.17696686 -0.028770188 0.015815288 -0.0015100462 -0.23606262
0.19323553 0.11608086 0.09321238 -0.14093922 0.07163328 -0.04217166 0.1386207 0.19045916
-0.15708378 -0.04910535 0.015165948 0.09891157 -0.1777998 0.21897921 0.092835724 -0.03246989
-0.08291552 0.19282578 0.15942994 0.20293924 0.16711861 -0.18041421 -0.15203813 -0.16022645
-0.16245583 -0.08083864 -0.018260866 -0.03796326 -0.03731801 0.1410218 -0.04581291 -0.17752385
-0.14233634 -0.18440111 0.20297821 0.091215156 0.17727852 -0.034395054 -0.10003326 -0.07472686
-0.24220952 0.17165338 0.023152223 0.118786536 0.008380258 0.005916952 -0.12214672 -0.19261359
0.16883524 -0.05348885 -0.009486964 -0.038706634 0.14764743 0.1629714 -0.19697955 0.07515746
-0.06910673 0.01743108 -0.03978828 0.17991205 -0.2206941 0.14063853 -0.16574633 -0.014374965
0.00964955 -0.17476733 0.06044719 -0.17220992 -0.16779633 -0.18196155 0.18097581 -0.028845742
-0.09807625 0.14029783 -0.2288078 0.04407676 -0.07422553 0.0026110657 0.12099527 0.16209881
-0.056140114 0.118640736 0.06149121 -0.13351457 -0.11160752 -0.020663649 -0.16432974 0.018265333
0.10881111 -0.026574412 -0.013837616 0.038595606 -0.0615629 0.11753652 -0.1728481 -0.077675804
-0.029618992 0.09676983 -0.09095115 -0.22359781 -0.034227245 0.22989084 -0.16916363 0.054100074
-0.014424757 0.042923454 0.06734227 -0.14215438 0.17004868 0.051926978 -0.030946774 0.21680178
0.09247671 -0.21678975 0.028417164 0.1984538 0.18744282 -0.026717266 0.023580182 -0.08202989
00000000: 86ac a03d 28d1 953d d986 2ebe 755a cc3d
00000010: a9f7 a63d a286 cd3c fb41 413e 8c1a 053e
00000020: 1673 6fbe bc5a 2dbe e02f a23d 1e72 02bc
00000030: c752 373e 288b 6ebd 4e27 2c3d a632 1cbe
00000040: 6c09 8bbb 98e2 5b3e 68be 713e 7e18 383e
00000050: efcf fabc 0445 943d 572a 253c 6fe5 803d
00000060: 762a 43be 1706 063e bd6c b03d 6aa5 763e
00000070: b1b7 10be b529 123e a11b 16be cb68 03be
00000080: 8eac a53d b6fc 303e 7d87 3c3e 9c67 ddbd
00000090: 9aa3 70be 3717 693e c913 89bc 3099 403e
000000a0: c748 003b 501f 003d ef2d d93c 20e6 1dbd
000000b0: 29ee 313e 1a61 06be 0be2 e5bd 2453 5e3d
000000c0: 4996 023e 5e52 be3c 047e 17be e4c1 14be
000000d0: 59a2 4abe 8bdf a2bd b3a2 4f3e d1a7 003e
000000e0: d5b8 233e 9196 2a3e 12c6 0fbe e027 0abe
000000f0: 0270 0a3e e9d0 643e 2cd5 d9bd 5f84 06be
00000100: 4b4b 023d 894c b43d 4862 133e 3db9 9dbc
00000110: 3a3a 6e3d df05 0bbe b388 203d 3bf4 e43c
00000120: 79ba 3dbe 116d 25be 1ff2 ebbd 54ff 583e
00000130: fcc8 e4bb 07c0 393e ea6f 423e 05c5 be3d
00000140: cc6e 35be fb9e a23c 415f c3bd 4c7b 443e
00000150: 26e1 e0bd 3992 49be 360d 17be 5735 cebd
00000160: e28a 3dbe ff2b 0a3d 59ea 1d3b b95e c73d
00000170: 2306 2a3e bbb5 3ebe 8c5c 49be 389c 5fb9
00000180: cd93 9f3d ac1f ae3c d5c9 0c3e 4c5d d6bd
00000190: dbee bc3d 92d7 29bc 11ad 1fbe def5 7dbe
000001a0: 86b6 2dbd dfa2 b4bd 046c adbd 43f0 1fbe
000001b0: e9aa 15be e112 0d3e 9dbd 02bd 804d 873d
000001c0: 184a 50be 6d92 36be eaed dfbd 1a40 363e
000001d0: c6aa 373e 9bc2 4ebe 49fe f33d 6c76 58be
000001e0: f684 6ebb 2734 5e3e 6e1c 66bc 3484 debd
000001f0: 16fa 36be a844 79bb ac75 06be 5e80 183e
00000200: 510a 333e 89a0 55bd 8509 9ebd cd36 35be
00000210: 75af ebbc 108f 813c beec c5ba 66ba 71be
00000220: 89df 453e cdbb ed3d 22e6 be3d 5f52 10be
00000230: 78b4 923d 31bc 2cbd 96f2 0d3e ba07 433e
00000240: 92da 20be b122 49bd 997a 783c 2692 ca3d
00000250: 2711 36be 163c 603e a820 be3d 26ff 04bd
00000260: 9dcf a9bd 1f74 453e 9a41 233e 4ecf 4f3e
00000270: 2421 2b3e 81be 38be e2af 1bbe 6712 24be
00000280: d25a 26be bb8e a5bd d097 95bc 5d7f 1bbd
00000290: c5da 18bd 0568 103e 51a6 3bbd d0c8 35be
000002a0: 9ec0 11be a5d3 3cbe 85d9 4f3e 03cf ba3d
000002b0: 8088 353e d4e1 0cbd 3dde ccbd 650a 99bd
000002c0: c605 78be e7c5 2f3e bba9 bd3c 5b46 f33d
000002d0: 5a4d 093c fee2 c13b 0f28 fabd 7f3c 45be
000002e0: 25e3 2c3e 2017 5bbd 366f 1bbc d98a 1ebd
000002f0: e330 173e fae1 263e 02b5 49be 28ec 993d
00000300: d487 8dbd a0cb 8e3c 09f9 22bd dd3a 383e
00000310: a2fd 61be 8c03 103e 68b9 29be f984 6bbc
00000320: 2519 1e3c 35f6 32be 7997 773d cc57 30be
00000330: cdd2 2bbe 2154 3abe b951 393e e84d ecbc
00000340: 33dc c8bd 3caa 0f3e 984c 6abe d589 343d
00000350: 8e03 98bd 6a1e 2b3b 5ecc f73d 3bfd 253e
00000360: 2df3 65bd eaf9 f23d 35de 7b3d 0bb8 08be
00000370: 7c92 e4bd d046 a9bc 0e46 28be 2ea1 953c
00000380: 5cd8 de3d 95b2 d9bc 2bb7 62bc 6d16 1e3d
00000390: 6129 7cbd fdb6 f03d 18ff 30be 7e14 9fbd
000003a0: 87a3 f2bc 432f c63d 9944 babd d3f6 64be
000003b0: de31 0cbd 8168 6b3e 3b39 2dbe 0a98 5d3d
000003c0: d155 6cbc 81d0 2f3d beea 893d eb90 11be
000003d0: 3e21 2e3e 62b1 543d 1784 fdbc 4901 5e3e
000003e0: 6e64 bd3d 22fe 5dbe 1dcb e83c 7937 4b3e
000003f0: 03f1 3f3e 2bde dabc 3a2b c13c 49ff a7bd

transformer_encoder.layers.0.self_attn.out_proj.bias f4 [16]
-0.03146697 -0.025301484 0.01844267 0.04387966 0.015962677 -0.03188101 -0.007357982 -0.009902828
-0.0115440525 0.011623754 0.023848183 0.0081219785 0.00061875803 -0.0034464744 -0.033165496 -0.015510029
00000000: 82e3 00bd 0f45 cfbc 1515 973c 29bb 333d
00000010: 29c4 823c a995 02bd 3a1b f1bb 793f 22bc
00000020: 4423 3dbc 8f71 3e3c 445d c33c 0c12 053c
00000030: 2634 223a 3fde 61bb 8bd8 07bd c71d 7ebc

transformer_encoder.layers.0.linear1.weight f4 [512, 16]
-0.071432486 0.20366049 -0.093757346 0.2592274 -0.005909926 -0.028333236 -0.16344588 -0.1634144
0.182573 -0.15728343 0.24020799 -0.21566732 0.08982955 -0.032434173 0.12490061 0.25402582
0.03800853 -0.1544863 -0.03421435 -0.19108972 -0.07520203 -0.17340617 -0.23910178 0.0190043
-0.20334321 0.08725584 -0.22169136 -0.09085747 -0.023377735 -0.070739836 -0.1963063 -0.017713197
-0.12506336 0.055413377 0.079427324 0.08826491 -0.12878038 -0.19984426 -0.2742268 -0.017432677
-0.17754173 0.027822977 0.13449787 -0.1536763 -0.11474718 0.105416715 -0.06945925 -0.08666225
0.06766917 0.17270611 0.10129124 0.11819306 -0.1327181 0.0888694 -0.10742687 -0.032406803
-0.10087796 -0.1702694 0.015498374 -0.082354836 0.0041640713 0.088365726 -0.1314459 0.14180446
-0.03086915 -0.28727582 -0.05415325 -0.22793882 -0.18796505 -0.23844767 -0.24712469 -0.12708369
0.11922613 0.10092817 -0.12507734 0.08275376 -0.030753208 -0.18820393 0.010601362 0.20788467
0.40127382 -0.14109033 0.22206633 0.21357532 -0.22163104 -0.16799383 0.18656774 0.29649055
0.181596 -0.24684535 -0.10162561 -0.09576328 0.11168885 -0.10055428 0.1069539 -0.007537867
0.24003921 -0.28307444 0.08137096 -0.03270091 0.024448806 0.08624606 -0.14260082 0.113601014
0.20580782 -0.038069345 0.038105763 -0.14718631 -0.1557602 -0.006425923 0.09220827 -0.043956548
0.18904322 0.03577409 -0.022246353 -0.25916725 0.06316828 -0.016479952 -0.019942926 0.20520234
-0.10823596 -0.021775674 0.037921008 -0.06334915 -0.21212119 0.11006254 0.05874761 0.25602332
0.26047042 -0.05576735 -0.14407112 0.19252716 0.19139375 0.12874548 0.15571696 0.10929958
0.06481727 -0.005421282 -0.2923249 -0.079721965 -0.06923279 0.1151271 0.37294677 0.19800049
0.24486339 -0.012449145 -0.1836454 -0.058865894 -0.00766635 0.17616777 -0.010060906 0.1267697
-0.13612671 0.1806899 -0.24065693 -0.018335273 0.13712063 -0.22377498 0.01067242 0.22211452
-0.033372406 0.10348413 -0.09258478 0.103621244 -0.004862774 -0.067794636 0.12513447 -0.14353244
-0.18234186 -0.035848413 0.14168817 0.086463965 -0.08490621 0.08669263 -0.1537903 0.013574225
-0.13571276 -0.1873977 0.015532561 -0.18767425 -0.17713785 0.052409116 -0.008293254 0.2884211
-0.10917085 0.026128104 0.044698548 0.007736285 -0.16812964 0.09535881 -0.027501244 0.16064286
-0.049899727 -0.007826341 -0.076041505 0.21224394 0.12993875 -0.059763867 -0.24182177 0.08383093
-0.019138701 -0.2026355 -0.10650976 -0.075967826 -0.017393263 -0.033469535 0.07577628 -0.1656853
0.03067326 -0.1692839 0.18411858 -0.25225502 0.21195379 0.12753288 -0.19464506 -0.221971
0.041792635 -0.20866023 0.014016373 0.1268662 -0.21799241 -0.026695462 0.095759735 -0.120032474
0.17974842 0.044306338 0.0005290798 -0.18442768 0.057142187 -0.2167641 -0.15333158 0.31515256
0.002866279 0.14182135 0.12596616 -0.030394264 -0.019441184 0.031904466 0.092364304 -0.14781192
-0.11889312 0.11587339 0.019832674 0.07632034 0.23025592 -0.17211783 -0.3123134 0.049344864
0.07374181 0.06752013 0.003582837 0.32528493 -0.2539772 -0.19522302 0.116494 0.19255836
00000000: 324b 92bd 608c 503e da03 c0bd 74b9 843e
00000010: 0da8 c1bb 1a1b e8bc 5b5e 27be 1b56 27be
00000020: 6bf4 3a3e e80e 21be 15f9 753e e5d7 5cbe
00000030: 8ef8 b73d b2d9 04bd e4cb ff3d ac0f 823e
00000040: d5ae 1b3d a831 1ebe 5924 0cbd 06ad 43be
00000050: 8603 9abd 6391 31be 19d7 74be e8ae 9b3c
00000060: 3439 50be 31b3 b23d 0f03 63be 7b13 babd
00000070: aa82 bfbc 0ce0 90bd 8504 49be 441b 91bc
00000080: 9c10 00be 23f9 623d cbaa a23d 3cc4 b43d
00000090: 01df 03be f9a3 4cbe 7567 8cbe f9ce 8ebc
000000a0: 80cd 35be 03ed e33c cfb9 093e 525d 1dbe
000000b0: 9200 ebbd b8e4 d73d a740 8ebd fa7b b1bd
000000c0: 2296 8a3d dfd9 303e c871 cf3d 340f f23d
000000d0: 41e7 07be 2901 b63d 9e02 dcbd ffbc 04bd
000000e0: 1b99 cebd 1a5b 2ebe e4ec 7d3c a7a9 a8bd
000000f0: c372 883b 17f9 b43d c199 06be 3035 113e
00000100: 4de1 fcbc d115 93be cccf 5dbd cb68 69be
00000110: e979 40be a02b 74be 410e 7dbe 3a22 02be
00000120: d42c f43d 6eb3 ce3d 4614 00be ce7a a93d
00000130: 27ee fbbc 88b8 40be 56b1 2d3c b8df 543e
00000140: c373 cd3e fc79 10be 5b65 633e 7db3 5a3e
00000150: 3ff3 62be 9306 2cbe 9d0b 3f3e 9ccd 973e
00000160: 4df4 393e 07c5 7cbe 1621 d0bd 8a1f c4bd
00000170: 20bd e43d 67ef cdbd a50a db3d 3600 f7bb
00000180: d7cc 753e 22ef 90be d1a5 a63d 64f1 05bd
00000190: dd48 c83c c6a1 b03d f305 12be a6a7 e83d
000001a0: 49bf 523e 9aee 1bbd ca14 1c3d 02b8 16be
000001b0: 9a7f 1fbe 8d90 d2bb b1d7 bc3d c80b 34bd
000001c0: 8c94 413e da87 123d fc3d b6bc 92b1 84be
000001d0: 5f5e 813d f700 87bc 595f a3bc 9020 523e
000001e0: d1aa ddbd e662 b2bc 0f53 1b3d 33bd 81bd
000001f0: 4c36 59be 7868 e13d 55a1 703d 7d15 833e
00000200: 615c 853e 4e6c 64bd 6187 13be d725 453e
00000210: b9fc 433e dbd5 033e 4474 1f3e 75d8 df3d
00000220: ebbe 843d 02a5 b1bb 9cab 95be 4545 a3bd
00000230: ecc9 8dbd c2c7 eb3d e1f2 be3e a4c0 4a3e
00000240: 78bd 7a3e 80f7 4bbc 8a0d 3cbe 5d1d 71bd
00000250: 0136 fbbb 5365 343e 80d6 24bc ebcf 013e
00000260: cd64 0bbe c606 393e c56e 76be db33 96bc
00000270: 5a69 0c3e 4525 65be 60db 2e3c fd71 633e
00000280: 81b1 08bd 7def d33d 179d bdbd 6037 d43d
00000290: e857 9fbb ead7 8abd 4023 003e 2bfa 12be
000002a0: d3b7 3abe c9d5 12bd b416 113e 0514 b13d
000002b0: 4fe3 adbd e88b b13d 347b 1dbe 6d66 5e3c
000002c0: 49f8 0abe 2fe5 3fbe 487c 7e3c ae2d 40be
000002d0: a063 35be f1aa 563d 6ee0 07bc eeab 933e
000002e0: f794 dfbd 9b0a d63c d315 373d aa80 fd3b
000002f0: 2d2a 2cbe 7b4b c33d 4a4a e1bc 907f 243e
00000300: a863 4cbd 0e3a 00bc a6bb 9bbd 7a56 593e
00000310: aa0e 053e f5ca 74bd 20a0 77be 8daf ab3d
00000320: c4c8 9cbc ae7f 4fbe ca21 dabd 0595 9bbd
00000330: 517c 8ebc 5a17 09bd 9830 9b3d 68a9 29be
00000340: 7d46 fb3c c258 2dbe 9589 3c3e 9227 81be
00000350: 6a0a 593e fb97 023e 0951 47be 5e4c 63be
00000360: c12e 2b3d 07ab 55be eea4 653c 37e9 013e
00000370: 6739 5fbe 71b0 dabc ae1d c43d 96d3 f5bd
00000380: f80f 383e 907a 353d f2b1 0a3a 9cda 3cbe
00000390: ed0d 6a3d 69f7 5dbe f402 1dbe ad5b a13e
000003a0: 2fd8 3b3b 9e39 113e 46fd 003e 64fd f8bc
000003b0: 1e43 9fbc 42ae 023d 7f29 bd3d 025c 17be
000003c0: 3c7e f3bd 074f ed3d 2278 a23c d74d 9c3d
000003d0: 35c8 6b3e a83f 30be 8be7 9fbe d71d 4a3d
000003e0: f205 973d fe47 8a3d 08ce 6a3b bf8b a63e
000003f0: 4d09 82be 8be8 47be 6894 ee3d 052e 453e

transformer_encoder.layers.0.linear1.bias f4 [512]
-0.30532828 -0.12995714 -0.045484006 -0.080836505 0.11767842 0.14831299 0.09712771 0.19283314
-0.29171428 0.11351353 -0.2308197 -0.22454695 -0.24553935 -0.2186937 0.025493437 -0.0061267884
-0.07907627 -0.0933225 -0.06395024 -0.056321673 0.023457646 -0.15155698 -0.20523906 0.041585654
0.06326104 0.067119814 -0.18030946 -0.10541623 -0.050715074 -0.14561279 -0.08028311 -0.1430076
-0.3077904 -0.18907468 0.0044314675 -0.13285442 0.055478305 -0.09541207 0.10745792 0.11977573
0.055365782 -0.22537164 -0.04411701 -0.06680016 -0.17603834 -0.17138855 -0.0095073925 0.14384173
-0.08665752 -0.14898139 -0.110261634 0.012820935 -0.26542556 0.19471456 -0.090528436 -0.069554314
-0.27623564 0.13991971 -0.17654626 -0.107783 -0.28770497 -0.2487899 -0.028325278 -0.018965762
-0.2469319 -0.20790754 0.20942144 -0.025322815 -0.1486189 0.14288443 0.008113352 0.085670955
0.066391416 -0.14105983 -0.003662147 -0.049968626 0.022599692 -0.26070848 -0.2868494 -0.08796336
0.047499754 -0.20062438 -0.14453983 0.11056379 0.015156067 0.027663978 0.22312479 -0.17969178
0.107849084 -0.101262726 -0.22132686 0.038740348 0.21152897 -0.1728423 -0.008420785 0.1410099
-0.098744385 0.13028345 0.036080416 0.046857055 -0.20584469 -0.16514872 0.14610623 0.18627109
-0.028536614 0.09887454 -0.1581513 0.0800452 -0.06445136 -0.21450831 -0.2321437 0.12870441
-0.035311546 -0.10506842 0.22446306 0.22598031 0.14524314 -0.32426113 -0.1378661 -0.1246591
0.11819713 -0.17050895 0.004555613 0.12851888 -0.22340888 -0.04318833 -0.1686084 -0.2256407
0.03624534 0.124054216 -0.11640465 0.0044055763 -0.08198842 -0.099229574 -0.15252689 0.16815375
-0.1496518 0.08057715 -0.0663657 -0.2112832 0.20660049 -0.24217807 0.19575688 0.027259719
0.06386189 -0.13521254 0.032432243 -0.23691972 -0.03269845 -0.20369023 -0.2318505 0.13658884
0.044017058 0.16110899 -0.09014437 0.05737199 -0.07683178 -0.06677472 -0.20972699 0.0047834464
0.06774056 -0.035518244 -0.20074248 -0.18565974 -0.18551207 -0.19220006 -0.056916792 0.08734414
0.15053213 -0.02004239 -0.028202727 -0.31166962 -0.14841908 0.043450195 -0.22454615 -0.11677948
0.19363746 -0.15049198 -0.019033266 0.1821338 -0.095693484 0.10515488 0.084939204 0.19956768
-0.031580027 0.05976125 -0.008157895 0.15476125 0.17367813 0.054463454 -0.19732806 0.018573139
-0.15199415 -0.1894217 -0.017221337 -0.21365707 -0.10664502 0.034209173 0.07358206 0.00015867902
-0.09594832 -0.088033594 0.038729295 -0.03897813 -0.040407207 0.08135711 -0.12251993 -0.04267956
-0.05220154 -0.06638267 0.007917314 0.15831442 0.03416992 0.079842314 -0.23915072 -0.18835278
-0.12539834 -0.026779773 0.17862736 -0.24510792 0.15199417 -0.15498205 0.17724766 0.22528994
-0.23268458 -0.14081864 -0.18495183 0.03088975 -0.06745341 -0.23243162 0.02846607 0.0071368203
-0.0897335 0.13790895 -0.02274123 -0.106911816 0.106263086 -0.043089878 0.17323229 -0.037946496
-0.21804687 -0.016084094 -0.039559927 -0.16094777 -0.09176384 0.025172442 -0.13678135 0.14410047
-0.18089801 0.1479404 -0.16349354 -0.1822421 0.13517861 0.06435791 0.07828718 -0.07593906
00000000: fd53 9cbe 7c13 05be 704d 3abd 9c8d a5bd
00000010: 6201 f13d 5cdf 173e e5ea c63d 0d76 453e
00000020: 935b 95be c879 e83d 005c 6cbe a3ef 65be
00000030: ab6e 7bbe 3ef1 5fbe 9dd7 d03c 3ac3 c8bb
00000040: bdf2 a1bd de1f bfbd 58f8 82bd 8eb1 66bd
00000050: 402a c03c c131 1bbe 302a 52be b855 2a3d
00000060: 018f 813d 1d76 893d 0ba3 38be 77e4 d7bd
00000070: 9cba 4fbd 851b 15be 796b a4bd 9670 12be
00000080: b496 9dbe cb9c 41be d835 913b fd0a 08be
00000090: 383d 633d 6767 c3bd e612 dc3d fa4c f53d
000000a0: 3bc7 623d d3c7 66be 0ab4 34bd 86ce 88bd
000000b0: 6543 34be 7b80 2fbe e5c4 1bbc 3f4b 133e
000000c0: 7f79 b1bd 948e 18be dad0 e1bd e60e 523c
000000d0: dce5 87be 4163 473e f966 b9bd 7e72 8ebd
000000e0: c26e 8dbe 1d47 0f3e 8bc8 34be 55bd dcbd
000000f0: 114e 93be c8c2 7ebe 6a0a e8bc 165e 9bbc
00000100: b7db 7cbe b7e5 54be 9372 563e cb71 cfbc
00000110: 8e2f 18be 4c50 123e dded 043c 4174 af3d
00000120: 39f8 873d fd71 10be a200 70bb e7ab 4cbd
00000130: fd22 b93c 957b 85be eddd 92be 2226 b4bd
00000140: 1a8f 423d 7a70 4dbe 4002 14be 456f e23d
00000150: 2751 783c 919f e23c d37a 643e 1f01 38be
00000160: fbdf dc3d d562 cfbd 82a3 62be 33ae 1e3d
00000170: 0d9b 583e 92fd 30be 55f7 09bc e664 103e
00000180: 7f3a cabd 0669 053e 0fc9 133d 2fed 3f3d
00000190: f3c8 52be bf1c 29be df9c 153e d9bd 3e3e
000001a0: 9ec5 e9bc bc7e ca3d 6af2 21be bdee a33d
000001b0: 13ff 83bd 11a8 5bbe 14b7 6dbe 17cb 033e
000001c0: d7a2 10bd 1d2e d7bd a5d9 653e 6267 673e
000001d0: 9eba 143e 8e05 a6be c52c 0dbe 454d ffbd
000001e0: 5611 f23d e699 2ebe 4047 953b 749a 033e
000001f0: 4cc5 64be 3fe6 30bd aea7 2cbe 5b0e 67be
00000200: fe75 143d 2310 fe3d 9065 eebd a75c 903b
00000210: 8be9 a7bd e038 cbbd 0230 1cbe 7f30 2c3e
00000220: 523e 19be a205 a53d bdea 87bd a05a 58be
00000230: 148f 533e 87fd 77be 7e74 483e c64f df3c
00000240: 06ca 823d 2875 0abe acd7 043d 159b 72be
00000250: cfee 05bd 2c94 50be 386a 6dbe f2dd 0b3e
00000260: 3b4b 343d c1f9 243e 9d9d b8bd e4fe 6a3d
00000270: fb59 9dbd 2fc1 88bd acc2 56be 75be 9c3b
00000280: 90bb 8a3d 947b 11bd 708f 4dbe 961d 3ebe
00000290: e0f6 3dbe 18d0 44be 9521 69bd 7ce1 b23d
000002a0: 1825 1a3e f02f a4bc 6809 e7bc 2993 9fbe
000002b0: 2cfb 17be d5f8 313d 6def 65be 142a efbd
000002c0: e648 463e 921a 1abe a7eb 9bbc 4881 3a3e
000002d0: f2fa c3bd 715b d73d 9bf4 ad3d 785b 4c3e
000002e0: 0f5a 01bd 36c8 743d b1a8 05bc bc79 1e3e
000002f0: aed8 313e 1215 5f3d 5e10 4abe b226 983c
00000300: 5ba4 1bbe c3f7 41be c313 8dbc ebc8 5abe
00000310: b468 dabd eb1e 0c3d 31b2 963d 1363 2639
00000320: 8e80 c4bd f54a b4bd 9ca2 1e3d 88a7 1fbd
00000330: 0782 25bd 8e9e a63d bbeb fabd c3d0 2ebd
00000340: 48d1 55bd a3f3 87bd 9fb7 013c 2d1d 223e
00000350: c2f5 0b3d 5e84 a33d ede3 74be 8ddf 40be
00000360: 6c68 00be 4161 dbbc 17ea 363e 92fd 7abe
00000370: 5ca4 1b3e 9db3 1ebe 6980 353e 68b2 663e
00000380: de44 6ebe c332 10be 0364 3dbe 800c fd3c
00000390: 0325 8abd 8e02 6ebe ad31 e93c fddb e93b
000003a0: 32c6 b7bd 0138 0d3e d14b babc 95f4 dabd
000003b0: 76a0 d93d 037f 30bd ce63 313e c96d 1bbd
000003c0: ae47 5fbe cac2 83bc 9709 22bd 7ecf 24be
000003d0: aeee bbbd 7036 ce3c 6910 0cbe 138f 133e
000003e0: 543d 39be b07d 173e da6a 27be ac9d 3abe
000003f0: 436c 0a3e 14ce 833d 0755 a03d f085 9bbd

transformer_encoder.layers.0.linear2.weight f4 [16, 512]
-0.026184393 -0.009580765 -0.0020453183 0.02944201 0.09852514 0.10110378 0.033933323 0.06356685
-0.06708922 0.018523809 -0.0146207325 -0.025212213 0.035612524 0.10106958 0.026580809 0.03499727
-0.0022684094 0.064744435 0.086533904 0.043341096 0.06586298 0.020444019 -0.17348465 0.010992417
0.18805616 -0.07617614 0.036007557 -0.031717885 -0.028375382 0.028338881 -0.03522285 0.022847563
0.04210993 0.027983032 -0.072638266 -0.06394681 -0.0041819955 -0.012326836 -0.0060100914 -0.0007613826
-0.032325365 0.013736693 0.035750885 -0.011406458 0.0028998288 -0.01042849 0.057589352 0.048154347
-0.1474196 0.049273655 -0.10072468 0.10035492 0.00060809916 0.020971354 -0.004869288 -0.09104916
0.087576635 0.014166172 0.047424905 -0.046921976 0.013927804 0.0049196514 0.02840894 -0.0010235086
-0.053381342 0.18335795 0.0028238448 0.006649275 0.0036060147 0.014036836 0.05550693 0.002081565
-0.078126565 0.08031388 -0.045064393 0.050715394 0.24610835 0.1706338 0.0073935143 0.14271215
-0.07291834 0.17773516 0.054892857 -0.020527454 -0.01919149 -0.02464772 0.08553597 -0.09366349
0.005762159 0.034542717 -0.06539222 0.010632726 -0.19447458 0.10667387 0.08095923 0.0052448492
0.055978227 0.0080139255 -0.004176536 0.0049053337 0.01899185 0.015664814 0.029348742 -0.009671169
-0.04933251 0.0045829243 -0.07769122 0.03088491 0.017849615 -0.021624252 -0.04083529 -0.09794435
0.01855125 0.014479102 -0.15646519 -0.041353546 0.03398634 0.0840282 -0.0367238 0.054922376
-0.023822764 -0.0053079193 -0.022638004 -0.0043094764 -0.1273595 0.022750046 -0.018405108 0.09673219
0.0061648604 -0.06583272 -0.007090608 -0.0312919 -0.06919774 0.07579792 0.0074272025 -0.064899124
-0.081828326 0.046022575 0.01121721 -0.017519169 -0.0724048 -0.031142687 -0.010357508 -0.07692397
-0.029617764 -0.040947706 -0.05854594 0.037343737 -0.06846142 -0.046430375 0.117891245 0.024509095
-0.076633275 0.11732427 -0.017039258 -0.045990963 -0.019759864 -0.0064203697 -0.02441838 0.09344866
-0.022044435 -0.07814929 -0.03919301 0.031394422 0.025781833 0.00375136 0.033545293 0.053109355
-0.010802704 0.03200506 0.004973209 -0.0012928529 0.046396255 0.0008541544 0.13448896 -0.047724992
0.034770306 -0.114242494 -0.013306088 0.080528356 -0.024758471 -0.06440289 -0.008591462 -0.13214694
-0.0030929786 0.07040529 0.06579258 0.04092973 -0.08712078 0.036329173 0.045799047 -0.08588922
0.018509071 0.15711913 -0.034219492 -0.055581003 0.0077433093 -0.01025468 0.018685253 0.0059527364
0.0017911693 -0.015892562 0.08314073 0.061199557 0.057174496 -0.054623153 0.00324439 -0.1291568
-0.015495876 -0.08646028 0.0080326805 -0.004696159 -0.032424267 0.015679196 -0.0960359 -0.16223176
-0.075703986 -0.072947964 -0.022785302 0.07777896 0.06524072 0.015099946 -0.06799369 0.13141765
0.04307663 -0.10109585 -0.05947797 -0.0013335554 0.019885546 0.079374686 0.010164857 0.14576885
-0.06693746 0.0068575586 -0.0993489 0.082624935 -0.047420852 0.010421187 -0.053542726 -0.10303506
0.0034378069 -0.042603806 0.027877044 0.019598667 0.047636893 0.029451516 0.03572492 -0.12846726
0.029521432 -0.008808652 -0.11774058 -0.07728764 -0.05774724 0.0046469136 0.044605702 -0.051956575
00000000: a780 d6bc a4f8 1cbc bf0a 06bb 5f30 f13c
00000010: 8cc7 c93d 800f cf3d abfd 0a3d 562f 823d
00000020: 1366 89bd 3ebf 973c cc8b 6fbc d889 cebc
00000030: 70de 113d 91fd ce3d ffbf d93c 4c59 0f3d
00000040: 98a9 14bb bb98 843d b038 b13d 6f86 313d
00000050: 2ce3 863d 377a a73c f6a5 31be 8a19 343c
00000060: cb91 403e 3c02 9cbd a97c 133d 9dea 01bd
00000070: 7d73 e8bc f126 e83c d645 10bd d02a bb3c
00000080: 767b 2c3d ac3c e53c 5fc3 94bd 8cf6 82bd
00000090: 1f09 89bb 7ff6 49bc 4df0 c4bb 8597 47ba
000000a0: 9a67 04bd de0f 613c 856f 123d 27e2 3abc
000000b0: 0e0b 3e3b 42dc 2abc d0e2 6b3d 7e3d 453d
000000c0: 2af5 16be 2cd3 493d be48 cebd e186 cd3d
000000d0: d868 1f3a 1ecc ab3c 8c8e 9fbb fb77 babd
000000e0: 615b b33d 3b19 683c 9e40 423d 4231 40bd
000000f0: 7231 643c 0735 a13b deb9 e83c 4027 86ba
00000100: 65a6 5abd 30c2 3b3e 4110 393b 29e2 d93b
00000110: e352 6c3b c2fa 653c 3c5b 633d de6a 083b
00000120: d200 a0bd 9b7b a43d 7195 38bd f2ba 4f3d
00000130: d403 7c3e a0ba 2e3e 4b45 f23b 2223 123e
00000140: 3656 95bd 3500 363e 55d7 603d 3129 a8bc
00000150: 7937 9dbc 04ea c9bc 7c2d af3d a5d2 bfbd
00000160: 7ed0 bc3b aa7c 0d3d 5bec 85bd e334 2e3c
00000170: 5824 47be d477 da3d f4cd a53d fcdc ab3b
00000180: 6d49 653d d74c 033c 53db 88bb ecbc a03b
00000190: cc94 9b3c 7f53 803c c66c f03c d373 1ebc
000001a0: e310 4abd 5b2c 963b 931c 9fbd 5a02 fd3c
000001b0: 5b39 923c 5825 b1bc e842 27bd 0c97 c8bd
000001c0: cbf8 973c c139 6d3c 6938 20be 5662 29bd
000001d0: 4335 0b3d fa16 ac3d b26b 16bd 49f6 603d
000001e0: f527 c3bc 0eee adbb 5673 b9bc 8236 8dbb
000001f0: 876a 02be 4e5e ba3c 4fc6 96bc 871b c63d
00000200: 9902 ca3b 4ed3 86bd 5558 e8bb ef2b 00bd
00000210: 8bb7 8dbd f13b 9b3d e45f f33b d5e9 84bd
00000220: 9c95 a7bd 2b82 3c3d 64c8 373c 5c84 8fbc
00000230: f848 94bd f31e ffbc 8ab2 29bc 508a 9dbd
00000240: f4a0 f2bc c8b8 27bd decd 6fbd bff5 183d
00000250: 8035 8cbd c72d 3ebd f770 f13d 4cc7 c83c
00000260: e8f1 9cbd b547 f03d ea95 8bbc 0561 3cbd
00000270: 70df a1bc f761 d2bb 0e09 c8bc 0362 bf3d
00000280: 8896 b4bc bc0c a0bd da88 20bd 7097 003d
00000290: 6c34 d33c 61d9 753b ca66 093d 3289 593d
000002a0: d3fd 30bc bd17 033d 4df6 a23b f274 a9ba
000002b0: 000a 3e3d 55e9 5f3a 79b7 093e 487b 43bd
000002c0: 4f6b 0e3d f8f7 e9bd c701 5abc 0dec a43d
000002d0: 47d2 cabc aae5 83bd 34c3 0cbc 8751 07be
000002e0: 92b3 4abb a630 903d 43be 863d efa5 273d
000002f0: 616c b2bd e6cd 143d c897 3b3d b0e6 afbd
00000300: 56a0 973c d6e3 203e bd29 0cbd e8a8 63bd
00000310: 96bb fd3b 3f03 28bc d111 993c 2c0f c33b
00000320: abc5 ea3a 1e31 82bc b045 aa3d 63ac 7a3d
00000330: ce2f 6a3d 87bc 5fbd d59f 543b ae41 04be
00000340: 6ae2 7dbc 1612 b1bd 819b 033c 3de2 99bb
00000350: 4fcf 04bd a871 803c 78ae c4bd 1520 26be
00000360: b10a 9bbd be65 95bd 3ea8 babc 934a 9f3d
00000370: ed9c 853d c465 773c 4740 8bbd 5992 063e
00000380: 1f71 303d 570b cfbd 2c9f 73bd b2ca aeba
00000390: 03e7 a23c 328f a23d 808a 263c 6e44 153e
000003a0: 8216 89bd 5fb5 e03b 7077 cbbd 4337 a93d
000003b0: 5e3c 42bd a0bd 2a3c 9e4f 5bbd 0c04 d3bd
000003c0: d44c 613b 5481 2ebd 665e e43c 628d a03c
000003d0: e71e 433d 4e44 f13c 4b54 123d ec8c 03be
000003e0: eed6 f13c 2a52 10bc f921 f1bd fb48 9ebd
000003f0: 5f88 6cbd 2345 983b 78b4 363d 6bd0 54bd

transformer_encoder.layers.0.linear2.bias f4 [16]
0.040319882 -0.0305619 -0.04294322 -0.054288216 -0.00068350334 0.008193876 -0.052986845 -0.013778945
-0.016711505 -0.021392973 -0.062806234 0.03298406 -0.010989656 -0.004748369 -0.006861551 -0.012565782
00000000: 7626 253d f35c fabc 3be5 2fbd 525d 5ebd
00000010: 222d 33ba 9b3f 063c bc08 59bd 16c1 61bc
00000020: 91e6 88bc 5140 afbc 8ea0 80bd 4b1a 073d
00000030: f50d 34bc 3598 9bbb ddd6 e0bb b6e0 4dbc

transformer_encoder.layers.0.norm1.weight f4 [16]
1.0174979 0.9647624 0.98966646 0.9583254 1.0083547 0.97513616 0.9660314 0.9413618
1.0538938 1.0168846 1.0284581 1.0446677 1.0012579 1.0202554 1.0376234 0.97920334
00000000: 5f3d 823f abfa 763f c85a 7d3f d054 753f
00000010: c411 813f 86a2 793f d54d 773f 16fd 703f
00000020: fee5 863f 4629 823f 84a4 833f acb7 853f
00000030: 3829 803f bb97 823f d8d0 843f 12ad 7a3f

transformer_encoder.layers.0.norm1.bias f4 [16]
0.03093426 0.007754024 -0.010392217 0.019668285 -0.0024346823 -0.053876147 -0.064664416 0.035510447
-0.01971897 -0.00952204 -0.0047817254 0.019510161 -0.020586375 -0.0017326837 -0.0043941606 0.059385497
00000000: d869 fd3c 7815 fe3b 1e44 2abc 621f a13c
00000010: 318f 1fbb 3cad 5cbd c76e 84bd 6773 113d
00000020: ad89 a1bc 5502 1cbc 05b0 9cbb c6d3 9f3c
00000030: c2a4 a8bc 381b e3ba e4fc 8fbb 353e 733d

transformer_encoder.layers.0.norm2.weight f4 [16]
1.0263308 0.9986927 1.0560184 0.97885555 0.95497066 1.0238427 0.98509055 0.9979797
0.989266 0.99298674 0.9198641 1.0312166 0.9324523 0.9537925 1.0672879 1.0091449
00000000: cf5e 833f 53aa 7f3f 9c2b 873f 4796 7a3f
00000010: f578 743f 470d 833f e52e 7c3f 997b 7f3f
00000020: 8940 7d3f 6134 7e3f 377c 6b3f e8fe 833f
00000030: 32b5 6e3f bf2b 743f e49c 883f a92b 813f

transformer_encoder.layers.0.norm2.bias f4 [16]
0.024251234 0.026309222 -0.00720141 0.018665647 0.015591156 -0.054756157 -0.04010563 0.032144297
-0.021651601 -0.03794719 0.015395131 0.0225816 -0.04801891 0.018002894 0.02380017 0.057506267
00000000: 86aa c63c 7086 d73c cef9 ebbb b3e8 983c
00000010: 0c72 7f3c fe47 60bd cd45 24bd bda9 033d
00000020: b35e b1bc 836e 1bbd dc3b 7c3c 0cfd b83c
00000030: 7aaf 44bd ce7a 933c 93f8 c23c b18b 6b3d

transformer_encoder.layers.1.self_attn.in_proj_weight f4 [48, 16]
-0.25760418 0.192693 0.08430205 -0.1112676 0.23857526 -0.2868549 0.102149725 -0.09388651
-0.25595543 0.2906934 -0.023066364 -0.04602958 0.18455121 -0.22380233 0.30226153 -0.28152877
0.30510068 0.24657911 -0.21004558 -0.19433641 0.041832343 0.14071281 0.18556625 -0.28254366
-0.13294987 -0.2403794 -0.29786214 0.060502145 0.2178909 0.17794196 -0.0023651791 0.1980071
-0.05947565 0.20454656 0.083548725 -0.13337222 0.11432223 -0.18427731 -0.07434822 -0.07475622
0.2444779 0.11575585 -0.11402344 -0.07239152 0.065820776 -0.2895343 -0.30440652 0.11517265
-0.20270418 0.042015612 -0.13639538 -0.1064692 0.123795025 0.2885363 -0.2633885 0.07983202
0.004910122 0.1648467 -0.005034369 0.26258394 0.055851504 -0.12161359 0.035627414 -0.2651775
-0.06286616 0.27467734 -0.23246734 -0.039845746 -0.012365443 -0.0073851305 -0.24409388 0.2891576
0.08922565 0.032654285 -0.014288641 0.27519873 -0.16575132 -0.25194544 0.046067137 0.25312322
-0.09760285 -0.12793517 -0.08974964 -0.157523 0.071759224 0.2500314 -0.022448707 0.039108515
0.07487222 0.028727444 -0.12813352 -0.18115345 -0.0128796585 -0.19988595 -0.20426266 0.04991952
0.2997196 -0.060243797 -0.27663404 0.16239879 0.14685613 0.2639191 0.09951419 -0.0077325036
0.19563338 0.035973363 -0.039168045 -0.1441746 0.16156453 -0.15181364 0.21328475 -0.17535323
-0.25225887 0.097308554 0.16705428 -0.03857112 -0.26885888 -0.16272867 -0.030432442 0.02714293
0.028777193 0.060378775 0.24147269 0.064262435 0.21214455 -0.12727287 -0.16797993 0.07398957
-0.08455475 0.020345965 0.2914041 -0.1212795 0.12961338 -0.060973253 -0.24952333 -0.11136173
-0.03982516 0.16191946 0.08658018 -0.17009537 -0.3042362 0.09048213 0.14326309 -0.14477588
0.1029854 -0.013503666 -0.10637959 0.19187883 0.2134839 0.12708013 0.18806034 -0.27577657
-0.27788594 -0.27641025 -0.11153 -0.13137601 -0.071126565 -0.23352191 0.24197255 -0.03969219
0.25927868 -0.14098756 0.08292213 -0.1516715 0.21728799 -0.1018325 -0.14327605 0.14096153
-0.13152158 0.16581342 0.06480114 -0.0329868 0.24134168 -0.14677499 0.03935299 -0.17980954
-0.23860388 -0.14144403 -0.0850886 0.19841397 0.002409527 -0.23985101 0.24381243 0.013597654
-0.17142047 0.0630645 -0.028644333 0.01470102 0.27538747 -0.2813693 0.2886901 -0.18980521
0.024909336 -0.18090458 -0.2596706 -0.020003775 0.23427707 -0.052536298 0.010157142 0.19710003
0.17820174 -0.24301377 -0.021797288 0.016018424 0.056097806 0.24660762 0.22978906 0.009662344
0.2743279 0.03357789 -0.18328173 0.20891629 0.27184898 -0.07513272 -0.019106818 -0.18745923
-0.21981464 -0.06630707 -0.19135384 -0.14322367 0.069023855 0.22958174 0.1560273 -0.2915805
-0.21246178 0.23503 0.050718546 0.04151085 -0.25861153 0.22518358 0.2729136 0.08524939
0.053730585 -0.106458396 -0.05401127 0.26958466 0.02147061 -0.13900205 -0.22520073 -0.12238659
-0.066116646 0.026625102 -0.0635482 0.2664304 0.020289317 -0.16496946 -0.124138094 -0.16675049
0.019973919 -0.21433093 0.1574708 0.30301556 0.091905825 0.28023747 -0.016821977 -0.26063633
00000000: b2e4 83be 5051 453e 8ea6 ac3d 44e0 e3bd
00000010: 134d 743e a5de 92be e033 d13d 9247 c0bd
00000020: 970c 83be c4d5 943e acf5 bcbc 8389 3cbd
00000030: fefa 3c3e 702c 65be 06c2 9a3e 8a24 90be
00000040: 2836 9c3e 3c7f 7c3e 3016 57be 2000 47be
00000050: 6458 2b3d 0517 103e 1405 3e3e 90a9 90be
00000060: 0324 08be 0426 76be 6381 98be 19d1 773d
00000070: cb1e 5f3e 6b36 363e 1f01 1bbb 60c2 4a3e
00000080: bd9c 73bd a774 513e 981b ab3d ba92 08be
00000090: c621 ea3d 31b3 3cbe e143 98bd ca19 99bd
000000a0: 6a58 7a3e 6711 ed3d 1f85 e9bd 0142 94bd
000000b0: 0bcd 863d d73d 94be 2cdb 9bbe a3df eb3d
000000c0: af91 4fbe 9018 2c3d 3bab 0bbe 860c dabd
000000d0: 3f88 fd3d 08bb 933e dcda 86be f87e a33d
000000e0: 17e5 a03b 93cd 283e 59f7 a4bb 6771 863e
000000f0: 8cc4 643d 8c10 f9bd 0dee 113d 58c5 87be
00000100: f9bf 80bd 82a2 8c3e eb0b 6ebe 4b35 23bd
00000110: 6d98 4abc f7fe f1bb bff3 79be 770c 943e
00000120: f0bb b63d 80c0 053d e71a 6abc d9e6 8c3e
00000130: b7ba 29be fefe 80be e5b0 3c3d 5e99 813e
00000140: 01e4 c7bd 7001 03be a9ce b7bd b64d 21be
00000150: 80f6 923d 1e04 803e 5ae6 b7bc 4030 203d
00000160: 9b56 993d d155 eb3c 6f35 03be 4a80 39be
00000170: 3405 53bc e7ae 4cbe 3b2a 51be 6978 4c3d
00000180: d974 993e 33c2 76bd faa2 8dbe de4b 263e
00000190: 7461 163e 6720 873e 18ce cb3d f160 fdbb
000001a0: 1e54 483e ce58 133d ac6e 20bd 82a2 13be
000001b0: 2c71 253e 0975 1bbe 5167 5a3e cc8f 33be
000001c0: 1328 81be b549 c73d 4710 2b3e c0fc 1dbd
000001d0: dfa7 89be 58a2 26be 754d f9bc da5a de3c
000001e0: 26be eb3c bc4f 773d 9e44 773e 069c 833d
000001f0: 6c3c 593e d253 02be ee02 2cbe d887 973d
00000200: 0a2b adbd 95ac a63c eb32 953e 6361 f8bd
00000210: 5fb9 043e 17bf 79bd 0b83 7fbe 9e11 e4bd
00000220: b51f 23bd 37ce 253e f350 b13d 7b2d 2ebe
00000230: d9c4 9bbe b24e b93d 8fb3 123e 2140 14be
00000240: 02ea d23d 7b3e 5dbc 8bdd d9bd e27b 443e
00000250: 869b 5a3e 4b21 023e e492 403e 9632 8dbe
00000260: 1147 8ebe a585 8dbe d769 e4bd 6f87 06be
00000270: ceaa 91bd 5e20 6fbe a7c7 773e 4794 22bd
00000280: 2dc0 843e 0b5f 10be 14d3 a93d c64f 1bbe
00000290: be80 5e3e 8f8d d0bd f5b6 12be 3858 103e
000002a0: 98ad 06be feca 293e 76b6 843d 2b1d 07bd
000002b0: 4622 773e 2f4c 16be 9a30 213d fe1f 38be
000002c0: 9354 74be b4d6 10be ef42 aebd 082d 4b3e
000002d0: 28e9 1d3b 819b 75be f7a9 793e b2c8 5e3c
000002e0: d988 2fbe f627 813d 85a7 eabc 8cdc 703c
000002f0: 96ff 8c3e a30f 90be 30cf 933e 4c5c 42be
00000300: aa0e cc3c 0d3f 39be 8bf3 84be f5de a3bc
00000310: 54e6 6f3e 4d30 57bd 246a 263c 97d4 493e
00000320: 847a 363e 9ad8 78be 3a90 b2bc 1239 833c
00000330: d0c6 653d b586 7c3e d34d 6b3e cf4e 1e3c
00000340: b574 8c3e f888 093d 35ae 3bbe 27ee 553e
00000350: ca2f 8b3e 2fdf 99bd e785 9cbc 50f5 3fbe
00000360: 1717 61be 00cc 87bd 43f2 43be 3aa9 12be
00000370: 615c 8d3d 7a17 6b3e 9fc5 1f3e 0a4a 95be
00000380: 958f 59be b4ab 703e 40be 4f3d 4807 2a3d
00000390: bb68 84be 8696 663e 55bb 8b3e 3b97 ae3d
000003a0: 9a14 5c3d dc06 dabd ec3a 5dbd 0007 8a3e
000003b0: 22e3 af3c 8e56 0ebe 059b 66be d2a5 fabd
000003c0: 2a68 87bd e31c da3c 8f25 82bd 9169 883e
000003d0: c835 a63c c1ed 28be 1d3c febd a4c0 2abe
000003e0: 58a0 a33c 9179 5bbe 0740 213e db24 9b3e
000003f0: 1f39 bc3d 497b 8f3e 3ece 89bc 2072 85be

transformer_encoder.layers.1.self_attn.in_proj_bias f4 [48]
0.0 0.0 0.0 0.0 0.0 0.0 0.0 0.0
0.0 0.0 0.0 0.0 0.0 0.0 0.0 0.0
0.0 0.0 0.0 0.0 0.0 0.0 0.0 0.0
0.0 0.0 0.0 0.0 0.0 0.0 0.0 0.0
0.018740844 0.0025100694 -0.04122235 0.042546865 0.032398954 -0.036496416 -0.06694579 -0.033717293
-0.0054619103 -0.043358948 -0.06832746 -0.040810253 0.010696855 0.042311635 -0.026306791 0.021093704
00000000: 0000 0000 0000 0000 0000 0000 0000 0000
00000010: 0000 0000 0000 0000 0000 0000 0000 0000
00000020: 0000 0000 0000 0000 0000 0000 0000 0000
00000030: 0000 0000 0000 0000 0000 0000 0000 0000
00000040: 0000 0000 0000 0000 0000 0000 0000 0000
00000050: 0000 0000 0000 0000 0000 0000 0000 0000
00000060: 0000 0000 0000 0000 0000 0000 0000 0000
00000070: 0000 0000 0000 0000 0000 0000 0000 0000
00000080: 6686 993c fa7f 243b c4d8 28bd 9f45 2e3d
00000090: c4b4 043d 447d 15bd e01a 89bd 251b 0abd
000000a0: d3f9 b2bb 2799 31bd 44ef 8bbd a728 27bd
000000b0: dd41 2f3c f74e 2d3d 5781 d7bc b4cc ac3c
