embedding_autoencoder_transformer/transformer_classifier_samples_500.pt (torch, 239346 bytes, 41 tensors)

embedding.weight f4 [16, 16]
000000 34 07 3d be a2 55 62 3c 75 ec 81 bd 34 d0 3c 3e
       -0.18459779 0.013814362 -0.06343929 0.18438798
000010 b1 24 0c 3e 82 c2 1c be e7 bf f9 3d 16 f2 3d bd
       0.13685872 -0.15308574 0.121948056 -0.04637345
000020 c9 ec 8b be 60 d9 3d be a9 bb 97 bd 1f 8a 96 bd
       -0.2732909 -0.18539953 -0.0740884 -0.07350563
000030 e6 4d e1 bd 9f b5 26 3e e1 03 e7 3d e8 4e 27 bd
       -0.11001186 0.1628022 0.11280037 -0.040846735
000040 67 84 25 3e c4 3f 28 be 9a 74 8b be 1d 69 62 be
       0.16163789 -0.16430575 -0.27237397 -0.2211041
000050 a3 76 00 3c 34 eb d0 3d e6 04 1d 3e c6 58 24 3e
       0.007840785 0.102011114 0.153339 0.1604949
000060 18 f1 81 3c 67 26 5c 3e e7 e2 75 be bb 1f 19 3e
       0.015862033 0.21499024 -0.24012338 0.1495351
000070 d9 28 61 3e 14 7f 88 be ff 14 bb bd 49 75 96 bd
       0.21988238 -0.26659453 -0.09134864 -0.07346589
000080 a7 5d f6 3b 0c 24 49 3d b7 12 d1 3d 27 77 65 3e
       0.0075184884 0.049106643 0.10208648 0.22408734
000090 b6 e5 2e 3e cf f1 ed 3c 22 1b 69 be 5a dd e8 3d
       0.17079815 0.029045967 -0.22764257 0.113703445
0000a0 bd 5e ca 3d 0e 5e 17 3e ae da 73 3e 10 08 2c 3e
       0.09881351 0.14781973 0.23813888 0.1679995
0000b0 29 6c 97 3c b8 59 05 3e f9 36 a3 bd da c7 04 be
       0.018484192 0.13022506 -0.079694696 -0.12966862
0000c0 5f 90 3a bd a5 53 a5 bd 9c 66 88 bd 04 51 96 bc
       -0.04554784 -0.080725946 -0.06660196 -0.018349178
0000d0 54 df ca 3d 2b 3d 61 bd e7 5d d9 3d 5e c7 1a be
       0.09905878 -0.054989975 0.106136136 -0.15115115
0000e0 9c b3 4b 3e 3a 23 92 be 10 de 0d 3e be 12 86 3e
       0.19892734 -0.285425 0.13854241 0.26186174
0000f0 d2 1a 8b be e6 93 7b 3c cb c9 de bd 81 12 c5 3d
       -0.271689 0.015355086 -0.10878333 0.0962267
000100 ac fc cd bd a8 75 d5 bd b2 c1 a1 be ea 03 8e 3e
       -0.10057959 -0.10422832 -0.3159309 0.2773736
000110 05 92 89 bc 6f de 22 3e eb b9 c1 bd c7 89 01 3e
       -0.01679326 0.15905164 -0.09459289 0.12650214
000120 d7 05 cd bd c9 39 f0 bd 3a 31 3b be b3 93 1f 3d
       -0.100108795 -0.11729772 -0.18280497 0.038959216
000130 c3 5f 1a be a8 65 e0 3d 98 3e 54 3e 14 d3 1d 3c
       -0.15075593 0.109568894 0.20727003 0.0096328445
000140 5b 42 5c bb 1e 5f f8 bd c4 0e 70 3e 2d fb ee bc
       -0.0033608887 -0.12127517 0.23443133 -0.029172504
000150 5c 5f bd 3d bd f0 da bd 39 f7 10 be a7 fa 29 3e
       0.09246704 -0.106904484 -0.14156808 0.16599523
000160 27 65 35 3e 8a 26 5c be 5d c8 43 3e 98 a5 1d be
       0.17714368 -0.21499076 0.19119401 -0.153952
000170 f5 17 6b be de 34 87 3b ff 22 70 bc e5 8c d7 bd
       -0.22958358 0.0041261753 -0.014656781 -0.105249204
000180 bc e0 48 3e a9 d7 f2 bd 42 91 c8 3d 78 c7 8d bd
       0.1961698 -0.1185754 0.09793331 -0.06922811
000190 40 42 24 3e e3 3a 6e 3e 75 2d 34 bd 3b 70 1a be
       0.16040897 0.23264651 -0.043988664 -0.15081875
0001a0 c6 f2 a6 bd a2 5c 6b 3e b8 ad 01 3e 8e 73 4d 3d
       -0.08151774 0.22984555 0.12663925 0.05015903
0001b0 d3 95 b0 bd 80 ea 66 be 60 d6 fb 3d 75 eb 88 bd
       -0.08622327 -0.22550392 0.12296748 -0.06685535
0001c0 13 a1 0e 3e 4a 16 49 3e 1a 2d 5f 3d 50 2b 34 3e
       0.13928632 0.19637409 0.05448637 0.17594647
0001d0 9e e1 dc bc 24 b8 1b be 3e db 06 be 1b c0 e8 bd
       -0.026963051 -0.15206963 -0.13169572 -0.11364766
0001e0 99 4b dd bd fa 0b 6f 3e ce a1 24 be f8 a6 6d be
       -0.10805435 0.23344412 -0.16077349 -0.23208225
0001f0 95 10 94 bc 6c 8e d1 bd dd db 02 be e7 e2 11 3e
       -0.018074313 -0.10232243 -0.12779184 0.14246713
000200 1a 71 51 be 35 4d 87 be 2c 96 57 3e b2 d0 46 be
       -0.20453301 -0.26426092 0.2105338 -0.19415548
000210 ca 84 30 bc b7 83 f8 bd 5b 2c 8d 3e a3 11 0a be
       -0.010773847 -0.121344976 0.27572903 -0.1348329
000220 14 f6 fb bc e7 64 49 be e9 67 d6 bb 60 6b 2d 3e
       -0.030756988 -0.19667397 -0.006543149 0.16935492
000230 d1 d6 18 3e b2 26 8c 3d 78 6c 90 3d 6c e5 04 3d
       0.14925696 0.06843318 0.07051939 0.032445356
000240 90 1f 24 3e b5 9a 4f be 82 da 78 3e 18 fc fd bd
       0.16027665 -0.2027386 0.24302104 -0.12401599
000250 16 c1 32 be e8 11 82 be df db b2 3c 10 b1 42 3e
       -0.17456469 -0.25404286 0.021833358 0.19012856
000260 3c 83 97 3d 4f 30 41 3c 1f 15 f6 3c 80 dd 0f 3c
       0.07398078 0.011791303 0.030039368 0.008780837
000270 bc 39 7e bd e5 69 0d be 28 df 30 be 26 4e 6d be
       -0.06206678 -0.13809927 -0.17272627 -0.23174343
000280 aa bd 02 3d cb 0e 93 3c 32 f8 a1 be c0 d8 60 3b
       0.03191916 0.01795139 -0.3163467 0.003430888
000290 a7 c1 83 3d a2 93 72 be d3 15 0a 3e 05 a8 24 bd
       0.06433421 -0.2368913 0.13484888 -0.0401993
0002a0 8e 47 05 3e 22 7a 00 3e 1b e1 c9 3c 2d e0 07 3e
       0.13015577 0.1254659 0.024643471 0.1326911
0002b0 a6 e8 e7 bd fd 35 af bd 00 86 e5 3d ae 9b 6d be
       -0.11323671 -0.08555219 0.11207199 -0.23203918
0002c0 c1 1e a9 bd d3 70 22 3e 64 cc 83 bd 4a 03 68 3e
       -0.08257819 0.15863352 -0.06435469 0.22657505
0002d0 2e 10 25 be 3e 4f 18 ba 89 30 ae bd d8 e1 64 3e
       -0.16119453 -0.0005810148 -0.08505351 0.22351778
0002e0 91 4b 7b bd 0d 38 4d 3e 38 cd 21 be e8 aa d4 3d
       -0.061351363 0.20040913 -0.15800941 0.1038416
0002f0 b7 40 0e bd 22 29 31 3d 65 76 4e bd 23 5e b8 3d
       -0.034729686 0.043252118 -0.05040588 0.0900233
000300 d6 c0 fa bd 89 6f 68 be 5f f6 3a 3e 44 dc 62 be
       -0.12243812 -0.22698797 0.18258046 -0.22154337
000310 b4 ed 0f 3e ea 8d 38 3c a7 19 57 3d 86 d1 46 be
       0.1405552 0.011264304 0.0525147 -0.19415864
000320 5a 7c 33 3e 9a a2 83 bd 44 fb 3c 3d ef 71 38 3e
       0.17527905 -0.06427498 0.046138063 0.18012212
000330 63 65 8b 3e 1b 7b a2 3d 80 b0 de bd b0 35 84 3c
       0.2722579 0.07933637 -0.108735085 0.016138881
000340 bb fb 0a bd 07 8a 85 be fb 0e 2e bd 59 ee 12 be
       -0.033931475 -0.2608187 -0.042494755 -0.14348735
000350 ef 6c 50 be c7 6a 9c bd a6 f4 79 be cb ce 17 3e
       -0.20354055 -0.07637554 -0.24409732 0.14824979
000360 07 3a e5 bd b7 71 1a bd 62 c1 1a 3e ab 83 0a 3e
       -0.111927085 -0.037706103 0.15112832 0.1352679
000370 73 8a a4 bd 07 af 1d be 9b 79 68 be a0 a8 4a 3e
       -0.080342196 -0.15398799 -0.22702639 0.19790888
000380 01 79 b0 3d 36 dc 1f be bb 1b c8 bb b3 ec 9f 3e
       0.0861683 -0.15611348 -0.0061068214 0.31235275
000390 bc 6b c7 3d 4d 1f 26 3d 90 76 ae 3d 7a 20 45 be
       0.097373456 0.040557195 0.08518708 -0.1925067
0003a0 2b 44 2d 3d a6 05 dd bd 08 74 d4 3d 6c f5 fc bd
       0.04230134 -0.10792093 0.10373694 -0.12351498
0003b0 a0 8d 7e 3e 36 3c 7e 3d f3 e7 84 be f2 9c d9 ba
       0.24858713 0.06206914 -0.25958213 -0.001660256
0003c0 a7 3c 23 be ba d5 54 be 73 5d bb 3d 97 46 84 bc
       -0.15941106 -0.20784655 0.091486834 -0.016146941
0003d0 0a 4f 0b 3e 71 b2 c1 bc 9c 60 0c 3e 1a c6 c9 bd
       0.1360437 -0.023644658 0.13708729 -0.09852238
0003e0 f2 30 a0 bd 00 00 da 3d 3e 02 86 bd 4f c3 7b be
       -0.078218356 0.10644531 -0.065433964 -0.24586223
0003f0 af 82 95 3e 19 62 0c be b6 df 50 3e eb 22 1c be
       0.29201266 -0.13709296 0.20397839 -0.15247695

embedding.bias f4 [16]
000000 1c 39 14 3e 54 37 c5 3a 7e e7 34 bd 34 b3 d9 3d
       0.1447491 0.0015046396 -0.04416608 0.106298834
000010 4e 9d f0 3d 83 da 9a 3d ae c0 93 3c a3 f8 12 be
       0.117487535 0.07561209 0.018036213 -0.1435266
000020 2c 7c 31 3e f0 db 26 be 1f 8e d7 3d 68 c7 69 bd
       0.17332524 -0.16294837 0.10525154 -0.057074934
000030 6e 89 57 3e 4e 05 67 be 34 f4 bf 3d b4 ba 43 3e
       0.21048519 -0.22560617 0.0937275 0.1911419

transformer_encoder.layers.0.self_attn.in_proj_weight f4 [48, 16]
000000 a9 04 2c bd 4d 74 ef 3d 78 0c 18 be 61 23 86 be
       -0.04199663 0.116921045 -0.14848506 -0.26198867
000010 e9 ed 07 3c 30 3b 27 be 7d a2 12 3e b8 66 19 3d
       0.008296468 -0.16331172 0.14319797 0.037451476
000020 07 8a 51 be b3 58 ab 3d 65 4b 1e 3e 72 49 29 3e
       -0.2046281 0.083665274 0.15458448 0.16531923
000030 03 74 50 bd c9 ba 93 3d 61 98 67 3e c5 6d 15 3e
       -0.050891887 0.07213361 0.22616722 0.14592655
000040 1f 6f cd bd 55 f5 e1 3d f2 08 5a 3d 8f d0 f1 3d
       -0.1003096 0.110331215 0.053231187 0.118073575
000050 9e de 71 3e 35 f2 a1 bd a4 0f 37 39 57 d5 ca 3d
       0.23620078 -0.079075254 0.00017458067 0.099039726
000060 8b 56 94 be b9 ca 72 be 16 4c 92 bc be e9 88 3e
       -0.28972277 -0.23710145 -0.017858546 0.2674083
000070 05 9e 6d 3e 43 e1 67 be c8 8b 25 be 0f f7 1c 3e
       0.23204811 -0.22644524 -0.16166604 0.1532862
000080 f0 d7 5d 3e b1 e0 6d be b0 0e 0f be 87 79 f9 3d
       0.21664405 -0.23230244 -0.13970447 0.121813826
000090 fc 2b 90 3e 3f 64 2a 3d ec 32 c4 bd 33 47 32 be
       0.28158557 0.04159951 -0.09580025 -0.17409973
0000a0 64 dc 85 be 76 e8 29 3e a2 02 47 3c ff 92 3f be
       -0.26144707 0.16592583 0.012146624 -0.18708418
0000b0 ee 78 08 3e 9e 0b 98 bc cd f6 93 be ab e5 ac bc
       0.13327381 -0.018560227 -0.28899232 -0.021105608
0000c0 6d e4 74 3e c6 e0 fb 3d bf 86 35 be a2 db 88 3e
       0.23915263 0.122987315 -0.17727183 0.26730067
0000d0 16 74 46 3e 6f cc 58 3e a7 cb 11 be e0 47 3d be
       0.19380221 0.21171735 -0.14237843 -0.1848445
0000e0 d1 59 0a be 13 0a 12 be f8 88 54 3e d1 08 cd 3c
       -0.13510825 -0.14261656 0.20755374 0.025028618
0000f0 27 01 fe bd 7f 2c 61 bd b5 db 11 3e a3 7a 96 3e
       -0.124025635 -0.054974075 0.14243968 0.2939044
000100 b6 9e cb bd bc 86 06 be 73 82 82 3d 9e 18 59 be
       -0.09942381 -0.13137335 0.063725375 -0.21200797
000110 77 b5 7c 3e d0 fe 5c 3e 18 96 20 bd 27 f0 08 3e
       0.24678598 0.21581578 -0.03920564 0.13372861
000120 05 43 98 3e 80 df e7 3d 85 8d 21 3e 44 1d 37 3c
       0.29738632 0.11321926 0.15776642 0.011176411
000130 06 ed 21 3e 6a f1 8c be da da 37 3e 4a 8a 5b 3e
       0.15813074 -0.27527934 0.17954579 0.21439472
000140 cb 06 90 bc 7a 91 16 3e 93 6a 8a 3e 7b 0a c7 3d
       -0.017581364 0.14703932 0.27034435 0.09718796
000150 98 73 bd 3c 3d 55 81 3d 6e 4d df 3d be 26 3f be
       0.023126408 0.06315086 0.109034404 -0.18667123
000160 7f b4 0c be 78 da 04 3e 3d 8a 4b 3e 5f 1d ee bd
       -0.13740729 0.12973964 0.19876952 -0.11626696
000170 6b ba 8d 3d b1 60 49 be 1b 2b 8f bc e1 9a e7 bd
       0.06920322 -0.19665791 -0.017476609 -0.11308838
000180 60 30 89 be 0a cd 10 be ad 46 85 3e 47 d4 84 bc
       -0.2679472 -0.14140716 0.26030484 -0.016214503
000190 e1 26 99 3d ea cc 90 3e 68 2f 05 3e 3b ef 7c 3e
       0.07478119 0.28281337 0.13006365 0.24700634
0001a0 57 4a 99 be cf c9 90 3e 23 88 8e bd d0 be e1 bd
       -0.2993953 0.28278968 -0.0695956 -0.11022723
0001b0 c9 b9 0a 3e 42 7e e2 3d 76 46 57 3e 10 41 8a 3d
       0.13547434 0.11059238 0.21022972 0.06750691
0001c0 6a cb c3 bd a8 37 6b 3e db d0 57 bc 74 b0 93 be
       -0.095602825 0.2297045 -0.013172354 -0.2884556
0001d0 2a 58 74 3c 0d 63 a7 bd 0a 2c 52 3e 96 ed 20 bd
       0.014913598 -0.08173189 0.20524612 -0.03928908
0001e0 bf d2 00 be ad 28 76 be d7 b1 8b be 5d 28 8f be
       -0.12580393 -0.24038954 -0.2728412 -0.27960482
0001f0 f4 2d 85 3d 82 34 6b 3e af 7d 9d bb 15 66 72 3e
       0.065029055 0.22969249 -0.0048062424 0.23671754
000200 81 da 31 bb 9b ed 36 be bf 09 91 be 1a 13 35 3d
       -0.0027138295 -0.17864077 -0.28327748 0.04420767
000210 a0 10 d3 bd 6f 68 e5 3c 48 b5 13 be 25 f5 50 bd
       -0.10305905 0.0280039 -0.14424622 -0.051015038
000220 4f 7d fc 3d d5 9a 0b 3e eb 77 0e 3e a6 70 f1 bd
       0.12328588 0.13633282 0.13912933 -0.11789064
000230 04 72 96 bc 3c 76 91 bd ee 67 c0 3d b2 9f 2b 3d
       -0.018364914 -0.071026295 0.09394823 0.041900344
000240 33 b3 1d 3e f4 29 3d 3e 34 57 39 be 91 b7 0b 3e
       0.1540039 0.18473035 -0.18099672 0.13644244
000250 70 0b 01 3e 1e 19 75 be 5e f6 46 be f8 14 50 3e
       0.1260202 -0.23935363 -0.19429919 0.20320499
000260 d9 64 10 3e 4f b5 5c be 8c b6 18 3e 14 11 86 3e
       0.1410097 -0.21553539 0.14913386 0.26184905
000270 ca 35 6b be 09 22 73 3d ac a0 f4 bd 5a 8d ef bd
       -0.22969738 0.05935863 -0.11944708 -0.116968825
000280 91 99 9d bd f6 3d a5 bd 2f 22 d0 bd c8 9d c2 bc
       -0.07695306 -0.08068459 -0.1016277 -0.023756877
000290 4a d9 14 3e a1 a5 ab bc bf 74 83 3e ed e4 82 3e
       0.14536014 -0.020953001 0.25675008 0.25565282
0002a0 9a d8 37 3e b0 5b fc 3d fe 6b e3 bd b2 1c 83 3e
       0.1795372 0.123221755 -0.11104582 0.2560783
0002b0 aa 16 23 3e dd 5f 3f 3e e2 cc 8d be be 4b 8c bd
       0.15926614 0.18688913 -0.27695376 -0.06850384
0002c0 f7 73 8e bd 35 fe 6a 3e 36 87 91 bc f8 25 87 3e
       -0.06955712 0.22948535 -0.017764669 0.26396155
0002d0 e6 c4 93 be 83 c5 2c 3e 32 15 31 be ea 02 eb bc
       -0.2886116 0.1687222 -0.17293242 -0.028687913
0002e0 d5 cb 11 be 52 91 ff 3d b5 bc 2a 3e dc 75 bc bd
       -0.14237912 0.124788895 0.16673549 -0.092021674
0002f0 72 71 79 be ef 80 42 3e a2 b5 71 bc 4b 36 4d 3e
       -0.24359682 0.18994497 -0.014752777 0.20040242
000300 5c 71 1d be bc 8c b1 ba c5 28 91 bd 38 2d 90 bb
       -0.15375274 -0.001354597 -0.07087854 -0.0043999217
000310 8c af 37 be 75 e3 59 be 8a 80 ee bd bd af b9 3d
       -0.1793806 -0.21278174 -0.11645611 0.090667225
000320 c9 8f 5d 3e 05 08 5e be 68 dd 68 3e 8c 41 87 bd
       0.21636881 -0.21682747 0.2274071 -0.06604299
000330 fa 73 86 be 28 8b 86 be fe 74 f5 bc 2e 5b 66 3e
       -0.26260358 -0.26278043 -0.029963013 0.2249572
000340 0b 29 9b 3d 0c d4 35 3e 66 f7 a9 bd 96 a1 6f be
       0.07576188 0.1775667 -0.08299141 -0.23401484
000350 a1 9e 1c 3d 84 41 2e be 90 b5 9f 3d eb ea 8b be
       0.038237218 -0.1701718 0.07798302 -0.27327666
000360 95 f9 7d 3e 56 e2 88 3e 92 d5 22 3e 06 07 71 3e
       0.24802239 0.2673518 0.15901783 0.23537835
000370 e1 2c 20 3e 47 7b 5d 3e 4f 42 46 be ab c7 cf bc
       0.1564212 0.21629058 -0.19361232 -0.025363764
000380 c9 f0 3b be a9 ec 97 3e d7 42 bc 3d d8 5e e3 3d
       -0.18353571 0.29672745 0.09192436 0.111020744
000390 28 d3 e1 3d 07 13 89 bd af 06 8f 3e 37 4a b1 bd
       0.11026603 -0.06693082 0.27934787 -0.086567335
0003a0 f3 87 4c 3e bc fe d2 3d 0b 86 8f bd ce 61 40 be
       0.19973736 0.10302493 -0.070079885 -0.1878731
0003b0 7b 1a bc bd fd 67 15 3e 13 d0 98 be b2 69 18 bd
       -0.09184738 0.1459045 -0.29846248 -0.037210174
0003c0 7e f9 8d be e9 1a 89 be ad 6f 4b bd 93 a3 1b be
       -0.2772941 -0.26778343 -0.04966705 -0.15199117
0003d0 8b 31 c0 3d be f5 3c 3e 70 28 af bd de 99 91 bd
       0.093844496 0.18453118 -0.08552635 -0.07109426
0003e0 d2 fd f7 bd 34 8f 7f 3e 47 39 00 be f7 41 31 3e
       -0.12108959 0.24956971 -0.1252185 0.1731032
0003f0 98 1c 1f 3e 5c a2 36 3e e1 e7 96 be 9a 6e 79 3e
       0.15538251 0.17835373 -0.29473785 0.24358597

transformer_encoder.layers.0.self_attn.in_proj_bias f4 [48]
000000 00 00 00 00 00 00 00 00 00 00 00 00 00 00 00 00
       0.0 0.0 0.0 0.0
000010 00 00 00 00 00 00 00 00 00 00 00 00 00 00 00 00
       0.0 0.0 0.0 0.0
000020 00 00 00 00 00 00 00 00 00 00 00 00 00 00 00 00
       0.0 0.0 0.0 0.0
000030 00 00 00 00 00 00 00 00 00 00 00 00 00 00 00 00
       0.0 0.0 0.0 0.0
000040 00 00 00 00 00 00 00 00 00 00 00 00 00 00 00 00
       0.0 0.0 0.0 0.0
000050 00 00 00 00 00 00 00 00 00 00 00 00 00 00 00 00
       0.0 0.0 0.0 0.0
000060 00 00 00 00 00 00 00 00 00 00 00 00 00 00 00 00
       0.0 0.0 0.0 0.0
000070 00 00 00 00 00 00 00 00 00 00 00 00 00 00 00 00
       0.0 0.0 0.0 0.0
000080 e9 c9 d2 bb e9 05 0c bc 81 71 10 3c 51 88 ce bc
       -0.006432761 -0.008546331 0.008816124 -0.025211485
000090 92 01 07 bc 0b 78 a2 3c bb 4d ab bc 30 43 2d 3d
       -0.0082401205 0.019832632 -0.020911088 0.042300403
0000a0 f5 8f f3 3c 0c b1 80 3d 7a 44 f3 bc fb b4 bb 3c
       0.02973173 0.06283769 -0.029695738 0.022913447
0000b0 c1 b4 32 bc 73 8b 38 3c b6 7a f7 3c 2e a0 48 bc
       -0.010907353 0.011263716 0.03020988 -0.012245221

transformer_encoder.layers.0.self_attn.out_proj.weight f4 [16, 16]
000000 bf ad 2f 3d df 08 b7 bc 88 47 c8 bd 2e 08 83 3d
       0.042890307 -0.022343097 -0.097792685 0.063980445
000010 f5 f2 f9 bd 05 b4 6b bd a2 6e ef bd 80 86 e2 bc
       -0.122045435 -0.057544727 -0.116910234 -0.027652025
000020 80 78 04 bc 2e de a4 bd 71 d1 89 bd 6f 2b 3d 3e
       -0.00808537 -0.0805019 -0.06729401 0.184736
000030 80 f0 0e bc 30 dc 0c be f2 cf 44 be a8 01 30 bd
       -0.008724332 -0.1375587 -0.1921995 -0.04297033
000040 df 31 3a be b9 d5 43 3e 41 fe 87 bd ee 8f 56 3e
       -0.18183087 0.19124497 -0.06640292 0.20953342
000050 e5 a5 23 3e d4 73 14 be eb 0b d5 bd de 3f 07 bd
       0.15981252 -0.1449731 -0.10402664 -0.033019893
000060 80 ef 40 be 80 63 02 bd d3 ad 71 3e dd a4 6e bd
       -0.18841362 -0.03183317 0.23601465 -0.058262695
000070 d3 30 02 be 9a 73 15 be e1 7c 18 3e cf 26 b7 3d
       -0.12713937 -0.1459488 0.14891388 0.08942949
000080 55 cf bc bd 03 6c ed 3d 7f 97 4b 3e 8f f0 7a 3e
       -0.09219233 0.11592867 0.1988201 0.24505828
000090 0c 09 f0 3d 24 96 83 3d 80 84 87 bd 2d 67 dd bd
       0.117204756 0.064251214 -0.06617069 -0.10810695
0000a0 c5 af 00 3e 44 5a a8 3c 47 20 90 3d 80 97 38 3e
       0.12567051 0.020550855 0.070374064 0.18026543
0000b0 e5 7f 78 be 9f f8 f0 3c 38 ba 1a 3d 56 55 6d 3d
       -0.24267538 0.029415427 0.03777525 0.05794271
0000c0 40 15 fa 3d 3b 5b d4 3d 44 f2 9d 3d 62 c0 d6 bd
       0.12211084 0.10368963 0.07712224 -0.10485913
0000d0 b2 7a ce 3c e3 d5 c0 bd 42 d6 aa bb 40 fd 12 be
       0.02520499 -0.09415796 -0.00521353 -0.1435442
0000e0 b8 ac 8b bd 6b 7e cf 3d 23 52 ac 3d 22 6c 36 3d
       -0.06820053 0.10131534 0.08414104 0.044536717
0000f0 3d 55 4b bd ac a7 48 be e7 c1 92 3d 31 8a f9 bc
       -0.049641836 -0.19595212 0.0716589 -0.030461403
000100 4c 82 23 3e 37 45 ba bd 28 67 bc 3d 37 aa 42 3d
       0.15967673 -0.09095233 0.09199363 0.04752561
000110 71 15 87 3d 0b fd 61 be 69 41 6a be c2 38 d9 bc
       0.065958865 -0.22069184 -0.22876514 -0.026516322
000120 14 36 7f 3e 69 76 04 3e 91 a0 05 3e 65 0f 05 3e
       0.24922973 0.12935795 0.13049532 0.12994154
000130 cd 58 66 bd d6 7f ad 3d 69 46 50 bd e5 6b 47 be
       -0.05623703 0.084716484 -0.0508484 -0.19474752
000140 b3 f2 ea 3d c8 53 ad 3d 60 d4 73 3e 23 15 69 3d
       0.114720725 0.08463246 0.23811483 0.056904923
000150 70 e8 69 bd 67 8a 15 bd b9 1a 14 bd cd c7 25 be
       -0.057106435 -0.036508944 -0.036158297 -0.16189499
000160 a4 7f 77 3b a1 c5 64 3e 2c de 64 3e 11 02 49 3e
       0.0037765289 0.22341014 0.22350377 0.19629695
000170 20 d0 22 3e f2 7f 48 3e 0c ac 36 be 8e 69 6d be
       0.15899706 0.19580057 -0.17839068 -0.23184797
000180 49 e5 63 be 0b 37 86 3c ce e2 1f bd d1 72 fb 3c
       -0.22255434 0.016383668 -0.039034657 0.030694397
000190 e1 41 0d bd 42 c1 f5 3d ed 7b 05 be eb 28 35 be
       -0.034486655 0.119997516 -0.13035555 -0.1769139
0001a0 80 3a 2c 3c 0b f6 33 be 9f da 34 be ee 14 d3 3c
       0.010511994 -0.17574327 -0.17661522 0.025766816
0001b0 1d a2 25 bd a6 d4 1d 3e 9f a2 04 bc 05 14 2e be
       -0.040437806 0.1541315 -0.0080954125 -0.16999824
0001c0 61 8f f5 b9 0e 0a 96 bd 45 7a 73 3d a7 0f 19 3d
       -0.00046836867 -0.073261365 0.059442777 0.037368443
0001d0 ef 61 39 be d8 3f e3 bd 54 49 a6 bd 32 7a 3e bd
       -0.18103765 -0.110961616 -0.08119455 -0.046503253
0001e0 62 f3 3a bd 46 e6 16 3e b3 64 5c be a8 50 81 bd
       -0.045642264 0.1473628 -0.21522789 -0.06314212
0001f0 a2 cc cb 3c 86 ac 30 3e d2 3a 06 3e d2 ac 49 3d
       0.02487785 0.17253312 0.13108376 0.04923708
000200 45 4e 47 3e fc 94 ea 3d 48 90 5b bd 75 3c ba bd
       0.19463451 0.11454198 -0.053604394 -0.090935625
000210 f5 2a 31 be e0 f5 05 be 71 e8 97 3d 5b db 37 3e
       -0.17301543 -0.13082075 0.074173816 0.17954771
000220 a8 66 9a 3d f4 5f fd bd 0f 00 0c be 42 b5 93 3d
       0.075391114 -0.12371817 -0.13671897 0.072123066
000230 21 44 d2 3d 6e cd 1f 3e 7d cc 19 3e 99 c1 59 be
       0.10266901 0.15605709 0.15019412 -0.21265258
000240 26 e4 9a 3d e2 d6 47 3d 8e 04 ba 3d fe 02 7c 3e
       0.07563047 0.048788913 0.090829 0.24610516
000250 0d 8d b6 3d 84 5d 32 be 29 f8 c6 3c a9 b8 92 bc
       0.08913622 -0.17418486 0.024288254 -0.017910318
000260 74 2c a7 3d ad 27 1f 3e 48 c5 57 be 01 b8 59 bd
       0.08162776 0.15542479 -0.2107135 -0.053153995
000270 eb 6e 13 be fc 23 23 be 30 82 74 bd ff 9b 33 3e
       -0.1439778 -0.15931696 -0.05969447 0.17539977
000280 b0 0e 6d 3e 83 cb 59 3e 27 41 67 be 87 cb 52 bd
       0.23150134 0.2126904 -0.22583447 -0.05146363
000290 0c 36 57 be 00 66 06 3e cc 8b 3b be 4e d8 ae 3d
       -0.21016711 0.13124847 -0.18315047 0.085373506
0002a0 60 02 15 be 3f b6 47 3e 68 a2 bb bd 1b 48 52 be
       -0.14551687 0.19503115 -0.09161836 -0.20535319
0002b0 60 a2 78 bd 7f 6c 42 3e e7 2a 0d be a5 5f f0 3d
       -0.060701728 0.189867 -0.13785897 0.11736993
0002c0 c9 00 0e be b5 61 01 3e 3c 46 1c be ac 2f d3 bd
       -0.13867487 0.12634929 -0.15261167 -0.10311827
0002d0 91 67 04 bd dd a7 a3 3d bd 91 2e be 14 27 3f 3c
       -0.03232533 0.07991002 -0.17047782 0.011667032
0002e0 62 79 f2 3d a0 f0 2d bc a2 6c 42 be 97 b6 54 be
       0.11839558 -0.0106164515 -0.18986753 -0.20772777
0002f0 f7 16 75 3d d7 e3 37 3e be 0f 6a 3d 61 8f 13 3d
       0.059836354 0.17958008 0.05714392 0.03602541
000300 1d cb 33 bb 1f d7 22 be 4d 62 56 be 48 03 76 3e
       -0.0027434297 -0.15902375 -0.20935936 0.24024689
000310 e0 44 c5 3d fa 9e 92 bd f2 7f 23 be 26 51 86 3d
       0.096322775 -0.071592286 -0.15966776 0.065584466
000320 3a c0 ec 3d a2 4a cf 3d 71 85 ba 3d bc c7 52 bd
       0.11560102 0.10121657 0.09107483 -0.051460013
000330 ea db f8 bd 94 c5 59 3c 61 67 16 bc 8f 2c 27 3e
       -0.1215132 0.013291735 -0.009179921 0.16325592
000340 b2 36 75 ba 53 9b 7b bd 52 61 29 3c a2 dd 24 be
       -0.00093541585 -0.061427426 0.010338144 -0.16100171
000350 e1 5c 16 bd 53 ee 45 3e 7b 53 c5 3d 9c aa 06 be
       -0.03670967 0.19329195 0.09635063 -0.1315102
000360 34 77 1f be d6 22 f6 bd 6a ff 26 3e 4d 29 3d 3e
       -0.15572816 -0.12018363 0.1630837 0.18472786
000370 9e 92 4c 3e d2 f5 c1 3d a2 d8 18 bc 4b 90 8d bd
       0.19977805 0.09470715 -0.009328993 -0.06912287
000380 fa 9e 24 bd c6 50 fc bd 36 f3 be 3d c5 6d d4 3b
       -0.040190674 -0.12320094 0.093237326 0.006482812
000390 98 cd 95 bd 1c d6 38 be 6a 61 da bd 68 ce 0f 3e
       -0.073146045 -0.18050426 -0.106631115 0.14043581
0003a0 72 b8 4b 3d 98 b4 a6 3d 58 12 22 be a8 76 a4 bc
       0.049736448 0.08139914 -0.1582731 -0.020076111
0003b0 72 cd 6c 3d 0d 00 5e 3e d5 f0 53 3e 13 44 18 be
       0.057813115 0.21679707 0.20697339 -0.14869718
0003c0 65 ca 7b 3e 6e a2 9f bc 17 df 27 be 40 57 6a 3e
       0.24588926 -0.019486632 -0.16393696 0.22884846
0003d0 33 dd 3d 3e af 6e 9b 3c 91 a1 a0 bc d2 40 df 3d
       0.18541412 0.018973676 -0.01960829 0.10901035
0003e0 08 e9 85 bd 1c 23 c4 3d 60 e4 5f 3d e1 c7 9e 3d
       -0.06538588 0.09577009 0.054661155 0.077529676
0003f0 c1 1a 2c bd d2 59 08 be 27 be c8 bd 0c d2 b9 3d
       -0.042017702 -0.13315514 -0.09801894 0.090732664

transformer_encoder.layers.0.self_attn.out_proj.bias f4 [16]
000000 e7 39 72 bc ee 59 48 bc 7a 23 10 3d 2f 6c 37 3b
       -0.014784313 -0.012228472 0.035190083 0.0027988066
000010 3f 9b 9e 3c 08 da 37 bc 79 02 32 3b 36 53 90 3c
       0.019361136 -0.011221416 0.0027162118 0.017617803
000020 ca 99 c4 bc 02 a6 fa 3a 1e 5e ad 3c a8 43 9d 3c
       -0.023999114 0.001912296 0.021163043 0.0191973
000030 1e 56 a1 bc a2 78 8d 3c 24 d0 36 3d 79 13 96 3b
       -0.019694384 0.017269436 0.044632092 0.004579958

transformer_encoder.layers.0.linear1.weight f4 [512, 16]
000000 4a e4 26 3e b5 89 86 bd d2 da 35 3e 9f d9 b3 bd
       0.16298023 -0.06569234 0.17759255 -0.08781742
000010 e4 e3 38 3e 22 f5 89 be b7 b9 41 3e 08 0e 32 bd
       0.18055683 -0.26944834 0.18918501 -0.043470412
000020 54 e5 cf bd 57 16 30 3e 30 d5 49 3e 00 a2 9b bd
       -0.10151163 0.17196022 0.19710231 -0.075992584
000030 e0 0c 0e 3e 1d cb 6d bd 01 c6 a5 3d 33 b9 95 be
       0.13872099 -0.058055032 0.08094407 -0.29242858
000040 34 44 63 bd da 8f ee bd 20 92 c1 3e 76 cc 2f 3d
       -0.055484965 -0.11648531 0.37806797 0.0429196
000050 d1 ec 4c bc b1 43 82 be b0 e5 07 be 91 d7 13 be
       -0.012507633 -0.2544227 -0.13271213 -0.14437701
000060 45 a8 76 be 88 16 4c 3e 4f 92 fe bd 0b c6 22 3e
       -0.24087627 0.1993047 -0.1243025 0.1589586
000070 f3 49 f2 3d c6 d8 67 bd 95 fd 6b 3e ca d0 5c 3d
       0.11830511 -0.056603216 0.23045953 0.053910054
000080 4a 0a e1 3c 83 c8 2f bd 5d 1b 4c 3e ef 34 0a 3e
       0.027470727 -0.042915832 0.19932313 0.13496755
000090 e4 c0 8e be 0b e6 24 be 95 9a d5 bd 72 0d 00 be
       -0.2788154 -0.1610338 -0.10429875 -0.12505129
0000a0 84 a1 7d 3e 35 bb 9c 3e 9e e8 92 bc 9f 7b 6c 3e
       0.24768645 0.30611578 -0.017933186 0.23094033
0000b0 95 03 26 3e b6 36 1a be 1f 08 89 be 02 54 56 be
       0.16212304 -0.15059933 -0.26764008 -0.20930484
0000c0 71 47 c3 bd 5d 15 e3 3d 4d 92 06 bd 23 70 6b 3c
       -0.09535111 0.11088059 -0.032854367 0.014369997
0000d0 f7 a2 79 3d 3d a0 46 3d 65 f1 28 bd 9c af 89 3d
       0.06094643 0.04849266 -0.041245837 0.06722948
0000e0 9d 2f 39 be c2 66 8f 3d 67 a7 e4 bd 29 91 16 be
       -0.1808457 0.07002021 -0.11164742 -0.14703812
0000f0 77 e3 29 be 12 a7 af bc 37 7a 64 3d 87 07 3c 3d
       -0.16590677 -0.02144197 0.055780616 0.045905616
000100 fd 1b 5e bd e9 f8 05 bd ea 93 44 be ae fc 42 3e
       -0.05422591 -0.032708082 -0.1919705 0.19041702
000110 bb 84 34 be c5 d9 0e 3c d5 96 85 be 5d e0 62 3d
       -0.17628758 0.0087189125 -0.26091638 0.05538975
000120 4c c3 36 bd dc 4d 94 3e e7 99 38 3e 6a 42 01 be
       -0.044619843 0.28965652 0.18027459 -0.12622991
000130 b0 23 54 3e ec 0b 8f 3c d1 f0 52 3e 72 83 2c 3e
       0.20716739 0.01746174 0.20599677 0.16847017
000140 5b 60 b3 3e bd ad 18 be b2 bb 71 3e 55 f9 38 be
       0.3503445 -0.14910026 0.23606756 -0.18063863
000150 90 42 08 be 10 42 a1 be 57 5a 9d 3d 85 08 63 be
       -0.13306642 -0.31495714 0.076832466 -0.22171219
000160 55 1e a5 bc 09 70 85 bc e3 5e 12 be 7c fe 58 be
       -0.020156065 -0.016288774 -0.14294009 -0.21190828
000170 4d a1 7e bb aa c9 fd bd 58 db 26 3d f4 9f 8c 3d
       -0.0038853467 -0.1239198 0.040736526 0.06866446
000180 09 68 02 3d 48 6d 0b 3e dd 80 94 be 8e 49 36 be
       0.031837497 0.13615906 -0.29004565 -0.17801496
000190 35 11 1c 3e aa 36 80 be 3d 37 0d be 02 bd b1 3d
       0.15240939 -0.25041705 -0.13790603 0.086786285
0001a0 0e d2 93 bd a4 11 90 3d db 10 a1 be f9 25 a5 3b
       -0.07217799 0.07034615 -0.31458172 0.005039927
0001b0 f8 a6 bd 3d 0c 77 1d 3d a0 c1 c1 3d 5e c3 22 3e
       0.092603624 0.03844361 0.09460759 0.15894839
0001c0 ae 92 29 bd 5c f9 12 be c4 18 95 3c 20 95 31 3e
       -0.04139965 -0.14352936 0.018200286 0.17342043
0001d0 a9 c6 8c be cb c6 c8 3d e2 af 60 be 4f 38 5c 3e
       -0.27495316 0.09803542 -0.21942094 0.21505855
0001e0 e0 6b f0 3d 02 91 dd 3d 15 01 0e 3e bd 43 8d 3d
       0.117393255 0.10818674 0.138676 0.06897686
0001f0 0e 95 bc bd 83 97 49 be 1c 4e 2e 3d 30 3e 53 bd
       -0.092081174 -0.19686703 0.04255496 -0.05157298
000200 d4 f4 14 3d b0 34 14 be 67 15 c6 bc 29 27 76 3e
       0.0363663 -0.14473224 -0.024180127 0.24038376
000210 13 06 0f be 36 3b 06 be d2 9d 05 bd 52 cd 9b 3d
       -0.13967161 -0.13108525 -0.032621212 0.07607521
000220 24 a1 14 be 57 b3 2d bd da 05 c9 bd c0 04 97 bd
       -0.14514595 -0.04240736 -0.09815569 -0.07373953
000230 05 0b ab 3c da 11 05 3e 04 c4 6e 3e e9 f2 91 be
       0.020879278 0.12995091 0.23316962 -0.28505638
000240 68 45 b1 bc a2 46 59 3d 57 08 7f 3e ce 07 3d 3d
       -0.02163954 0.053045876 0.24905525 0.04615002
000250 c9 2e 9c bd e1 15 7e be cd 91 17 3e 98 c4 c2 3d
       -0.07626111 -0.24813034 0.14801712 0.095101535
000260 78 e8 94 3e b2 35 2a 3c 60 75 02 3e ff 2c cd 3d
       0.2908361 0.0103887785 0.12740088 0.10018348
000270 83 6c 7e bd 67 ef 3e be 2b 43 8a 3e 76 c0 c1 bd
       -0.062115204 -0.18646012 0.2700437 -0.09460537
000280 b8 81 1a bd 9b f9 32 3e a6 67 ea bd 51 6d 16 be
       -0.037721366 0.1747803 -0.114455506 -0.14690138
000290 1c 06 81 bd 1f 0f ae bc d1 57 6a 3c a0 7c f1 bd
       -0.062999934 -0.021247445 0.014303164 -0.117913485
0002a0 2b 1a 14 be ff 19 16 3c 21 c0 df bc 77 cb fc bd
       -0.14463107 0.009161471 -0.027313294 -0.12343495
0002b0 28 29 9d be 0e 60 0b 3d 70 b4 87 3e c0 1f 19 be
       -0.30695462 0.03402715 0.2650485 -0.14953518
0002c0 24 d4 96 3d 8e 61 86 bd 79 e7 24 be fe 16 d2 bd
       0.07364681 -0.06561576 -0.16103925 -0.10258292
0002d0 86 c8 f3 bd 4b 1b 04 3c 4d 5c c9 3c 2f d4 ad bd
       -0.11903481 0.008063148 0.024580145 -0.084877364
0002e0 9d a1 59 3e d2 1e 57 bd e8 a3 0e 3e ec e1 ba 3d
       0.21253057 -0.052519627 0.13929713 0.091251224
0002f0 b0 c1 0a 3e 04 4c 77 bc 65 36 22 3e a3 2f 88 3e
       0.13550448 -0.015093807 0.15841062 0.26598844
000300 4f 74 8f bd f6 3a 03 3e 4b 38 f4 bd e5 bb 08 3e
       -0.07004606 0.1281546 -0.119247995 0.13352926
000310 21 6f 73 be 55 b2 9c bd db 21 9e bd c2 8c 5f 3c
       -0.23772861 -0.07651202 -0.07721301 0.013644399
000320 59 d7 cc 3d d7 cf 54 3e 4b 98 a8 bd 52 0d 56 bd
       0.10002012 0.2078241 -0.082321726 -0.052258797
000330 da b2 75 3d 72 d6 bb bc 1f a3 79 3e 43 44 57 3e
       0.05998502 -0.022929404 0.24378632 0.21022134
000340 85 53 76 be 88 f0 2f 3d 56 94 2f be 43 55 8a bd
       -0.24055298 0.042953998 -0.1714643 -0.06754544
000350 39 95 11 3e 3b 15 a0 be bc 4a 1f bd 72 bc 09 3c
       0.1421708 -0.31266198 -0.03888963 0.008406745
000360 d7 04 1f be dd 04 a4 3e 47 8e 36 be 30 c2 82 3e
       -0.1552919 0.3203496 -0.17827712 0.25538778
000370 bd 83 89 bd d5 5b 1d 3e c9 c7 81 3d 48 ba 8f bd
       -0.0671458 0.15367062 0.06336934 -0.07017952
000380 c8 26 07 3e 32 2e 91 3d df 1a 86 3e 31 9b 04 3e
       0.13198388 0.07088889 0.26192376 0.12949826
000390 08 39 04 3e 7e ee 16 3d 17 ff cc 3e 1c 15 29 be
       0.1291238 0.036848538 0.40038368 -0.16511959
0003a0 c4 19 3d bd ff 8a 27 3e af b4 74 be 59 9f 74 bd
       -0.04616715 0.16361617 -0.2389705 -0.05972228
0003b0 41 1c a1 3b 95 51 85 3e 2f cf 7a be f6 cb 9d bd
       0.004916698 0.26038805 -0.24493097 -0.07704918
0003c0 9a 88 9c be c3 4e 2a be 7c ca b4 bd ba 41 b9 bd
       -0.3057297 -0.16631608 -0.08827683 -0.090457395
0003d0 22 5a 20 3c ca 0e 50 3e 5a 2d 6d 3e e2 aa 70 3e
       0.009787114 0.20318142 0.23161831 0.23502687
0003e0 bc 47 8b bd fa 98 d8 bc b8 45 ca 3d 73 ff fb 3d
       -0.068007916 -0.026440132 0.09876579 0.123045824
0003f0 e6 dc 31 bd 4a a9 00 3d 02 b1 81 3e 7a 11 d7 3c
       -0.043423556 0.031411447 0.2533036 0.02625345

transformer_encoder.layers.0.linear1.bias f4 [512]
000000 e5 9f 4a 3c f3 18 20 be b3 01 0f 3d 36 90 bd bb
       0.012367223 -0.15634517 0.03491373 -0.0057850135
000010 6a 1a ba 3d d3 9a 08 3e 04 96 57 bd 5e 62 85 bd
       0.09087069 0.13340311 -0.0526333 -0.06512903
000020 33 17 9b bb 97 8b 2a bd 94 c6 51 be 4d 17 32 be
       -0.00473299 -0.04163703 -0.20485908 -0.17391701
000030 e6 72 a6 3d d6 dd a2 bd d3 74 4c be c0 f7 94 be
       0.08127384 -0.07952468 -0.1996644 -0.29095268
000040 f9 21 28 be 0e 55 63 3e 41 d9 cf bd 63 d7 46 3e
       -0.1641921 0.22200415 -0.1014886 0.19418101
000050 3b 93 9d be 1c 4d 01 be 43 59 cd 3d 5b ae e5 bd
       -0.3077639 -0.12627071 0.10026791 -0.11214896
000060 fd 7e 5a 3e 3e a0 cf bd bc e8 ca 3b 26 9f 0c 3e
       0.21337505 -0.10137986 0.006192295 0.13732585
000070 b9 aa 16 bd ad 9f 08 be 20 8c 09 be 5a 2e 08 be
       -0.036783908 -0.13342161 -0.1343236 -0.13298932
000080 65 64 6a be 3e b6 94 bd 15 06 54 be 68 da e5 3d
       -0.2288986 -0.072613224 -0.20705445 0.11223298
000090 49 87 9b 3d c1 50 c6 bd 20 7d 79 be a9 f8 63 3d
       0.07594163 -0.09683371 -0.24364138 0.055657063
0000a0 07 3c 3e 3e 30 08 58 3d c5 56 4d be bd 90 bd 3d
       0.18577586 0.052742183 -0.20052631 0.09256122
0000b0 de 11 58 3e 03 c1 04 3e f5 58 62 3d f3 3f 86 bd
       0.21100566 0.12964253 0.055260617 -0.06555166
0000c0 71 26 1b 3e 69 1e 39 3e a3 8e 27 be 10 34 f8 bd
       0.15151383 0.18078007 -0.16363005 -0.12119305
0000d0 8a 49 8c bd 8a 8d 1b be af 7b 66 be 4d 9d 93 bd
       -0.06849964 -0.15190712 -0.22508119 -0.07207737
0000e0 13 5d f4 b9 c1 7d 75 be 22 17 9e 3d 4f 53 51 3e
       -0.00046608652 -0.23973753 0.07719256 0.20441936
0000f0 39 8b a0 bd e5 56 d1 3d f7 e2 90 3d fd 74 00 3d
       -0.078390546 0.10221652 0.0707454 0.03136157
000100 59 7f 67 be d3 f9 35 bd b8 e3 0e 3e da 92 f7 bd
       -0.22607173 -0.044427704 0.13954055 -0.120885566
000110 54 66 52 be 1d d6 ae 3c 89 26 1a 3d 01 7e fb bd
       -0.20546848 0.021342332 0.037634406 -0.12279893
000120 a6 67 16 3e ab 47 60 be 19 cb 5a 3e 5e fe 6c bd
       0.14687976 -0.21902339 0.21366538 -0.05785977
000130 1f 39 40 be 12 7e 7e be 96 b6 43 be 48 3c 84 bd
       -0.1877179 -0.2485278 -0.1911262 -0.0645681
000140 7a c2 19 be b4 45 9b be de 55 5c 3d 2a 31 d3 3d
       -0.15015593 -0.30326617 0.053792827 0.10312112
000150 bd e0 a5 3d 91 17 0a be 89 2b 9e 3d 9b da a6 bc
       0.08099506 -0.13485552 0.077231474 -0.020367911
000160 23 c6 b8 3d d2 14 76 be 8f 3a 38 3e d8 fd 0a bc
       0.090221666 -0.2403138 0.17991088 -0.008483373
000170 cd b8 cf 3d 45 7a 37 3e 16 fa a2 3d 83 d9 18 bd
       0.1014267 0.17917736 0.07957856 -0.03731681
000180 58 a2 e0 bd f4 cd 00 3e db 69 3a 3d 67 79 97 be
       -0.109684646 0.12578565 0.045511108 -0.2958481
000190 af 48 e6 3c d2 68 2b bd 24 ad cc 3d 81 44 3a be
       0.02811083 -0.04184801 0.099939615 -0.18190195
0001a0 6a 0e 3b be 8a 49 24 3b b2 28 a3 bd 4a 2e ec 3d
       -0.18267217 0.0025068247 -0.079667464 0.115322664
0001b0 f5 28 04 bd 12 e5 82 3e 7d fc 3d be 67 21 0d bd
       -0.032265622 0.25565392 -0.18553348 -0.034455683
0001c0 2b ca 50 3d 2f 86 24 3d b1 8a a4 3d 04 3d 53 be
       0.050974052 0.04016703 0.08034266 -0.20628744
0001d0 f1 8c 8f 3d 35 54 3b be 67 a0 72 3e e3 64 ac 3d
       0.07009304 -0.18293841 0.23694001 0.0841768
0001e0 c3 f4 d6 3d cc 39 22 3e 62 42 2a 3e f9 02 a7 bd
       0.10495903 0.1584236 0.16626886 -0.08154864
0001f0 f0 d1 37 be 65 dc 44 3e 16 69 28 be fe 66 07 3d
       -0.17951179 0.19224699 -0.16446337 0.033057205
000200 26 57 b1 bd ad 32 75 be 7d 2e 71 be 22 fe 1a 3e
       -0.086592 -0.23945113 -0.2355289 0.15136006
000210 0d 62 e2 bd 96 2b 4b be af 4d 8d 3d ab 2f 97 3d
       -0.11053858 -0.19840845 0.068995826 0.07382139
000220 5a ec 8e be 3c 6d 42 3d 19 9a 52 be 4d 20 68 3e
       -0.27914697 0.047467455 -0.20566596 0.22668572
000230 66 57 80 be 0e 0f 1d 3e ba a4 f2 bd a0 cb d6 bd
       -0.2506668 0.15337774 -0.11847825 -0.10488057
000240 6d b9 42 bd dd 91 00 3c a8 b6 d4 bc ac ad af bd
       -0.047540117 0.0078472765 -0.025966004 -0.08578047
000250 41 46 1a be bc b0 24 3e 7f 2b ce bd 22 f0 2b be
       -0.15065862 0.16083044 -0.1006689 -0.16790822
000260 91 c5 47 bc 77 1d 09 3d cb e1 6b be 4e 7e e3 3d
       -0.0121931 0.033475365 -0.23035352 0.11108075
000270 04 e6 34 3d 2e a2 0d be 91 ee 88 bd 06 bd 12 3d
       0.044164672 -0.13831398 -0.06686128 0.035824798
000280 05 67 11 3e fa 10 cc bd 7b 22 4d 3d f3 21 98 be
       0.14199455 -0.099641755 0.05008171 -0.297134
000290 6a d1 bd bc df 96 82 bd fd 64 09 3e 02 11 8a bd
       -0.023171145 -0.063764326 0.1341743 -0.06741525
0002a0 42 38 5b be 38 ce d9 bd d2 10 71 bd ba 47 92 be
       -0.2140818 -0.10635036 -0.05885393 -0.28570348
0002b0 b1 7a 79 be 06 f6 be 3b f8 26 43 3d fd f2 ef 3d
       -0.2436321 0.005827668 0.047644585 0.11716268
0002c0 d7 d1 ac bc 0c a0 27 be a0 21 55 3d 57 be 75 be
       -0.021096153 -0.16369647 0.05203402 -0.2399839
0002d0 d9 41 eb 3d 8e fd 3f be 8a 06 9a be ad 5e 21 be
       0.11487169 -0.18749067 -0.30083114 -0.15758772
0002e0 6f 20 f1 bc 72 41 45 be 0f 56 4f 3c 68 81 ae bd
       -0.02943441 -0.19263247 0.012654795 -0.08520776
0002f0 76 5c f5 bd be df 68 be c3 34 fe 3d a1 bc c3 3d
       -0.11980526 -0.22741601 0.12412407 0.095574625
000300 6f a9 f2 bd 1c ce 41 be 1a a1 86 be bf 9a 2d bc
       -0.11848723 -0.1892628 -0.26294786 -0.010595976
000310 29 49 b1 bd ec c7 63 3e 59 5f 34 be c0 1e 20 be
       -0.08656532 0.22244233 -0.17614497 -0.1563673
000320 f8 50 7d 3d fc c2 df bd b1 f4 49 bd a5 15 22 be
       0.061844796 -0.10925862 -0.04930562 -0.15828569
000330 04 d6 85 be 7f 64 91 3d a8 68 d7 3d 9c af 23 be
       -0.26139843 0.07099246 0.105180085 -0.15984958
000340 08 9e b3 3d 34 65 54 be 43 36 62 bd 01 73 f9 3d
       0.087703764 -0.20741731 -0.05522753 0.121801384
000350 22 82 02 be 58 86 ae 3d af 4e 90 be b6 47 ac 3d
       -0.12744954 0.08521718 -0.2818503 0.08412115
000360 30 bc fc bd 0b 92 75 3d 74 cc 81 3e 93 84 7f be
       -0.123405814 0.05995373 0.25351298 -0.24952917
000370 ac 4f a5 3d 66 79 4b 3e b2 53 ac bd bf f3 a0 be
       0.08071837 0.19870529 -0.08414401 -0.31435964
000380 3d 36 cb 3d 69 09 10 3e af 03 46 3e 97 f0 e8 3d
       0.099224545 0.1406609 0.19337343 0.11374014
000390 3e d2 04 be e5 41 14 bc 2a e9 1c 3e b0 69 2b 3d
       -0.12970826 -0.009048914 0.1532332 0.04184884
0003a0 c9 ac 26 be 6c 54 63 be 62 4c 36 be 7e d2 10 3e
       -0.1627685 -0.22200173 -0.17802575 0.14142796
0003b0 e2 78 52 be c6 cb 80 3d 1a de 75 be f5 89 c7 bd
       -0.20553926 0.06288867 -0.24010506 -0.0974311
0003c0 24 aa 39 be d1 a2 96 be b5 a2 ef bc b1 73 8c bd
       -0.1813131 -0.29421094 -0.02925239 -0.06858004
0003d0 a6 19 fc bd fa 46 14 be b0 48 ec 3d f1 f0 ba bd
       -0.123095796 -0.144802 0.115373015 -0.09127987
0003e0 8d f9 8f 3d 0e 1a 87 be 3a 87 9d 3c fe 6d 6a 3d
       0.0703002 -0.26387066 0.01922952 0.057233803
0003f0 80 44 fd bc 2b 6e 61 bc 35 b8 ef 3d 9c 77 49 3d
       -0.030916452 -0.013759176 0.117050566 0.049186334

transformer_encoder.layers.0.linear2.weight f4 [16, 512]
000000 9c d4 82 3d 77 e9 1c bd 44 0c fe bd c3 a2 8b 3c
       0.06388208 -0.038308587 -0.12404683 0.017045384
000010 08 0a 14 3d 0f e1 59 bc ab d4 ff bb cb d8 6b 3c
       0.03614238 -0.013298287 -0.0078073344 0.014394949
000020 52 b1 db 3c aa a1 d9 3c d1 0d f3 bc ca 41 90 3d
       0.026817951 0.026566345 -0.029669674 0.07043798
000030 13 e4 58 3c 5e 14 b7 bd 1f 92 83 bd c2 92 0f 3d
       0.013237971 -0.089394316 -0.06424355 0.03505207
000040 6c d0 0b bd 02 5e 63 3d 54 d6 95 3c d7 94 8f bd
       -0.034134313 0.055509575 0.018290676 -0.07010811
000050 04 03 92 bd ee 38 33 bd 8e e5 dc bc 6a 4b 4f bc
       -0.071294814 -0.043755464 -0.026964929 -0.012652257
000060 d4 10 e6 3a 39 29 44 bd f7 6b f5 3c fd 11 a1 3c
       0.0017552623 -0.047890875 0.029958708 0.019661898
000070 fd af 07 bd 5d e0 3b bd cc fd ef bd 3c ed af bd
       -0.03312682 -0.045868266 -0.1171833 -0.08590171
000080 b5 ea 40 3d d3 84 a6 bc 0b 8f 22 3d b6 69 9a 3c
       0.047098834 -0.020327007 0.039687198 0.018849235
000090 b4 8b 92 3d 7f e3 8a 3d d6 52 07 be 9a 84 8c bd
       0.071555525 0.06781673 -0.13215193 -0.06861229
0000a0 70 51 00 bd 53 ad 9e bc 8f 23 c7 bc 46 5f 81 bb
       -0.031327665 -0.019369757 -0.024308948 -0.003948125
0000b0 32 cd 06 3d 3c 2d 81 3a f0 7e 0b bd 2b 08 8e 3d
       0.032910533 0.00098554 -0.034056604 0.06935152
0000c0 a4 2f b1 3d c0 48 c3 bc c3 bf 77 bc 7c eb ec 3c
       0.08651665 -0.0238384 -0.015121403 0.028920881
0000d0 16 1b 89 3d a2 84 02 3d dc 81 dc bc 97 d4 23 3d
       0.06694619 0.03186477 -0.02691739 0.039997663
0000e0 5c 45 c1 3b a7 34 d3 bd 2b cf 9f bd df d1 6e 3d
       0.005898161 -0.10312777 -0.07803186 0.058305617
0000f0 fe 14 c4 bc 5c e0 58 bd 15 68 16 bd 48 28 59 3d
       -0.023935791 -0.05294834 -0.036720354 0.05301693
000100 af 70 7c bc 82 f8 a0 bd 6d 29 e1 3c ba 8b 4a bd
       -0.015407725 -0.07859899 0.027485574 -0.04944966
000110 96 51 90 bd 5f 20 73 3c 07 26 8d 3d 6d 3c a6 bc
       -0.07046811 0.014839261 0.06892019 -0.020292485
000120 42 f3 6b bc 73 cd 03 bc 32 4c 7f bd 71 54 d7 bb
       -0.014401259 -0.008044588 -0.062328525 -0.0065713455
000130 a0 b3 bb bb 2f ec 20 bc bf d5 fd 3c a3 c3 ce 3d
       -0.0057282 -0.009821936 0.030985711 0.100959085
000140 82 5f 8e 3d 2f 9d b2 3c 08 35 73 3d 4e 2d f9 bb
       0.069518104 0.021803467 0.059376746 -0.0076042777
000150 4a 22 eb ba 92 d8 00 3e 92 ce 75 3a 34 38 77 bd
       -0.0017939296 0.12582615 0.00093767897 -0.060356334
000160 77 7a 90 3c 93 9f 0f 3d 73 7a 53 bc 85 5f 03 3d
       0.01763652 0.03506429 -0.012907612 0.032073516
000170 55 b4 e5 bd db d4 6d 3c 9d df ca 3d a8 3f e2 3c
       -0.11216036 0.014516081 0.09905932 0.027618244
000180 ca c7 34 bd 05 42 b8 bc 8a 74 62 bd ea 23 fd bb
       -0.044135846 -0.022492418 -0.05528692 -0.0077252286
000190 96 49 1a bd 96 52 0f bd a4 92 44 3c 74 c1 e5 3c
       -0.037667833 -0.03499087 0.0119978525 0.028046347
0001a0 b3 54 4f bc 6d d7 13 bd e6 79 37 3b 0a 18 ef b9
       -0.012654471 -0.036094118 0.002799624 -0.00045603543
0001b0 3d a0 db 3c 51 14 03 be ac 13 0d 3d 71 aa c4 bd
       0.026809806 -0.12800719 0.03444259 -0.096028216
0001c0 8d 0d 35 3d 6d 7b ea bc e4 a2 81 3d 56 62 44 bd
       0.044202376 -0.028623307 0.06329897 -0.047945343
0001d0 13 1d dd bc 02 bf c1 3c 20 a8 cd 3d d9 8d 31 3d
       -0.026991403 0.02365065 0.10041833 0.043348167
0001e0 da 5c 7c bc 0a e2 80 bd 8f 06 04 bd f0 a1 70 3d
       -0.015402997 -0.062931135 -0.032232817 0.058748186
0001f0 1f 23 b5 bc 73 80 24 3d 20 41 df 3d d1 bd 18 bb
       -0.022111474 0.04016156 0.109010935 -0.0023306499
000200 34 fd 91 3b 13 e8 81 3d 2f 2f 2a bc d7 5d 1a 3d
       0.004455233 0.06343093 -0.010387226 0.03768715
000210 3d 45 bc bd e5 7e a3 bb e7 54 2c bd 5b cd 7b bd
       -0.09192894 -0.0049894922 -0.042073157 -0.06147514
000220 2d 1b ec bd 12 13 b5 3d fc b6 a1 bd ee 5e 32 3d
       -0.11528621 0.08841528 -0.078962296 0.043547563
000230 c5 94 0f 3c 0b a0 79 3d 51 3f 82 3d e2 1a cb 3c
       0.008763497 0.060943644 0.06359733 0.024793092
000240 a8 a7 0a bd 92 fa 8e 3b 4f a5 bc 3d 5a 22 97 bd
       -0.033851296 0.0043633664 0.092112176 -0.07379599
000250 ee 8f 0b 3c c5 89 41 bc 3e 54 8a 3d 99 bd d5 bb
       0.008518202 -0.011812632 0.06754349 -0.006522846
000260 27 0b 01 3e b8 9e 1e bb 2d fb 9f 3d d9 a2 8f 3c
       0.1260191 -0.002420349 0.0781158 0.017533707
000270 59 12 25 bb dc fd 7c 3d a6 b5 c9 bd cf c9 85 bd
       -0.0025187938 0.061765537 -0.098491 -0.065326326
000280 d1 49 82 3d 75 6e 20 3d 14 99 00 3d a6 c6 30 bc
       0.063617356 0.03916784 0.031395987 -0.010789549
000290 f3 17 1a 3d 79 af c1 3c 18 8a fe 3c 64 57 c3 bd
       0.037620496 0.023643242 0.031071708 -0.09538153
0002a0 9c b8 6d bd 03 3a bb bc ac f0 74 3b 96 13 ef 3c
       -0.058037385 -0.02285481 0.0037374897 0.029184144
0002b0 6c 99 63 bd 83 a0 c0 bd 8c 01 1a bd e6 3b 91 3d
       -0.055566236 -0.09405615 -0.03759913 0.07091503
0002c0 07 39 85 3d c0 39 75 bd 94 bc 2a bd dd 47 f7 3c
       0.06505018 -0.059869528 -0.04168375 0.030185634
0002d0 08 5f a2 bc 37 66 c3 3d 4f b5 4b 3d ce f2 11 3d
       -0.019820705 0.0954098 0.049733456 0.035631947
0002e0 64 9e 7e 3d 6b b7 19 3d fc 99 24 3d 70 3d d1 3c
       0.06216277 0.037528437 0.040185913 0.025541991
0002f0 d1 95 1c bd 0d 44 f5 3d b2 cf 27 bc ba 3a cc 3c
       -0.038228814 0.1197587 -0.0102423895 0.024930347
000300 9c f8 8d bc 72 cf ed 3c 4a d9 e6 3d 50 16 1c 3d
       -0.01733046 0.029029582 0.11271913 0.038107216
000310 b5 81 90 bd 68 6e 1a 3c 0b 97 aa bc 4d 00 59 3c
       -0.0705599 0.009425737 -0.020823976 0.013244701
000320 7a f5 38 bd 92 ea 42 bc 48 48 da ba ba de 58 bc
       -0.04515598 -0.011896746 -0.0016653622 -0.013236696
000330 1c 4d 56 3b 21 a7 77 3c 5e 8c b1 bc cf 79 fc 3a
       0.003269977 0.01511553 -0.021673378 0.0019262376
000340 21 17 ea 3d 00 d4 c7 3d 38 b2 6f 3b 80 68 ac 3d
       0.11430193 0.09757233 0.0036574733 0.08418369
000350 53 f0 39 bd e8 91 82 3d f1 0e c8 bc 7f 14 42 3d
       -0.045395207 0.06375486 -0.024421187 0.047382828
000360 71 62 5f bd bb 78 81 3d 84 bf be bc a9 e1 b5 bd
       -0.05453724 0.06321856 -0.023284681 -0.08880932
000370 34 cd 77 3d 0b d9 62 bc 5b 12 d0 bb b3 9b 42 3d
       0.06049843 -0.013845692 -0.0063498444 0.047511768
000380 42 28 cd 3c 87 7a 60 3d 59 28 9b 3c 36 5e 5a 3d
       0.02504361 0.05480435 0.018940138 0.053312503
000390 99 cd c8 bd f8 65 88 bc 20 4a 5a bd 6c 6f 6f bc
       -0.0980484 -0.016650185 -0.053293347 -0.014613967
0003a0 e0 48 a0 bd 3d 39 a4 3c 91 ab 28 3c 3d 22 68 3d
       -0.078264 0.020046825 0.010294811 0.056673277
0003b0 19 a2 ae 3d 3f 85 b1 3b 1b 66 97 3c 59 fa c1 3c
       0.085270114 0.0054174955 0.018481305 0.023678945
0003c0 67 c2 1d bd f4 db fc 3c f3 6f 46 bd d4 1e b0 3d
       -0.038515475 0.0308666 -0.048446607 0.0859963
0003d0 f7 4f 30 bd c9 2e 8a bd e3 3d 85 3c c4 1c 92 3d
       -0.04304501 -0.06747205 0.016264861 0.07134393
0003e0 9c eb 5d 3c ab 61 bd 3c 65 8b 23 3c ba ac 09 bc
       0.013544943 0.02311786 0.009981965 -0.008402998
0003f0 14 20 48 3c 36 53 10 3d 23 ae 65 3d f5 5b 9e bc
       0.012214679 0.035235606 0.056074273 -0.019330958

transformer_encoder.layers.0.linear2.bias f4 [16]
000000 9c 0d a9 bc 43 ab 42 bc 66 eb 5d 3c c4 1d 51 bd
       -0.020636372 -0.011881652 0.013544893 -0.051053777
000010 d9 d7 28 bc 3a 61 b1 bc 09 aa a2 3c 23 0a 47 bd
       -0.010305368 -0.021652807 0.01985647 -0.04859365
000020 ee fb 00 3d 25 67 34 bd 13 0a 03 bd d2 dd 10 3d
       0.03149026 -0.04404368 -0.03199203 0.035367794
000030 ce 93 0e bc 91 4f 16 bd f7 ab a3 3c ba b3 23 bc
       -0.008702232 -0.036696974 0.01997946 -0.009991581

transformer_encoder.layers.0.norm1.weight f4 [16]
000000 03 a8 7d 3f 12 6a 81 3f 4d 24 80 3f ec 17 82 3f
       0.9908449 1.0110495 1.0011078 1.016355
000010 f0 97 84 3f e0 dd 7e 3f 46 f3 88 3f c9 25 78 3f
       1.0358868 0.99557304 1.0699241 0.96932656
000020 ed b4 80 3f 17 90 7e 3f c3 cc 84 3f e1 d3 78 3f
       1.0055214 0.99438614 1.0374988 0.971983
000030 6b 57 79 3f 9a 24 82 3f 77 bc 80 3f 4d cf 7d 3f
       0.97399014 1.016742 1.0057515 0.9914444

transformer_encoder.layers.0.norm1.bias f4 [16]
000000 29 05 35 bc 1b 27 42 3c 90 8b e8 3c d8 60 0b bd
       -0.011048594 0.011850144 0.028386861 -0.034027904
000010 43 7c 35 bb 77 8b 54 bc 12 ac 1b 3c 28 f6 4b 3b
       -0.0027692474 -0.012972704 0.009501474 0.0031122062
000020 92 76 3a ba 06 56 2f 3d 68 14 05 3c 18 e2 72 3c
       -0.0007113005 0.042806648 0.008122541 0.014824413
000030 5f 10 c2 bc 6a fe cf bc 58 cf 5b 3c e6 59 34 3c
       -0.023689447 -0.025389869 0.013416134 0.011007762

transformer_encoder.layers.0.norm2.weight f4 [16]
000000 60 35 76 3f 7a 8a 85 3f 19 da 7a 3f f7 6c 7c 3f
       0.96175194 1.0432885 0.9798904 0.9860377
000010 bc a7 7f 3f be 12 82 3f e2 03 83 3f 2d b8 81 3f
       0.9986532 1.016197 1.023556 1.0134331
000020 1a 48 7d 3f 90 db 7d 3f 1b 0f 82 3f 5e 00 83 3f
       0.98938143 0.9916315 1.016086 1.0234487
000030 b0 82 7e 3f 65 83 82 3f 39 25 7a 3f 74 ff 79 3f
       0.99418163 1.0196348 0.9771305 0.97655416

transformer_encoder.layers.0.norm2.bias f4 [16]
000000 c4 1c 09 bb 46 44 b9 3b ee 44 c8 3c 3e c6 17 bc
       -0.0020921687 0.005653891 0.02444693 -0.009263573
000010 1f 9f 1b 3c 52 68 c7 bc b7 83 38 bb fe d0 34 3c
       0.009498387 -0.024341736 -0.002815468 0.011036156
000020 16 e0 87 bb 28 bd 29 3b 91 3a 9b 3b 17 4e db 3c
       -0.004146586 0.00259001 0.0047372063 0.026770635
000030 e8 c9 a6 3c d9 6f 87 bc 22 43 09 3d 65 a7 62 bb
       0.020359948 -0.016532825 0.03351129 -0.0034584638
