embedding_autoencoder_transformer/transformer_classifier_samples_3999.pt (torch, 239392 bytes, 41 tensors)

embedding.weight f4 [16, 16]
00000000: 9e37 353e 10fa e83d 7c8f 41bd 16e5 db3d
00000010: 4835 bd3b c941 28be 040b 043e 01a3 0fbe
00000020: 6a3f c03d 2de8 5a3e 93b1 a4be 1cba efbd
00000030: 8660 5fbd 6341 1c3e 8b94 56bd cecf 88be
00000040: e888 be3e d592 88be 295f 483d ba00 6f3d
00000050: 2f9f 1ebd 1922 a83d dfc6 2b3d 945c 323e
00000060: 08dd fbbd f3b8 9d3e 8192 12be 8869 54be
00000070: 686b 3abe 0c39 593c 4c49 323e 0feb 573d
00000080: 8901 8e3e c298 89bd 5ff6 8f3e 0bbf bf3e
00000090: 86f4 1dbe f98e 16bc 9e6a 64be 25ab c8bd
000000a0: f022 11bd bb86 193e 1645 c03d 6861 933d
000000b0: 8b42 693d 01f1 033e 1d9f dabd c7e3 dcbd
000000c0: a9e4 1e3e 016b 04be b9a0 4bbe 0c93 0d3e
000000d0: 754b 603d d8ae 643e 4cd0 13be 78bb 24bd
000000e0: d63c 833d 0f4e 893e bf9a bcbc 1673 213e
000000f0: 4f26 373e 80d8 3a3c 051a 683d eb35 2d3e
00000100: c748 06be 457c 97be 34cd 9ebe cead 313e
00000110: d033 87bd 69ba 5bbe 6013 8e3d 4fa0 e73d
00000120: 6514 5fbe af49 c7bb 78dd 933d 0dc8 85be
00000130: abd2 92bb d025 293d 18c7 74be dde3 a83d
00000140: ebd8 273e 1806 ccbe 3d50 f9bc 9c48 a33c
00000150: b348 803c 1cbb 80bd c613 37be 7710 e03c
00000160: f088 a3be e70a 82bc fba0 9abb 5548 0f3e
00000170: e4dc bd3e c20c 1dbd 6a7b 8abd 30f0 2ebe
00000180: 74a5 74be 79d6 473d 1f2b 273c 8824 b43e
00000190: b84b 8bbe 614d 8fbe ef23 183e 92b9 4f3e
000001a0: e0d1 593e 88ec 3fbc 75ff ed3d bf0a c9bd
000001b0: f7db 87bd 0db9 f2bd f22b 1d3e 6640 0d3d
000001c0: 27f3 39bd d1d9 77bd 77dd 833d cbfd b8bd
000001d0: e41e e9bd c649 473e c869 00be 0c28 9d3b
000001e0: 2c3d 46bd 7c47 cb3c 08db 853e acef 6dbe
000001f0: 18ff 133e dad5 b5be 2a9c 583e 0116 b5bd
00000200: e769 0e3c d18c e1bc 4dbb 543e bda0 b6bd
00000210: 5e5d 0bbe b26f e73d e2eb 66be 213f 6e3e
00000220: 48e8 babc f291 6bbe 73e5 95be 0e57 c2bd
00000230: 2321 debd f422 473d fde7 c93c 6b4a 673e
00000240: 53e2 48be 8918 a0bd 7b5c 263e d3c9 b1bd
00000250: 4190 e63d 6921 0c3c 0c2c 91bd a3d1 d63d
00000260: bca6 5e3d 341c 4f3e 12c1 56be 0e85 253e
00000270: bac8 93bc 0412 8dbe 9beb 38be bf08 65bc
00000280: 9cad 00be c253 033e c024 023e cf77 883e
00000290: 740c b83d 2aaa 923e 2bd9 c13e 48b4 bfbd
000002a0: 67dd 85be 6ab0 0f3e 1dc2 5f3e ce63 1b3e
000002b0: 37aa febd cecc cf3c 40d6 5dbe 0d61 67be
000002c0: 7a5c 3cbc 15f9 5e3e fa73 433e 4f92 8c3e
000002d0: 6d45 463e 15b7 573d df9d 42be 5ec2 acbe
000002e0: 8e59 3b3d 179b 59bc 0566 da3b 9e07 a03c
000002f0: 6d64 9dbe 47d4 99be 87bf da3d 1418 573d
00000300: 5304 ae3e e160 8fbb 91fb 1c3e feca 543b
00000310: a19c 8d3e 6222 4f3e b1df b4bd c948 793e
00000320: 15e6 04be bda5 60bb db5a 943e 2665 d9bd
00000330: 9d5f 06be 0a26 7ebd c7cd 24bd 3a60 1dbe
00000340: 6fb7 f13d 7eef ebbc fd82 283e 563b c9bd
00000350: 64b7 2dbe 06dd 2a3d 009b 63bc c5bc fa3c
00000360: 7dfe ea3e 85dc 0bbe 1829 f73d 15d2 fb3d
00000370: 876d 02be ac02 853e eeaa 30be 3c7e 633e
00000380: 424c 9d3e c249 a53e 8e41 16be fbd3 e93d
00000390: 26cb e4bd d579 b63d 6194 71be c4e9 0ebd
000003a0: c885 04be 5bde 04be 8775 db3d e45d 34be
000003b0: a0a3 bfbd cc5e 823e 1d3e 0ebe 52e8 1c3e
000003c0: 72df 5bbe 6a99 083e 2f34 42be 39e0 253d
000003d0: d6f5 e5bc 754d 3d3d 5dbb 663e d118 84be
000003e0: c8db 4c3e 129b 33be 000e 4f3e 6d31 9f3d
000003f0: 3641 fd3c 1c51 1f3e f740 253e 575a 083e
0.17696998 0.11375821 -0.047255978 0.10737054 0.005774174 -0.16431345 0.12894827 -0.14027025
0.09387095 0.2137763 -0.32166728 -0.117054194 -0.05453541 0.15259318 -0.052387755 -0.26721042
0.37213826 -0.26674524 0.048918877 0.058350302 -0.038726028 0.082096286 0.041937705 0.17418128
-0.12298018 0.30805168 -0.143137 -0.20743382 -0.18205035 0.01325823 0.17410773 0.052714404
0.27735546 -0.06718589 0.28117654 0.37450442 -0.1542531 -0.009189361 -0.22306296 -0.09798268
-0.03543371 0.14992802 0.09388177 0.07196313 0.056948226 0.12884904 -0.1067488 -0.107856326
0.15516914 -0.12931444 -0.1988553 0.13825625 0.05475946 0.22332323 -0.14434928 -0.040217847
0.06408088 0.26817366 -0.023023007 0.15766558 0.17885707 0.011404157 0.05666544 0.169151
-0.131137 -0.29586998 -0.31015933 0.17351457 -0.06601679 -0.21457829 0.06937289 0.11309873
-0.21785124 -0.006081782 0.07219976 -0.2612919 -0.00448068 0.041295826 -0.23904073 0.082465865
0.16391341 -0.398484 -0.030433768 0.019932084 0.015659666 -0.06285688 -0.17878637 0.027351601
-0.31940413 -0.01587434 -0.0047188974 0.13992436 0.3708259 -0.038342245 -0.067618206 -0.17083812
-0.2389124 0.04878852 0.010203152 0.3518412 -0.27206206 -0.27988723 0.14857458 0.20285633
0.21271467 -0.011714108 0.1162099 -0.09816503 -0.06633752 -0.11851702 0.15348795 0.034485243
-0.045397904 -0.06051046 0.064387254 -0.09032782 -0.11382845 0.19461736 -0.12540352 0.0047960337
-0.04839818 0.02481436 0.2614367 -0.23235959 0.1445278 -0.35514718 0.21153322 -0.088420875
0.008692241 -0.027532967 0.20774575 -0.08917377 -0.13609836 0.11300601 -0.2255092 0.2326627
-0.022815838 -0.23004892 -0.29276618 -0.094892606 -0.10846164 0.04861732 0.024646753 0.22586982
-0.19617586 -0.0781718 0.16246216 -0.08681073 0.11257983 0.0085528875 -0.070884794 0.10489204
0.05435823 0.20225602 -0.20972088 0.16164038 -0.01804005 -0.27552807 -0.18058626 -0.013979136
-0.12566227 0.1282492 0.12709332 0.26653907 0.0898675 0.2864545 0.37861 -0.09360558
-0.2614548 0.1403214 0.21851392 0.15174791 -0.1243481 0.025366213 -0.21663761 -0.22595616
-0.0114966575 0.21774705 0.1908721 0.27455375 0.19362421 0.052664835 -0.19005536 -0.3374204
0.045739703 -0.013281605 0.0066649937 0.019534882 -0.3074068 -0.30044767 0.10681062 0.052513197
0.33987674 -0.0043755625 0.1533034 0.0032469626 0.2765856 0.2022796 -0.08831728 0.24344172
-0.12978394 -0.0034278475 0.28975567 -0.10614996 -0.13122411 -0.062047996 -0.040235307 -0.15368739
0.11802565 -0.028800722 0.16456218 -0.098257706 -0.16964489 0.04171469 -0.013891935 0.03060759
0.45897284 -0.1365834 0.12068385 0.12295929 -0.12737094 0.259786 -0.17252705 0.22216123
0.30722243 0.32282835 -0.14673445 0.11417385 -0.1117156 0.08909956 -0.23591758 -0.034890905
-0.12941658 -0.12975447 0.10715776 -0.17613941 -0.09357381 0.2546295 -0.13890882 0.15322998
-0.21471956 0.13339773 -0.18965219 0.04049704 -0.028071325 0.046216447 0.22532411 -0.25800183
0.20005715 -0.17539623 0.20220184 0.07773099 0.030914884 0.15558285 0.16138063 0.13315712

embedding.bias f4 [16]
00000000: cc66 ec3d 4318 cebb 3432 67bd 6722 9c3d
00000010: 2887 c33b 69ee 973d 5fdb 0f3d cad6 24bd
00000020: 531e e03d b398 3b3e c57d 18be 475b 40be
00000030: f8ff 32be b33b 423e a91f 853e 027a 543d
0.115430444 -0.0062895133 -0.05644436 0.07623749 0.0059670396 0.0741852 0.035121318 -0.0402439
0.10943284 0.18319969 -0.14891727 -0.1878482 -0.17480457 0.18968086 0.26000717 0.05187417

transformer_encoder.layers.0.self_attn.in_proj_weight f4 [48, 16]
00000000: f9b7 993b e923 f73d eb30 50bd 795e 86bd
00000010: d4a1 443e c966 633e 99aa 94be 5026 79be
00000020: 9f0b 7e3e 1458 93be 928a 96be ba72 7cbb
00000030: e21f 123d 507d 1dbe bac1 6dbd 752b 39be
00000040: 9966 0b3e 5a5f e4bd ce77 a63d 2cf9 1fbc
00000050: df5f 8abd 685c 1fbc 59ac 5fbd 2194 973c
00000060: 8b47 603d b6be 66be e651 16be 8637 0cbe
00000070: 3f27 81be 04af 2cbd 5647 623e c711 6e3e
00000080: 3c8a 623d a779 5d3e eab7 32be 503c 91be
00000090: b13b 8fbe e61e 79be 18e0 633d 5f9a 3a3e
000000a0: 820a 1bbe 05ba 133e bfa2 843e 9705 76bd
000000b0: e72e 13be 7c9d 0fbe 7740 83be fcc7 22bd
000000c0: aa39 4dbe d240 d03d a783 963e d49f 9cbe
000000d0: 4b99 993e d52d 273e b970 5bbe 428c 6abe
000000e0: 7811 883e d1bc ecbc 4a05 5abe 3255 d73d
000000f0: 0ddb 793e 9cd6 95bd 5a59 e33d cde6 1bbd
00000100: 8e60 953e 317b f73d 35a0 0a3e 72f9 2cbe
00000110: 041a 8d3b 8695 92be 268c f33d 28b9 a8bc
00000120: 3315 543e ee17 74be 82cc 00be 6729 73be
00000130: 6b3d 903e ec5c 363e 1171 0fbc 1afe 9e3c
00000140: ed41 463d d071 d23d 2e63 643d 5544 6c3e
00000150: 591d 8cbe 85e6 25be 0a47 903e 6ada 0d3e
00000160: 2237 60be c49d 9c3d 5767 1c3e 4b88 2d3e
00000170: 88a6 7abe 83d2 a43d c864 823e f0ff 1dbe
00000180: a880 8cbe d9e2 623e aed5 70be a8b5 1bbd
00000190: 6823 99be 123c 28be c808 213e f621 7fbe
000001a0: b359 843e 63d6 723e b365 8b3e 0816 bbbd
000001b0: 838d babd bcd0 47be 3673 5c3e fcc1 cfbd
000001c0: 894c d6bd c11e 2f3e 79d1 153e 6ccb f4bd
000001d0: 283a 8b3e a4fe 913e 7633 9c3e eac0 543e
000001e0: 169b 623e ad9e 7c3e 5bf1 85bd 0966 563e
000001f0: 47ea 873d c0a1 ebbb 6bb8 423d 5ed2 523e
00000200: b18b 373e 7cd7 0bbe 27a3 1b3e 9b39 313e
00000210: 32ff bf3d e660 aabd 4a9f 7d3d 269b 0c3e
00000220: 47fc 10be 5237 883c 0d22 403e 8c6a 8b3e
00000230: 9dcc ccbd 8b89 923e 7a04 41be be7b 4cbc
00000240: 0e34 c8bd 5325 853e 3568 86be 9023 ebbd
00000250: 8a5e 983d 0218 aabd 1edb 04be 36d8 04be
00000260: 03b1 223e 9dcb 11be a01f 603b ee98 923e
00000270: 0662 50be 66ba 913e 6749 823d e7b2 623e
00000280: dbd3 e4bc 4c82 84be bbec 72be bf97 623e
00000290: 2a9a 8cbe d707 873e 77c3 823e 3407 bb3d
000002a0: dff3 023d 7502 703e 4ad6 6abe 50cb 63be
000002b0: 2b23 4a3e 52d4 3d3e b4ba 6d3e 8dd4 abbc
000002c0: 96e6 a63d a9ef 16be 3c2f 093e 1b8b 44be
000002d0: 2259 37be 7791 d6bd b958 8f3e c867 c8bd
000002e0: b4d7 053e 7320 8a3e ab73 53be 94e3 e9bd
000002f0: 54f9 d1bd 8e97 2c3d e88c fe3d f997 f53d
00000300: 020d e2bd be5c 54be 6998 4f3e 475d 3d3e
00000310: a908 603c 193e 743d 9194 8fbd 01a4 5e3e
00000320: ba1a 04bd 7651 68bc 7654 623e 34ea 123e
00000330: ad5b e03d 97a1 a73d 1650 9c3e adb6 253e
00000340: ed6a 0d3e a789 15be f2a4 97be a105 9cbd
00000350: f472 8e3d c7fe 1abe 57c7 b2bd 7482 abbd
00000360: f457 633e 487d e03d f2e5 2b3e 85c3 113e
00000370: 69ab 653d 66b7 613e 4329 2fbe d959 92bd
00000380: d28e fabd c595 b93d 1f51 743e 874f 3b3e
00000390: f52f 473e 41e3 1fbe a71d aebd 2110 88be
000003a0: 083d 06be 2cd5 0ebe 2f10 e6bd 18ae 823e
000003b0: fd08 fbbd 5590 503d c40f 28be 6af2 463e
000003c0: 3052 7fbe d253 47be 9b5e 1dbd 9e6c 0d3e
000003d0: 44d2 8cbe 1fd2 963d 8206 afbd 9e71 fabd
000003e0: e6c1 553e 699e a53d 7fa9 163e ad81 3e3e
000003f0: 00d2 88be 5211 993e 85cc 0a3e f379 303e
0.0046911207 0.12067396 -0.0508279 -0.06560988 0.19202358 0.22207178 -0.29036406 -0.24331021
0.2480912 -0.28778136 -0.29402596 -0.003852053 0.035674937 -0.15379834 -0.05804608 -0.18082984
0.13613357 -0.11150999 0.0812832 -0.009763997 -0.06756567 -0.009726621 -0.054607723 0.01850325
0.05475573 -0.22533688 -0.1467968 -0.13693056 -0.25225255 -0.042159095 0.22097525 0.23248969
0.05530761 0.21628438 -0.1745297 -0.28366327 -0.27975228 -0.24328193 0.055633634 0.1822295
-0.15140727 0.1442643 0.25905415 -0.060063925 -0.1437336 -0.1402492 -0.2563512 -0.0397415
-0.20041528 0.101686135 0.29397318 -0.3059069 0.29999766 0.16326077 -0.21429719 -0.22905067
0.26575828 -0.028898628 -0.2129108 0.105142966 0.24399967 -0.07316324 0.11101027 -0.038061906
0.29175228 0.12084044 0.13537677 -0.16892031 0.00430608 -0.28629702 0.118919656 -0.020596102
0.20711212 -0.23837253 -0.12578014 -0.23746262 0.28171858 0.17808884 -0.0087549845 0.019408274
0.048402715 0.10275614 0.055758648 0.23072942 -0.2736614 -0.16201217 0.28179199 0.1385285
-0.21896031 0.07647279 0.15273796 0.16946523 -0.24477589 0.080479644 0.25467515 -0.15429664
-0.27441907 0.22156848 -0.23519012 -0.038015038 -0.29909825 -0.16429165 0.15726006 -0.24915299
0.25849685 0.23714595 0.27226028 -0.091350615 -0.091090225 -0.1951322 0.21528324 -0.101444215
-0.10463817 0.17101575 0.14630689 -0.11952862 0.27192807 0.28514588 0.30508012 0.20776716
0.22129473 0.24669905 -0.065401755 0.20937361 0.06636482 -0.007190913 0.047539156 0.20588061
0.17924382 -0.1365642 0.15198956 0.17307131 0.093748465 -0.08319263 0.061919488 0.1373106
-0.14158736 0.016627941 0.1876299 0.27229726 -0.099999644 0.28620562 -0.18849364 -0.012480674
-0.09775554 0.2600504 -0.2625138 -0.114813924 0.07439907 -0.083053604 -0.12974212 -0.12973103
0.15887837 -0.14237829 0.0034198537 0.286323 -0.20349893 0.28462523 0.06361657 0.22138558
-0.027933052 -0.2588066 -0.23723118 0.22128199 -0.27461368 0.2637317 0.25539753 0.09132233
0.031970855 0.23438437 -0.22933307 -0.22245526 0.19739978 0.18538025 0.23215753 -0.020975376
0.081494495 -0.1473986 0.13396925 -0.1919369 -0.17905095 -0.10476964 0.27997378 -0.0978542
0.13070565 0.26977882 -0.20649593 -0.1142036 -0.10252634 0.04213672 0.124292195 0.11991877
-0.11037637 -0.20738503 0.20272984 0.18492614 0.01367394 0.059629533 -0.07010759 0.2174225
-0.03225205 -0.014179578 0.22102532 0.14347154 0.10954986 0.08185118 0.3052985 0.16182967
0.1381032 -0.14603291 -0.2961803 -0.07618261 0.06955519 -0.15136252 -0.08729427 -0.08374491
0.2220152 0.109613955 0.16786936 0.14234741 0.056071673 0.22042617 -0.17105584 -0.07146043
-0.12234272 0.090617694 0.2385907 0.18292056 0.19451888 -0.15614034 -0.085017495 -0.26574805
-0.13109219 -0.13948506 -0.112335555 0.25523448 -0.12257574 0.050918896 -0.16412264 0.19428411
-0.24933696 -0.19465569 -0.0384203 0.13810965 -0.2750417 0.07364296 -0.08546163 -0.12228702
0.20874748 0.08086855 0.14713095 0.18604155 -0.26722717 0.29896027 0.1355458 0.1723402

transformer_encoder.layers.0.self_attn.in_proj_bias f4 [48]
00000000: 0000 0000 0000 0000 0000 0000 0000 0000
00000010: 0000 0000 0000 0000 0000 0000 0000 0000
00000020: 0000 0000 0000 0000 0000 0000 0000 0000
00000030: 0000 0000 0000 0000 0000 0000 0000 0000
00000040: 0000 0000 0000 0000 0000 0000 0000 0000
00000050: 0000 0000 0000 0000 0000 0000 0000 0000
00000060: 0000 0000 0000 0000 0000 0000 0000 0000
00000070: 0000 0000 0000 0000 0000 0000 0000 0000
00000080: f3a1 2d3c ec4c f23c bdd7 93bc 19d2 113d
00000090: b9bd 803c 4195 c03c 182c 6dbd 900c ccbc
000000a0: 304d e13c ad5c 543a ed24 82bd 2236 0c3c
000000b0: 54b7 34bd 7851 1bbd 1c82 ebbc c840 8ebd
0.0 0.0 0.0 0.0 0.0 0.0 0.0 0.0
0.0 0.0 0.0 0.0 0.0 0.0 0.0 0.0
0.0 0.0 0.0 0.0 0.0 0.0 0.0 0.0
0.0 0.0 0.0 0.0 0.0 0.0 0.0 0.0
0.010597694 0.029577695 -0.018047208 0.035600755 0.015715467 0.02350867 -0.05790338 -0.024908334
0.027502626 0.0008100968 -0.06354699 0.008557828 -0.044120148 -0.03791949 -0.028748564 -0.0694595

transformer_encoder.layers.0.self_attn.out_proj.weight f4 [16, 16]
00000000: e312 afbb aba0 96bd a995 a3bc 514b 243e
00000010: df15 003e 59e0 70bd 1598 7d3d 0672 bd3d
00000020: 095d 8fbb 1e59 7abd a4ed 1e3e 5702 bb3d
00000030: c424 a43d 3741 dfbc e2cb e6bb e2b6 cfbd
00000040: 2fef 033e 4cd0 13be 28f6 2b3d 6618 cebd
00000050: a324 2d3d 49a0 8bbe 6bde 3cbd 5246 303e
00000060: 0d55 1dbe 3621 523e f93d 583e 00e4 91bd
00000070: 1df6 dd3d e6ee 543d 8f1e 1a3d 891f 0dbe
00000080: fc8b ac3c e871 9cbb dbb5 95ba 820d 4dbe
00000090: 02f1 1e3e 8fe0 a4bd 13ff 13be ca83 d63d
000000a0: 4c44 87bc 1906 583c 594f efbd dbe1 9cbd
000000b0: 512d b33d fdcf e1bb c5d8 36be a990 84bb
000000c0: e055 3b3d 341d bd3c 3702 8c3d fa55 943c
000000d0: ba94 d73d 7c09 84bc 5a04 55bd ecd1 b8bc
000000e0: c6fc b6bd 0095 193e 0572 ffbd 70d7 1a3c
000000f0: ea7d 933d 5661 1ebb 1b8d bcbd ccc5 033e
00000100: 52c7 28bd 8bfb 123d 2783 12bd 4ec5 1ebe
00000110: dc2d a0bb 3d27 1a3e 37ee 073e 3fc5 8bbd
00000120: b74b e13c 0acb 47be 45ae f2bd d9f8 b53d
00000130: 9232 2bbc 4b50 233c b504 bcbb 21ab f3bc
00000140: 7169 48bd 7662 d33d 6a2d 5f3d dda7 05be
00000150: 62d3 9bbd 0ffc 373d 966e 9a3d 9a06 713d
00000160: acb4 b33d 781b 843d 218a 2bbd eb92 cb3d
00000170: cf40 f0bc 32e0 51bd 0758 a43d 087b 4cbd
00000180: 4f6c 183d 7e8a ccbc f917 683c 8fa5 e63d
00000190: b9be f23d f8ed debc c910 b33d 32fa adbd
000001a0: 519f 6a3d b1a8 a5bd 62a1 c3bd 9784 343d
000001b0: ddd1 1abd 51c7 8dbc 52b4 79bd 99a2 1b3e
000001c0: 7012 123e 30d2 f1bc 6101 c9bd a367 1bbe
000001d0: 6831 003e 90b3 323e bc3c 1a3e e259 ab3b
000001e0: 7b1a 6f3d a748 d03d e76f cf3c 8f1e ff3d
000001f0: 4b5f 913d 5343 1e3e 2002 b43d 3da5 f8bd
00000200: 29f4 eebd cacb 08be a088 0dbe c34c f53c
00000210: d8fa 74bd acee 383e 4804 c23d 5614 40be
00000220: 681f 203e 5ddd abbd 8e7a 8b3c 2568 263e
00000230: de0a 16be 9043 2bbd 8779 0ebe 1ce9 483d
00000240: b642 18be f874 6cbc 60fa 6dbd ba54 f0bd
00000250: a4bf c53c 63d2 03be 7410 43be 6264 71bc
00000260: 6dcf febd 8287 243e 7a4c dd3d 00ea e43d
00000270: ff6b 9e3c c283 eb3d 418d 4bbe e2fa cdbd
00000280: 1c10 b73d 33cc 153e 8a13 8fbd 95bb 1a3c
00000290: e1dd a4bc c2da ce3d 1606 c33c 96e3 01be
000002a0: f0db dd3d c77f 12be 359b 1fbe 38e2 57bd
000002b0: 9ddb acbd 7970 233c 3204 27be 749a 803c
000002c0: 0c7b 0f3e e5ce ffbc fc35 0e3d b4dc bb3d
000002d0: 18bb da3d 1757 b0bd 6c80 da3a 12ba 1e3e
000002e0: 4fc5 083e 0646 28bc 9972 293e 7cfb 193e
000002f0: 4e55 463d a435 3b3e 8a4a 0c3e 92cd 42be
00000300: 50cb c33d f961 aabd 7e96 f03d ad11 cb3d
00000310: acf8 343e d3c5 4bbd bf90 13be aad2 1ebd
00000320: 810e 653c e7f7 073e 061a 0f3d 6057 fc3d
00000330: 0f72 07be 80aa 0ebd 47ac 7abd a6f2 313e
00000340: 900b 1d3e ac4c 47be be00 833d 9df4 07be
00000350: ef3c 093e c984 fabd a9ae 1d3e 7b13 c13d
00000360: decb 27be 3c1d a23c e946 b93d be7e 02be
00000370: 28e1 acbd a4f4 143e 0864 4dbc 5cd4 093d
00000380: b12c 463c 15e6 3f3e 021b 053e 8cab 44bd
00000390: 925b 0e3a 12e5 ecbc c550 243e 44b4 69bb
000003a0: 61ce 613c edbd c33d 692b 6b3d 6ba3 16be
000003b0: 4a08 213e 86c4 dbbd ce49 243e 04ca 06bc
000003c0: daa1 fdbd 1ece 563d 8cb7 db3d ef5d afbd
000003d0: 6b51 3abd e024 373c 77fd 13be ad03 09bd
000003e0: 872f ebbb 1b48 bfbd fcdb 843d bf39 a2bc
000003f0: d491 6e3d c1d2 03be 85b2 2a3d 4897 41be
-0.0053428276 -0.07354864 -0.019968824 0.16044356 0.12508343 -0.058807705 0.061912615 0.09250264
-0.0043751043 -0.061120145 0.1552034 0.09131306 0.08014825 -0.027252777 -0.0070433477 -0.10142304
0.1288421 -0.14434928 0.0419828 -0.100632474 0.042271268 -0.27270725 -0.04611055 0.17214325
-0.15364476 0.20520481 0.2111739 -0.07123566 0.10837958 0.051985644 0.0376268 -0.13781561
0.021062844 -0.004774321 -0.0011421995 -0.20024684 0.15521625 -0.08050644 -0.14452772 0.104743555
-0.016512059 0.013185048 -0.11685056 -0.07660266 0.08748878 -0.006891249 -0.17856129 -0.004045565
0.045736194 0.023085214 0.0683636 0.018107403 0.10526414 -0.016117804 -0.052006103 -0.022561036
-0.089349315 0.14998245 -0.124729194 0.009450778 0.072017506 -0.0024166903 -0.09206601 0.12868422
-0.04120571 0.03588442 -0.035769608 -0.15504953 -0.0048882794 0.1505403 0.13274466 -0.06824731
0.027501924 -0.19511047 -0.118496455 0.088853545 -0.010449069 0.009967874 -0.005737866 -0.029744687
-0.04892868 0.10321514 0.05448667 -0.13052316 -0.076086774 0.044918116 0.07540624 0.058844186
0.08774695 0.06450552 -0.041879777 0.09940132 -0.029327778 -0.0512392 0.080246024 -0.04992202
0.037212666 -0.024968382 0.014165872 0.112620465 0.11852784 -0.027213082 0.08743436 -0.084949866
0.057280842 -0.08088816 -0.09552266 0.04407176 -0.037797797 -0.017306956 -0.060962982 0.15198745
0.14264846 -0.02951917 -0.09814716 -0.15176253 0.12518847 0.1745131 0.15062231 0.0052292207
0.058374863 0.10170107 0.025321914 0.124570005 0.07098254 0.1545537 0.08789468 -0.12140892
-0.116676636 -0.1335899 -0.1382165 0.02994383 -0.059809536 0.18059796 0.09473473 -0.18757758
0.1563698 -0.08391831 0.017026212 0.16250665 -0.14652583 -0.04181248 -0.13913547 0.049050435
-0.14869198 -0.014432184 -0.058100104 -0.1173491 0.024139233 -0.12873225 -0.19049245 -0.014733406
-0.12441907 0.16067317 0.10805602 0.111774445 0.019338606 0.1149974 -0.19878103 -0.10057618
0.089386195 0.14628677 -0.06986149 0.009444137 -0.020125331 0.101003185 0.023806613 -0.12684473
0.108329654 -0.14306556 -0.1558655 -0.052705973 -0.084403254 0.009975546 -0.16310194 0.015698649
0.14011782 -0.031226585 0.034719452 0.09172955 0.106802166 -0.08610361 0.0016670353 0.15500668
0.13356517 -0.010270601 0.16547622 0.1503734 0.048421197 0.18282181 0.1370031 -0.19023731
0.09560263 -0.08319468 0.11747454 0.09915481 0.17672986 -0.049749207 -0.14410685 -0.038775124
0.013980509 0.13278161 0.034936927 0.12321353 -0.13227104 -0.03483057 -0.061199453 0.1737772
0.15336442 -0.19462842 0.06396626 -0.13276906 0.1340215 -0.12232358 0.15398659 0.09427544
-0.16386363 0.01978933 0.09046728 -0.12743661 -0.08441383 0.14546448 -0.012536056 0.033649787
0.012095616 0.18740113 0.12998584 -0.048015162 0.0005430515 -0.028917823 0.16046436 -0.0035660425
0.013782115 0.0955771 0.057414446 -0.14710777 0.15725818 -0.10730843 0.16043779 -0.008226875
-0.12384386 0.052442662 0.10728368 -0.08562838 -0.045487802 0.011178225 -0.14452158 -0.03345077
-0.0071772966 -0.09339925 0.06487271 -0.019802926 0.05824454 -0.12873365 0.041674156 -0.18905365

transformer_encoder.layers.0.self_attn.out_proj.bias f4 [16]
00000000: 7a9b eb3c 2cad a73c 3711 acbb 4584 03bd
00000010: 7f15 ae3c 7b04 583c 93cf 183d c0d8 74bb
00000020: 2918 a5bc f5ab 9c3c 8227 8d3c b3c7 1dbd
00000030: fa37 b73b d003 33bd fe5f 60bc 4c72 50bc
0.02876066 0.020468317 -0.0052510756 -0.032108564 0.021250485 0.013184662 0.037307333 -0.0037360638
-0.020153122 0.019124964 0.017230753 -0.038520526 0.0055913897 -0.043704808 -0.013694761 -0.012722563

transformer_encoder.layers.0.linear1.weight f4 [512, 16]
00000000: 81b0 e3bd 5728 2c3e be20 35be 5116 c13b
00000010: cb71 193e dcda b3bd f109 2e3e 02d4 d83d
00000020: f8ef 363e d93e 353e bdc0 883e aef9 c9bd
00000030: 50db a43c 078c 39be 9a77 7ebe d6d4 be3e
00000040: 8c5d ee3c a6b5 1bbe 5036 533d f585 173e
00000050: f059 3abe 6e6b 9c3c 1d3f 0ebe 161a 92be
00000060: 944e 02be 4db1 aa3d 40d7 7fbd 021f 053e
00000070: 4b6e f83b 858c 23be 4923 1bbe e525 c3bc
00000080: a32d 003e 4a36 acbe 5ba3 443e c2b9 f0bd
00000090: 2370 a9bd b020 71be e06b 59be e0f2 7ebe
000000a0: 1d64 a4bd 322e 3bbe 872c ab3c b198 123e
000000b0: a379 4ebe 52d0 863d 2ea9 113e 23af 03be
000000c0: 0162 873d f0c1 863d 413d 73be 8db0 57be
000000d0: 9dde 913d 2f0e b9bd dc41 4d3e 974c 6d3e
000000e0: cf9a 3c3d 50cb 75bd 2214 2f3e 3c04 393e
000000f0: 7f05 073e f025 143b 0fd5 953e 8b83 babd
00000100: dfa1 96be c4bd 733d 67a7 45be c232 04be
00000110: ff47 a33d 5dc7 b23d 961e cf3d 0b61 4dbd
00000120: 68ad 32be d023 a4bd 5c57 61bd 9900 563e
00000130: c241 0ebe 7f72 8a3e 3af6 b0bd fc17 b83c
00000140: 3291 703e bd46 2abd 6444 ac3d f8b5 273e
00000150: 9e73 68be 7a7d 15be 89a5 c5be ba4a 853e
00000160: bab6 2f3e fd28 133c 9f0c c3bc 8abc c0bd
00000170: d237 eabd 725f 193e 24b0 d0bc 05fe 02be
00000180: b419 203e 79b7 e2bd 84bd b13c 0020 6f3d
00000190: 39da ed3d 5e0c 8bbe 8ce7 4dbc c3c0 82bd
000001a0: 5bb8 953e 8492 3bbe 086d f33c 645c 3bbe
000001b0: 2aa8 9e3d 1d76 863e d5ba 44be 8614 fdbc
000001c0: cfb5 3a3d ddb7 26be 5b95 843d 4582 d53d
000001d0: 75fd bfbc 162d bb3d bc75 093d 98e0 2fbe
000001e0: f673 3b3e 3671 36be 89af 1e3e ceee e53d
000001f0: 5be2 09be 0580 cb3a 7721 debc 9611 74be
00000200: 950c 013d 86c1 0abe 2776 273d e865 07be
00000210: 0b59 c33c 3a11 ba3d 08ec 48be 2027 f0bd
00000220: 741b 2f3e 472a 5cbd 6d6b 96bc 33d7 83bd
00000230: 1a30 51be 31a2 083d 3859 f0bd 0e6e 0abe
00000240: 3d3c 0fbc 862a 9b3e 53eb 93bd 0afa 32be
00000250: 5e9f 01bc a871 bf3c 43c1 c53c b906 463e
00000260: 0faf 633d 9ca6 c0be 38bd 223e d6b2 2ebe
00000270: e2ff 753d 604a 343e 3694 52be fa75 32be
00000280: 3176 a23d 61d5 ac3d 86a9 debd 1935 b4bd
00000290: 2e01 863e c0d0 77bb 622e 913e 1990 f7bb
000002a0: 0f54 0dbe b786 00bd 6a8d c03d 8382 06be
000002b0: e239 9b3d 2315 283e f566 c7bd f081 603e
000002c0: ce60 bbbe 7d1a 9dbd 6112 08bc f4e7 0d3e
000002d0: a804 b93e f8ce 283d 8655 9a3e 1e29 ac3d
000002e0: b3b3 cfbd 6555 2b3d 8cec 31be 4053 123e
000002f0: 959b 2abe 463d 76be c36c 2cbe 1b08 e93c
00000300: d652 023e 2ad4 643d ae1c 84be fd4c 803e
00000310: 19d4 fdbc cfbc 8dbe 41a0 223d 87b9 d13d
00000320: d97f cfbd 0894 943d 8a2d 27be fe87 e33d
00000330: d18e 0dbc 06ba a43d c5c1 323e a1c9 5c3e
00000340: 36e0 3ebe bbac 8abe b200 3d3c 7445 803e
00000350: 8d20 1abe 8738 163d 5a85 8f3c 7cd7 613d
00000360: 4ab1 3d3e 7048 73bc 9b52 3f3e 8731 3bbe
00000370: 1469 7bbe b61e 953c c74e c2bd 6c0a 973c
00000380: 93e8 123e f117 6d3e 0a34 763d c1db 1cbe
00000390: 8743 c23d 3b38 183e 40ab ac3d b264 50be
000003a0: 7bbd fb3d 43dc 08be 8bed 333e f2d5 1c3e
000003b0: a5a5 3dbe 5b29 903e 1188 a8bd 2731 fa3d
000003c0: aba9 20be 4a74 e9bd 74cc 323e 48e8 6f3e
000003d0: 89bd 583e 976e 0cbd 998f 923e 8ec8 4f3e
000003e0: ee06 85bd 0ea9 26be 0726 293d 4bdd 48be
000003f0: b3c5 bdbe 43c9 d6bc 2803 09be 1af9 02be
-0.1111765 0.16812263 -0.17688271 0.005892553 0.14984815 -0.087819785 0.1699598 0.10587312
0.17864978 0.17699756 0.26709548 -0.09862076 0.020124108 -0.18119822 -0.24850312 0.37271756
0.029097341 -0.15206012 0.05156547 0.14797194 -0.18198371 0.019094195 -0.13891263 -0.28535527
-0.12725288 0.08334599 -0.062461138 0.1300011 0.0075815073 -0.15971573 -0.15150179 -0.02382178
0.12517409 -0.3363517 0.1920294 -0.117541805 -0.082733415 -0.23547626 -0.21232557 -0.24897337
-0.080269076 -0.18279341 0.020895256 0.1431606 -0.20163588 0.06582703 0.14224693 -0.12859778
0.0661049 0.065799594 -0.23753835 -0.21063443 0.07122538 -0.090359084 0.20044655 0.23173748
0.046046074 -0.060008347 0.17097524 0.18068022 0.1318569 0.002260562 0.29264113 -0.09107121
-0.29420373 0.059507146 -0.1930214 -0.12909988 0.079727165 0.08729432 0.10113256 -0.050141376
-0.17448962 -0.08014643 -0.055014953 0.20898665 -0.13892272 0.2704048 -0.08640714 0.022472374
0.23492888 -0.041571368 0.08411482 0.1637801 -0.22700354 -0.14598647 -0.38602856 0.26033574
0.17159548 0.00898194 -0.02380973 -0.09410961 -0.11436428 0.14977816 -0.025474615 -0.12792213
0.15634805 -0.11070151 0.021696813 0.058380127 0.11613888 -0.27157873 -0.012567412 -0.06384423
0.29242215 -0.1831761 0.029715076 -0.18296963 0.077469185 0.26261988 -0.19211896 -0.030893575
0.045583542 -0.16281076 0.064738 0.104252376 -0.023436287 0.09139459 0.033559546 -0.1717552
0.18305954 -0.17816624 0.15496649 0.11227189 -0.13465254 0.0015525824 -0.027115567 -0.23834834
0.03150614 -0.13550386 0.040884163 -0.13222468 0.02384617 0.09085317 -0.19621289 -0.117262125
0.17100316 -0.053751256 -0.018361771 -0.0643753 -0.20428506 0.033357803 -0.11735767 -0.13518545
-0.008742389 0.3030588 -0.07222619 -0.17478195 -0.007911531 0.023369625 0.024140006 0.19338502
0.05558687 -0.37627113 0.15892494 -0.17060408 0.060058482 0.17606497 -0.2056435 -0.17427817
0.079326995 0.08439136 -0.10872178 -0.0879919 0.26172775 -0.0037813634 0.283557 -0.0075550196
-0.13801597 -0.031378474 0.094019726 -0.13135724 0.075794 0.16414313 -0.09736434 0.21924567
-0.36597294 -0.07671068 -0.008305163 0.13858014 0.36136365 0.041213006 0.30143374 0.0840628
-0.10141697 0.041829485 -0.17375392 0.1428957 -0.16660912 -0.24046811 -0.16838364 0.028446248
0.12726912 0.055866398 -0.2580313 0.25058737 -0.030984925 -0.27683112 0.03970361 0.10240465
-0.10131807 0.07254797 -0.16325966 0.11109923 -0.008640007 0.08043294 0.1745673 0.2156129
-0.18640217 -0.27084908 0.01153581 0.2505299 -0.1505148 0.036675002 0.017519642 0.055137143
0.18524662 -0.014848813 0.18683855 -0.18280612 -0.24551803 0.01820312 -0.09487682 0.018437587
0.14346533 0.23153664 0.060108222 -0.15318204 0.09485536 0.148652 0.08431101 -0.20350912
0.12292 -0.13365273 0.17571084 0.15315989 -0.1852022 0.28156552 -0.082290776 0.12216406
-0.15689723 -0.113991335 0.17460805 0.23428452 0.21166052 -0.034285154 0.2862518 0.2029135
-0.06495462 -0.16275427 0.04129603 -0.19615667 -0.37064895 -0.026219016 -0.1338011 -0.12790337

transformer_encoder.layers.0.linear1.bias f4 [512]
00000000: 0e3b 0fbe 9cad abbe 913f 11be 8713 a7bc
00000010: 2207 92bd 5f7c 77bd aaf4 973d 503f 50be
00000020: a574 44bd 11a2 973d 6a86 95be f8df 40be
00000030: bc21 083e 4dc8 a1be d0d6 9f3d 9305 843e
00000040: 813d 323e b4a8 18be 22bd ed3d 17ab 96bd
00000050: 71c2 f9bd efc2 9d3d f750 50be 699e afbd
00000060: 2909 72be 09d3 eabc d4b4 c03d 89c4 9abe
00000070: 3857 bc3c 9ac1 023e a781 e1bd b6cc 55bd
00000080: b581 e6bc 469c 0f3e bd39 a33d af4c 293d
00000090: d93b 443c 6233 21bd 77f6 283b 8159 65be
000000a0: 32fe b0be 353c 6abe f444 9ebe 1890 83be
000000b0: 4b2f 833d a1ec 543e e3ad b93d 0eea 51be
000000c0: c055 1bbe 7308 1dbe dc30 89bd 6e4a 0bbe
000000d0: c406 703d cacd 4b3d 7cf2 593d f629 03be
000000e0: cfef cc3d 18e9 06bd b670 cfbd 863d febd
000000f0: a0f0 e2bd b457 6fbd 941c 4abe 30a3 e8bd
00000100: dac4 a8bc 4f62 2d3e 2e26 dabd b29a 713d
00000110: 9b4b f23d 9c96 7abe 953f dc3d 70d6 9a3c
00000120: 400e 9bbe f2f2 bdbd 5365 ab3a a6e1 9bbd
00000130: af91 3dbe bc3e 60be 28da f8bd bf6b c13d
00000140: 6fa8 f93d eb28 abbe 3485 d5bd 81f1 11be
00000150: 75ea b5bd 4b3a 91be 7587 7cbe 6cb5 bc3c
00000160: 1e20 96bd 58e3 a3be 36ec c63c 4795 4e3e
00000170: a6a0 07ba f921 3f3e e983 a7be 4b20 bc3d
00000180: 783d 9abe e946 37be 8a3e 523c 4625 84be
00000190: fbb4 f33c ae60 2ebe f7b2 91be ea46 ffbd
000001a0: 9410 e33d 2eb9 b3bc a264 2fbe 9d27 a9be
000001b0: a8e8 7ebe 72fc 3cbd 546f 483e 03e1 233e
000001c0: 8f52 92bd e0b5 6f3d 85ae d0bd c89d 2ebd
000001d0: fae3 10be a359 5ebd e774 babd e191 babd
000001e0: f132 463c cbc9 a0be 01ee 9cbd 8c40 04be
000001f0: bf5c 3bbd ef0e b63d 409d a03d 833f 8bbe
00000200: ed39 81bd 9291 cf3d 3824 1cbe 0546 b2be
00000210: 6373 583e c56b d83d 7734 96be 559f 043e
00000220: c8f8 e53d fbfd 06be df42 fc3c 8794 72be
00000230: 6794 b13c 549c 413e 4c63 9c3d 6b43 9cbe
00000240: 43e5 3bbe 11f6 d33d 6b77 8b3d b301 14be
00000250: 201b 1e3d 0677 813d edf1 19bd fd05 a4be
00000260: 6dd5 813b dc3a 6ebe 5df3 d73d 03a6 7bbe
00000270: 04c3 5f3e ca82 90be 5a96 2a3e 0953 8d3e
00000280: de3d a4be 26ef 3dbe 3424 44be eb88 253d
00000290: 298f d1bd f1da aa3d 2d2b f4ba 7545 7a3d
000002a0: 5643 09be f430 95be f63a ff3c 287a 2abe
000002b0: 633d 37bd aed8 7abe cf1a 98be 6fb9 e5bd
000002c0: dcd9 033d f472 f83b aeea 4fbe c4bc 1cbe
000002d0: 2acd 2dbd 37af f5bd 64e0 043e 7fe6 91bd
000002e0: 00b5 3c3c c8e8 80bd 90ff 84bc 6b97 0bbe
000002f0: da3b 11bd 7e8d a5be 651b 9b3d 3712 d0bd
00000300: dc91 3fbe a9b1 c53d 1730 4dbe 35f8 c13c
00000310: aa59 0d3e 9c28 eabd ee0a fabd 2843 32bd
00000320: bb8a 81be f60f 01be 0e07 fbbd 9118 0bbe
00000330: f692 a0be ebe0 a63d 1710 28be 8a11 71be
00000340: ba69 d9bc 5fd0 75be 5c08 21bc d8bd afbe
00000350: bbf5 0b3e ee67 99be 073a 0abe 589b 5dbe
00000360: aeec 153d 94a9 80be 1c91 5cbe 6eb5 87bc
00000370: f586 15be 07a7 583d d215 92be c8ae 48bd
00000380: 05c0 293e 30ed 93be 13b5 083c a07d bcbc
00000390: 0528 97bd 7bfd 89be 8e33 bbbd 65d0 8bbd
000003a0: 4a4b 90be 4426 aabe 1988 dcbd 1113 d83d
000003b0: 7011 8dbe e598 9d3d 766e 41be 8a80 d5bd
000003c0: 6c3c 6dbd 0f0c 01be df7a e3bd ae35 2c3e
000003d0: a662 6f3d 37a1 9ebe 7365 66bd b938 bfbd
000003e0: cc03 0ebe d97f ccbd c889 54be 3b4d 92be
000003f0: a38e 373d a5e6 11be 1842 c9bd 592f 863d
-0.13987371 -0.3353089 -0.14184405 -0.020395054 -0.07130267 -0.060421344 0.07419713 -0.20336652
-0.047962803 0.074039586 -0.29204112 -0.18835437 0.13294119 -0.3159813 0.07804644 0.25785503
0.17406274 -0.14908105 0.1160834 -0.073568515 -0.1219529 0.07703196 -0.20343386 -0.08575136
-0.23636307 -0.028665083 0.0940949 -0.3022807 0.022990808 0.12769166 -0.11011057 -0.05219718
-0.028138021 0.14024457 0.07969997 0.041332897 0.011977159 -0.039355643 0.002578167 -0.22397424
-0.34568936 -0.2287453 -0.30911982 -0.25695872 0.06405505 0.20793392 0.090663694 -0.20499441
-0.1516943 -0.15335254 -0.06698772 -0.13602611 0.058600202 0.049756803 0.053209767 -0.12808976
0.10006677 -0.03293714 -0.1012892 -0.124140784 -0.11081052 -0.05843325 -0.19737464 -0.113592505
-0.020601679 0.16932033 -0.106518134 0.05898542 0.11830827 -0.24471515 0.10754315 0.01890108
-0.3028431 -0.09274854 0.0013076462 -0.076113984 -0.18512605 -0.21898931 -0.12150985 0.09444379
0.12190329 -0.33429655 -0.10425797 -0.14252283 -0.0888261 -0.28364787 -0.24661048 0.023035727
-0.073303446 -0.32009387 0.024282556 0.20174132 -0.000517378 0.18665303 -0.32717827 0.09185847
-0.30125022 -0.17898144 0.012832293 -0.25809687 0.029749384 -0.17029068 -0.28456852 -0.12464698
0.110871464 -0.021938886 -0.17128232 -0.33038035 -0.24893439 -0.046139188 0.19573718 0.16003804
-0.07144653 0.05852306 -0.10189537 -0.04263094 -0.14149466 -0.054284703 -0.091043286 -0.091098554
0.012097106 -0.31403956 -0.07662583 -0.12915248 -0.045742746 0.08889567 0.07842493 -0.27196893
-0.063098766 0.10135187 -0.15248191 -0.34819046 0.21137767 0.105674304 -0.29336902 0.12951405
0.11229092 -0.13182823 0.030793605 -0.23689471 0.021677209 0.1890729 0.07636127 -0.30520186
-0.18349175 0.10349668 0.068098865 -0.14453773 0.038600087 0.0632153 -0.037584234 -0.3203582
0.00396221 -0.2326464 0.10544465 -0.24575047 0.21851736 -0.28224784 0.16658917 0.27602413
-0.3207845 -0.18548259 -0.19154435 0.04041378 -0.10232384 0.08342541 -0.001862859 0.061101396
-0.13404593 -0.2913891 0.031156044 -0.16648161 -0.044736277 -0.24496719 -0.29707953 -0.11217009
0.03219019 0.007582063 -0.20304367 -0.15306383 -0.042431988 -0.1199631 0.12976223 -0.07124042
0.011517763 -0.062943995 -0.016235143 -0.1363198 -0.03545747 -0.32334512 0.075735845 -0.10159724
-0.18707985 0.096530266 -0.20037876 0.023677925 0.13803735 -0.11433527 -0.12209116 -0.043521076
-0.25301155 -0.12603745 -0.12257205 -0.1358359 -0.31362122 0.081483684 -0.16412388 -0.23541847
-0.026539672 -0.24005269 -0.009828653 -0.34324527 0.13667957 -0.29962105 -0.13498698 -0.2164129
0.03660267 -0.25129378 -0.2153973 -0.016566005 -0.14602263 0.052893665 -0.28532273 -0.04899481
0.16577156 -0.28891897 0.008343953 -0.023009121 -0.0738068 -0.26951203 -0.09140693 -0.068268575
-0.2818244 -0.3323232 -0.10768146 0.10550512 -0.27552366 0.07695178 -0.18889794 -0.104249075
-0.05791895 -0.12602256 -0.1110742 0.16817352 0.058443688 -0.30982372 -0.056249093 -0.09336991
-0.13868636 -0.099853225 -0.20755684 -0.28574547 0.044813763 -0.1424814 -0.098270595 0.065519996

transformer_encoder.layers.0.linear2.weight f4 [16, 512]
00000000: fe99 833d d886 b43d dca4 a93c b007 8cbd
00000010: d5ea 70bd 114e 17be 48a4 a13c 0b09 df3c
00000020: cfbd c53c a90d ec3d 96f3 19be 66df cabb
00000030: 1a5b d0bd 8d57 cdbc 46e5 9e3d 3254 a5bd
00000040: 643e fa3d 7025 283e a389 423d 59e6 9ebd
00000050: e612 34bc 9c1a b73d 3133 b4bc 2b82 45bd
00000060: 39f0 163d 79f0 4cbb 3eb5 48bd 88fc 2fbe
00000070: 4e6e 803d 5a4e 3dbe e832 283e e923 053d
00000080: a867 5fbc dafc 2dbe 011c 0a3d bd70 ae3c
00000090: 4a11 223c d1a7 103e 83d7 76bd 4cd7 50bb
000000a0: 873a cabd 1aba f5bd 272c c0bd f3bc 833e
000000b0: 0aa8 41bd 4af3 11bd d39e 803d 40b4 8f3b
000000c0: e395 f23d e108 123e 98fb babd 3f5b 0bbd
000000d0: da4f 153d a13c aa3e e72c 773d d092 353e
000000e0: 255a 6bbd 9ae4 8e3b 519a ab3b ec9a 68be
000000f0: a3de 60bd 042f 46be cecc d73c fc53 193d
00000100: 934c ffbc d46c d43d 2ef9 5ebd 823d b4bd
00000110: c910 c13c bb58 0d3e 9268 543d 91f0 113d
00000120: d88a b33d d85d 053d b90f 033e d982 eb3b
00000130: 2c6e d53c cf11 93bb 9e39 11bc 8d49 b5bd
00000140: 2381 e43d 4202 723d f7ba d0bd 8155 19be
00000150: 1e87 6d3e cd61 a33e 4269 a4bd 3722 643d
00000160: 1988 313d 011c e8bd bacd 073e 1caf eabc
00000170: d7e1 33bd 202c afbd de2c dd3d 6509 9bbc
00000180: 1829 893d cbf6 bdbc 6b5f e3bc 052d 84bd
00000190: 3b59 16be 599d e43b d3f0 1ebd 6d2b 093e
000001a0: 9037 a8bd 063e aabd ef74 1a3d 4244 a9bd
000001b0: 91e9 d43d edcb 163e 8f86 2b3d 688a 653d
000001c0: ee9e a93c 683e ad3d 28cb 49bd 2067 883a
000001d0: 4e3f aabd 665c 17b9 a5aa 0e3c ee54 903b
000001e0: 3ec4 27bb 98f3 42bd 7bd9 3a3d 893f 003d
000001f0: 290a ca3c c92f 92bd ab63 c0bc c7ce b3bd
00000200: 3cfd 5f3e c438 b03c bc2b 86bd bd1e b2bd
00000210: 2b50 d2bc 2657 4fbd de2f 7b3c 8b91 bb3d
00000220: 6664 cd3c 91c4 23bd f3ba 413d c5c4 b03d
00000230: 4cd5 c4bc bc0f 27bd 32fa b8bc 093c b7bd
00000240: 1725 433c c47e d33d 714f 9abc 546b 343c
00000250: 02f7 3dbd 738c 88bc 440a 233d d9a9 e43d
00000260: 6046 c73d 3a1b 523d f6e8 20bd 900e 123b
00000270: 2ebd d8bc 9961 fa3d b948 c2bc 2195 823d
00000280: 48d5 eb3d 8fa3 763c 296e f3ba 5838 0c3d
00000290: e7ed 0c3e ff99 47bc 26a1 5cbe 3b53 bbbc
000002a0: 1cf7 08be b706 a1bd e6c4 913d 3653 d83c
000002b0: 11eb c63d 7ec0 513d fcab 973c 7014 d63b
000002c0: 79ae 3c3e c54f cebd 6949 d73a 9281 f43c
000002d0: d347 5cbd 6754 1dbd a830 3bbd f625 8bbe
000002e0: 30a1 a5bb c3a5 183d 38b0 debc 188a febc
000002f0: 71e1 24be e25e 7b3e 516f 1b3b 6dd2 59bd
00000300: f475 b4bd a06d 103c 4b61 d13c b359 07bd
00000310: cd3d 21be 8192 213e d8c4 69be c32a 983d
00000320: ee35 d93d ef14 24bd 3db9 84bd 9d40 81be
00000330: 6b89 693e 2215 39bd 0817 e2bd 638a b6ba
00000340: 0e04 9ebd 4a21 90bc ece0 53bd 9917 eb3d
00000350: 637c dcbd 769a 4e3e 9075 8cbc 15fc 0bbe
00000360: 5124 81bc 4a66 7abd d3b2 2a3d 945e f8bd
00000370: e598 7c3c 0c3c 193e 2848 153e 9104 c03d
00000380: fccc a83a 3298 2cbe 634e 4fbd a66c 76bd
00000390: 9fa4 443c e723 423d f504 903d bea5 9bbd
000003a0: 6312 f33c 9136 8c3c 93a0 95be df0c bd3b
000003b0: b218 6b3d 07d6 02bd 34e4 4dbe 6d9b 45be
000003c0: d8be a43e 296b babd 223a 11be 4629 c0bc
000003d0: a2a1 293d 73f7 6c3d 6d37 6b3e c7e0 8f3d
000003e0: e1ff 2e3e edc5 cdbc 2a5f c4bd 8654 d5bd
000003f0: 18b7 5abd c53e 283e b284 72bd c74d 1b3d
0.06425856 0.08814782 0.020708494 -0.06837404 -0.058817703 -0.14775874 0.019731656 0.027225992
0.02413836 0.11526043 -0.15034327 -0.006191182 -0.10173626 -0.025066162 0.07758574 -0.080726996
0.12218931 0.16420531 0.04749454 -0.07758779 -0.010990834 0.08940622 -0.021997066 -0.04821984
0.036850188 -0.0031271263 -0.04900097 -0.17186177 0.06271039 -0.1848692 0.16425669 0.03250495
-0.013635553 -0.16990986 0.033718113 0.021293992 0.009891817 0.14126517 -0.06026412 -0.0031866608
-0.098744445 -0.11998387 -0.093834214 0.25730094 -0.047279395 -0.03563241 0.06280293 0.004385501
0.11844995 0.142612 -0.09130019 -0.034022566 0.036453106 0.3324938 0.060345557 0.17731786
-0.057459015 0.0043607475 0.005236902 -0.22715348 -0.054899823 -0.19353873 0.026342776 0.03743361
-0.031164443 0.1037232 -0.054436855 -0.08800794 0.023567574 0.13803379 0.05185754 0.035629813
0.08766717 0.0325602 0.12798966 0.007187229 0.02605351 -0.004488207 -0.008863835 -0.08851919
0.111574434 0.059084184 -0.10191911 -0.14974023 0.23196074 0.31910554 -0.08027889 0.055696692
0.043342683 -0.11333466 0.13262072 -0.028647952 -0.04391655 -0.08553338 0.10799573 -0.018925378
0.06697291 -0.02318897 -0.02775546 -0.06453899 -0.14682476 0.006976765 -0.038803887 0.13395472
-0.08213723 -0.08312611 0.037709173 -0.08264972 0.10396112 0.14726229 0.041876372 0.056040198
0.020705666 0.08459169 -0.04926601 0.001040671 -0.08312856 -0.00014434903 0.008707677 0.0044046557
-0.0025599147 -0.04759559 0.04561756 0.03131059 0.024663048 -0.071380205 -0.023485025 -0.08779674
0.21873945 0.021511443 -0.065513104 -0.08697269 -0.025672993 -0.05062022 0.015331237 0.091586195
0.025072288 -0.039982382 0.04729743 0.08631281 -0.02402749 -0.04078649 -0.02258024 -0.08946998
0.011910698 0.10326913 -0.018836709 0.011011917 -0.046378143 -0.016668534 0.039804712 0.11165208
0.0973022 0.051295497 -0.03928467 0.0022286512 -0.026457395 0.122256465 -0.023716317 0.063761
0.115152895 0.015053644 -0.0018572259 0.03423342 0.13762628 -0.012182712 -0.21545848 -0.022866836
-0.13375515 -0.07862609 0.071176335 0.026406866 0.09712804 0.051208965 0.018514626 0.006533198
0.18425931 -0.100738086 0.0016425076 0.02984694 -0.053779434 -0.03841057 -0.0457007 -0.271774
-0.0050546154 0.037267458 -0.027183637 -0.031071708 -0.16101624 0.24547914 0.0023717473 -0.053179193
-0.0881156 0.008815199 0.025559088 -0.03304453 -0.15746231 0.15778543 -0.22828996 0.07430031
0.106059894 -0.040059026 -0.06480644 -0.2524461 0.22806327 -0.04518617 -0.11039549 -0.001392674
-0.07715617 -0.017593998 -0.051728174 0.1147911 -0.107659124 0.2017611 -0.017145902 -0.1367038
-0.015764387 -0.061132707 0.041674446 -0.12127414 0.015417312 0.14964312 0.14578307 0.09375871
0.0012878473 -0.16854933 -0.050611865 -0.06016221 0.012002139 0.04739752 0.070321955 -0.07599972
0.029671853 0.017115863 -0.2922407 0.0057693566 0.0573966 -0.031942394 -0.20106584 -0.19297571
0.32176852 -0.091024704 -0.14182332 -0.02345718 0.04141391 0.057853173 0.22970362 0.07025295
0.17089798 -0.025118792 -0.095884636 -0.10416512 -0.053397268 0.16430195 -0.05920858 0.03791597

transformer_encoder.layers.0.linear2.bias f4 [16]
00000000: bfd4 983c 37db 443c c10a 683c e4a9 cc3c
00000010: 25da 5b3d 9ab7 19bd 21ae 273d 82c2 94bc
00000020: d9af 443d 6e98 3fbd c87f e53a 7342 19bc
00000030: 7d9f 523c aa49 86bc 6ec4 5a3c 3c2a 90bd
0.018656133 0.0120151555 0.01416272 0.024983354 0.053674836 -0.03752861 0.040937547 -0.018159155
0.048019264 -0.046776228 0.0017509395 -0.009354222 0.012855408 -0.016392548 0.013352497 -0.070393056

transformer_encoder.layers.0.norm1.weight f4 [16]
00000000: 094c 843f de66 7d3f acaa 743f ca0d 793f
00000010: 42de 893f 2250 843f 1bff 8a3f 43ce 803f
00000020: 5b69 783f 2983 7c3f 98e5 813f ab39 8a3f
00000030: 3de7 793f b976 823f 8faf 7f3f c142 7b3f
1.0335704 0.9898509 0.95572925 0.97286665 1.0770953 1.0336955 1.0859102 1.0062946
0.9703576 0.98637635 1.0148191 1.0798849 0.97618467 1.0192481 0.99877256 0.98148733

transformer_encoder.layers.0.norm1.bias f4 [16]
00000000: ff2a 1cbc 58cb 9abc 722c f3bb 092f f8bc
00000010: a5aa 05bd 3749 7c3a c897 623d 5096 ba3c
00000020: 2005 8abc 7b56 753d fc48 26bd 9fd9 6a3c
00000030: 6f66 a03c 8745 34bc 1364 983c 8eaa 1b3c
-0.009531735 -0.01889579 -0.00742107 -0.030295866 -0.032633442 0.0009623947 0.05532053 0.022776753
-0.016848147 0.059896927 -0.040596947 0.0143341115 0.019580094 -0.011002905 0.018602407 0.009501113

transformer_encoder.layers.0.norm2.weight f4 [16]
00000000: 6317 7a3f b422 883f a729 7c3f 9fc5 7b3f
00000010: 145a 703f c12a 8f3f cb21 793f 581b 733f
00000020: 88e0 853f e20a 833f a07e 823f b3e5 863f
00000030: c7a2 843f ea62 663f 66b2 6e3f b20a 833f
0.97691935 1.063559 0.98501056 0.9834842 0.9388745 1.1184922 0.9731719 0.949636
1.0459146 1.0237696 1.0194893 1.0538849 1.0362176 0.8999468 0.93240964 1.0237639

transformer_encoder.layers.0.norm2.bias f4 [16]
00000000: 4f92 83bd 7667 1d3c b9d7 30bd 69a8 803d
00000010: db63 8c3d bd00 83bd 9e6e 42bc 2200 e23c
00000020: 13dd 093c 831d d8bb f622 deba f45b 213d
00000030: 9ac1 5abd d296 01bc 1212 a8ba ec99 1cbc
-0.064243905 0.009607187 -0.04317448 0.06282122 0.068549834 -0.06396625 -0.0118671935 0.027587954
0.008414525 -0.006595315 -0.0016947675 0.039394334 -0.05340729 -0.0079094935 -0.0012822768 -0.009558182

transformer_encoder.layers.1.self_attn.in_proj_weight f4 [48, 16]
00000000: f9b7 993b e923 f73d eb30 50bd 795e 86bd
00000010: d4a1 443e c966 633e 99aa 94be 5026 79be
00000020: 9f0b 7e3e 1458 93be 928a 96be ba72 7cbb
00000030: e21f 123d 507d 1dbe bac1 6dbd 752b 39be
00000040: 9966 0b3e 5a5f e4bd ce77 a63d 2cf9 1fbc
00000050: df5f 8abd 685c 1fbc 59ac 5fbd 2194 973c
00000060: 8b47 603d b6be 66be e651 16be 8637 0cbe
00000070: 3f27 81be 04af 2cbd 5647 623e c711 6e3e
00000080: 3c8a 623d a779 5d3e eab7 32be 503c 91be
00000090: b13b 8fbe e61e 79be 18e0 633d 5f9a 3a3e
000000a0: 820a 1bbe 05ba 133e bfa2 843e 9705 76bd
000000b0: e72e 13be 7c9d 0fbe 7740 83be fcc7 22bd
000000c0: aa39 4dbe d240 d03d a783 963e d49f 9cbe
000000d0: 4b99 993e d52d 273e b970 5bbe 428c 6abe
000000e0: 7811 883e d1bc ecbc 4a05 5abe 3255 d73d
000000f0: 0ddb 793e 9cd6 95bd 5a59 e33d cde6 1bbd
00000100: 8e60 953e 317b f73d 35a0 0a3e 72f9 2cbe
00000110: 041a 8d3b 8695 92be 268c f33d 28b9 a8bc
00000120: 3315 543e ee17 74be 82cc 00be 6729 73be
00000130: 6b3d 903e ec5c 363e 1171 0fbc 1afe 9e3c
00000140: ed41 463d d071 d23d 2e63 643d 5544 6c3e
00000150: 591d 8cbe 85e6 25be 0a47 903e 6ada 0d3e
00000160: 2237 60be c49d 9c3d 5767 1c3e 4b88 2d3e
00000170: 88a6 7abe 83d2 a43d c864 823e f0ff 1dbe
00000180: a880 8cbe d9e2 623e aed5 70be a8b5 1bbd
00000190: 6823 99be 123c 28be c808 213e f621 7fbe
000001a0: b359 843e 63d6 723e b365 8b3e 0816 bbbd
000001b0: 838d babd bcd0 47be 3673 5c3e fcc1 cfbd
000001c0: 894c d6bd c11e 2f3e 79d1 153e 6ccb f4bd
000001d0: 283a 8b3e a4fe 913e 7633 9c3e eac0 543e
000001e0: 169b 623e ad9e 7c3e 5bf1 85bd 0966 563e
000001f0: 47ea 873d c0a1 ebbb 6bb8 423d 5ed2 523e
00000200: b18b 373e 7cd7 0bbe 27a3 1b3e 9b39 313e
00000210: 32ff bf3d e660 aabd 4a9f 7d3d 269b 0c3e
00000220: 47fc 10be 5237 883c 0d22 403e 8c6a 8b3e
00000230: 9dcc ccbd 8b89 923e 7a04 41be be7b 4cbc
00000240: 0e34 c8bd 5325 853e 3568 86be 9023 ebbd
00000250: 8a5e 983d 0218 aabd 1edb 04be 36d8 04be
00000260: 03b1 223e 9dcb 11be a01f 603b ee98 923e
00000270: 0662 50be 66ba 913e 6749 823d e7b2 623e
00000280: dbd3 e4bc 4c82 84be bbec 72be bf97 623e
00000290: 2a9a 8cbe d707 873e 77c3 823e 3407 bb3d
000002a0: dff3 023d 7502 703e 4ad6 6abe 50cb 63be
000002b0: 2b23 4a3e 52d4 3d3e b4ba 6d3e 8dd4 abbc
000002c0: 96e6 a63d a9ef 16be 3c2f 093e 1b8b 44be
000002d0: 2259 37be 7791 d6bd b958 8f3e c867 c8bd
000002e0: b4d7 053e 7320 8a3e ab73 53be 94e3 e9bd
000002f0: 54f9 d1bd 8e97 2c3d e88c fe3d f997 f53d
00000300: 020d e2bd be5c 54be 6998 4f3e 475d 3d3e
00000310: a908 603c 193e 743d 9194 8fbd 01a4 5e3e
00000320: ba1a 04bd 7651 68bc 7654 623e 34ea 123e
00000330: ad5b e03d 97a1 a73d 1650 9c3e adb6 253e
00000340: ed6a 0d3e a789 15be f2a4 97be a105 9cbd
00000350: f472 8e3d c7fe 1abe 57c7 b2bd 7482 abbd
00000360: f457 633e 487d e03d f2e5 2b3e 85c3 113e
00000370: 69ab 653d 66b7 613e 4329 2fbe d959 92bd
00000380: d28e fabd c595 b93d 1f51 743e 874f 3b3e
00000390: f52f 473e 41e3 1fbe a71d aebd 2110 88be
000003a0: 083d 06be 2cd5 0ebe 2f10 e6bd 18ae 823e
000003b0: fd08 fbbd 5590 503d c40f 28be 6af2 463e
000003c0: 3052 7fbe d253 47be 9b5e 1dbd 9e6c 0d3e
000003d0: 44d2 8cbe 1fd2 963d 8206 afbd 9e71 fabd
000003e0: e6c1 553e 699e a53d 7fa9 163e ad81 3e3e
000003f0: 00d2 88be 5211 993e 85cc 0a3e f379 303e
0.0046911207 0.12067396 -0.0508279 -0.06560988 0.19202358 0.22207178 -0.29036406 -0.24331021
0.2480912 -0.28778136 -0.29402596 -0.003852053 0.035674937 -0.15379834 -0.05804608 -0.18082984
0.13613357 -0.11150999 0.0812832 -0.009763997 -0.06756567 -0.009726621 -0.054607723 0.01850325
0.05475573 -0.22533688 -0.1467968 -0.13693056 -0.25225255 -0.042159095 0.22097525 0.23248969
0.05530761 0.21628438 -0.1745297 -0.28366327 -0.27975228 -0.24328193 0.055633634 0.1822295
-0.15140727 0.1442643 0.25905415 -0.060063925 -0.1437336 -0.1402492 -0.2563512 -0.0397415
-0.20041528 0.101686135 0.29397318 -0.3059069 0.29999766 0.16326077 -0.21429719 -0.22905067
0.26575828 -0.028898628 -0.2129108 0.105142966 0.24399967 -0.07316324 0.11101027 -0.038061906
0.29175228 0.12084044 0.13537677 -0.16892031 0.00430608 -0.28629702 0.118919656 -0.020596102
0.20711212 -0.23837253 -0.12578014 -0.23746262 0.28171858 0.17808884 -0.0087549845 0.019408274
0.048402715 0.10275614 0.055758648 0.23072942 -0.2736614 -0.16201217 0.28179199 0.1385285
-0.21896031 0.07647279 0.15273796 0.16946523 -0.24477589 0.080479644 0.25467515 -0.15429664
-0.27441907 0.22156848 -0.23519012 -0.038015038 -0.29909825 -0.16429165 0.15726006 -0.24915299
0.25849685 0.23714595 0.27226028 -0.091350615 -0.091090225 -0.1951322 0.21528324 -0.101444215
-0.10463817 0.17101575 0.14630689 -0.11952862 0.27192807 0.28514588 0.30508012 0.20776716
0.22129473 0.24669905 -0.065401755 0.20937361 0.06636482 -0.007190913 0.047539156 0.20588061
0.17924382 -0.1365642 0.15198956 0.17307131 0.093748465 -0.08319263 0.061919488 0.1373106
-0.14158736 0.016627941 0.1876299 0.27229726 -0.099999644 0.28620562 -0.18849364 -0.012480674
-0.09775554 0.2600504 -0.2625138 -0.114813924 0.07439907 -0.083053604 -0.12974212 -0.12973103
0.15887837 -0.14237829 0.0034198537 0.286323 -0.20349893 0.28462523 0.06361657 0.22138558
-0.027933052 -0.2588066 -0.23723118 0.22128199 -0.27461368 0.2637317 0.25539753 0.09132233
0.031970855 0.23438437 -0.22933307 -0.22245526 0.19739978 0.18538025 0.23215753 -0.020975376
0.081494495 -0.1473986 0.13396925 -0.1919369 -0.17905095 -0.10476964 0.27997378 -0.0978542
0.13070565 0.26977882 -0.20649593 -0.1142036 -0.10252634 0.04213672 0.124292195 0.11991877
-0.11037637 -0.20738503 0.20272984 0.18492614 0.01367394 0.059629533 -0.07010759 0.2174225
-0.03225205 -0.014179578 0.22102532 0.14347154 0.10954986 0.08185118 0.3052985 0.16182967
0.1381032 -0.14603291 -0.2961803 -0.07618261 0.06955519 -0.15136252 -0.08729427 -0.08374491
0.2220152 0.109613955 0.16786936 0.14234741 0.056071673 0.22042617 -0.17105584 -0.07146043
-0.12234272 0.090617694 0.2385907 0.18292056 0.19451888 -0.15614034 -0.085017495 -0.26574805
-0.13109219 -0.13948506 -0.112335555 0.25523448 -0.12257574 0.050918896 -0.16412264 0.19428411
-0.24933696 -0.19465569 -0.0384203 0.13810965 -0.2750417 0.07364296 -0.08546163 -0.12228702
0.20874748 0.08086855 0.14713095 0.18604155 -0.26722717 0.29896027 0.1355458 0.1723402

transformer_encoder.layers.1.self_attn.in_proj_bias f4 [48]
00000000: 0000 0000 0000 0000 0000 0000 0000 0000
00000010: 0000 0000 0000 0000 0000 0000 0000 0000
00000020: 0000 0000 0000 0000 0000 0000 0000 0000
00000030: 0000 0000 0000 0000 0000 0000 0000 0000
00000040: 0000 0000 0000 0000 0000 0000 0000 0000
00000050: 0000 0000 0000 0000 0000 0000 0000 0000
00000060: 0000 0000 0000 0000 0000 0000 0000 0000
00000070: 0000 0000 0000 0000 0000 0000 0000 0000
00000080: 6ca5 5cbd 6fab 6ebd e302 2abd b885 7bbc
00000090: f623 433d dfd0 58bc dded 9cbd 522a 433c
000000a0: f941 e33c de47 443c 15f7 5dbd 81b1 0ebd
000000b0: 5c02 97bb 2f2b 093c 0f79 f6bc 2b47 d1bd
0.0 0.0 0.0 0.0 0.0 0.0 0.0 0.0
0.0 0.0 0.0 0.0 0.0 0.0 0.0 0.0
0.0 0.0 0.0 0.0 0.0 0.0 0.0 0.0
0.0 0.0 0.0 0.0 0.0 0.0 0.0 0.0
-0.053868696 -0.05826896 -0.04150666 -0.015351705 0.047641717 -0.0132333925 -0.07662556 0.011911945
0.02774142 0.011980025 -0.054190714 -0.03483725 -0.0046084356 0.008372112 -0.030087022 -0.10218652
